…
The sparsity of the dataset: 99.99202039826986%
Fri 31 Jan 2025 18:20:53 INFO 
====Testing====
sports
The number of users: 35598
Average actions of users: 1.1244732850160122
The number of items: 13738
Average actions of items: 2.9137429028970736
The number of inters: 40029
The sparsity of the dataset: 99.99181486908563%
Fri 31 Jan 2025 18:20:55 INFO 

=================================


Fri 31 Jan 2025 18:20:55 INFO =========1/9: Parameters:['projection_dim', 'hidden_dim', 'cl_loss', 'vt_loss', 'n_layers', 'seed']=(64, 64, 0.01, 0.1, 2, 999)=======
Fri 31 Jan 2025 18:21:06 INFO MGCN(
  (user_embedding): Embedding(35598, 64)
  (item_id_embedding): Embedding(18357, 64)
  (image_embedding): Embedding(18357, 4096)
  (text_embedding): Embedding(18357, 384)
  (image_trs): Linear(in_features=4096, out_features=64, bias=True)
  (text_trs): Linear(in_features=384, out_features=64, bias=True)
  (softmax): Softmax(dim=-1)
  (query_common): Sequential(
    (0): Linear(in_features=64, out_features=64, bias=True)
    (1): Tanh()
    (2): Linear(in_features=64, out_features=1, bias=False)
  )
  (gate_v): Sequential(
    (0): Linear(in_features=64, out_features=64, bias=True)
    (1): Sigmoid()
  )
  (gate_t): Sequential(
    (0): Linear(in_features=64, out_features=64, bias=True)
    (1): Sigmoid()
  )
  (gate_image_prefer): Sequential(
    (0): Linear(in_features=64, out_features=64, bias=True)
    (1): Sigmoid()
  )
  (gate_text_prefer): Sequential(
    (0): Linear(in_features=64, out_features=64, bias=True)
    (1): Sigmoid()
  )
  (combiner): CombinedFusion(
    (text_projection_layer): Linear(in_features=64, out_features=64, bias=True)
    (image_projection_layer): Linear(in_features=64, out_features=64, bias=True)
    (gate_image_prefer): Sequential(
      (0): Linear(in_features=64, out_features=64, bias=True)
      (1): Sigmoid()
    )
    (gate_text_prefer): Sequential(
      (0): Linear(in_features=64, out_features=64, bias=True)
      (1): Sigmoid()
    )
    (query_common): Sequential(
      (0): Linear(in_features=64, out_features=64, bias=True)
      (1): Tanh()
      (2): Linear(in_features=64, out_features=1, bias=False)
    )
    (dynamic_scalar): Sequential(
      (0): Linear(in_features=128, out_features=64, bias=True)
      (1): ReLU()
      (2): Dropout(p=0.5, inplace=False)
      (3): Linear(in_features=64, out_features=1, bias=True)
      (4): Sigmoid()
    )
    (combiner_layer): Linear(in_features=192, out_features=64, bias=True)
    (output_layer): Linear(in_features=64, out_features=64, bias=True)
    (dropout): Dropout(p=0.5, inplace=False)
  )
  (cb): Combiner(
    (text_projection_layer): Linear(in_features=64, out_features=64, bias=True)
    (image_projection_layer): Linear(in_features=64, out_features=64, bias=True)
    (attention): MultiheadAttention(
      (out_proj): NonDynamicallyQuantizableLinear(in_features=64, out_features=64, bias=True)
    )
    (modal_alignment): Sequential(
      (0): Linear(in_features=64, out_features=64, bias=True)
      (1): ReLU()
      (2): Dropout(p=0.1, inplace=False)
      (3): Linear(in_features=64, out_features=64, bias=True)
    )
    (dynamic_scalar): Sequential(
      (0): Linear(in_features=128, out_features=64, bias=True)
      (1): ReLU()
      (2): Dropout(p=0.1, inplace=False)
      (3): Linear(in_features=64, out_features=1, bias=True)
      (4): Sigmoid()
    )
    (fusion_layer): Sequential(
      (0): Linear(in_features=192, out_features=64, bias=True)
      (1): ReLU()
      (2): Dropout(p=0.1, inplace=False)
      (3): Linear(in_features=64, out_features=64, bias=True)
    )
  )
  (img_projector): Linear(in_features=64, out_features=64, bias=True)
  (text_projector): Linear(in_features=64, out_features=64, bias=True)
  (modal_alignment): Sequential(
    (0): Linear(in_features=64, out_features=128, bias=True)
    (1): ReLU()
    (2): Dropout(p=0.1, inplace=False)
    (3): Linear(in_features=128, out_features=64, bias=True)
  )
  (multihead_attn): MultiHeadAttention(
    (query): Linear(in_features=64, out_features=64, bias=True)
    (key): Linear(in_features=64, out_features=64, bias=True)
    (value): Linear(in_features=64, out_features=64, bias=True)
  )
)
Trainable parameters: 86141378
Fri 31 Jan 2025 18:21:09 INFO epoch 0 training [time: 3.04s, train loss: 91.6016]
Fri 31 Jan 2025 18:21:13 INFO epoch 0 evaluating [time: 1.99s, valid_score: 0.029000]
Fri 31 Jan 2025 18:21:13 INFO valid result: 
recall@5: 0.0115    recall@10: 0.0172    recall@20: 0.0290    recall@50: 0.0496    ndcg@5: 0.0079    ndcg@10: 0.0098    ndcg@20: 0.0128    ndcg@50: 0.0169    precision@5: 0.0024    precision@10: 0.0019    precision@20: 0.0016    precision@50: 0.0011    map@5: 0.0066    map@10: 0.0073    map@20: 0.0081    map@50: 0.0088    
…
Valid: recall@5: 0.0484    recall@10: 0.0743    recall@20: 0.1092    recall@50: 0.1732    ndcg@5: 0.0318    ndcg@10: 0.0403    ndcg@20: 0.0491    ndcg@50: 0.0619    precision@5: 0.0101    precision@10: 0.0078    precision@20: 0.0058    precision@50: 0.0037    map@5: 0.0260    map@10: 0.0295    map@20: 0.0319    map@50: 0.0339    ,
Test: recall@5: 0.0471    recall@10: 0.0750    recall@20: 0.1127    recall@50: 0.1782    ndcg@5: 0.0316    ndcg@10: 0.0408    ndcg@20: 0.0505    ndcg@50: 0.0638    precision@5: 0.0104    precision@10: 0.0083    precision@20: 0.0062    precision@50: 0.0040    map@5: 0.0257    map@10: 0.0294    map@20: 0.0320    map@50: 0.0341    



Fri 31 Jan 2025 18:29:48 INFO =========2/9: Parameters:['projection_dim', 'hidden_dim', 'cl_loss', 'vt_loss', 'n_layers', 'seed']=(64, 128, 0.01, 0.1, 2, 999)=======
Fri 31 Jan 2025 18:29:59 INFO MGCN(
  (user_embedding): Embedding(35598, 64)
  (item_id_embedding): Embedding(18357, 64)
  (image_embedding): Embedding(18357, 4096)
  (text_embedding): Embedding(18357, 384)
  (image_trs): Linear(in_features=4096, out_features=64, bias=True)
  (text_trs): Linear(in_features=384, out_features=64, bias=True)
  (softmax): Softmax(dim=-1)
  (query_common): Sequential(
    (0): Linear(in_features=64, out_features=64, bias=True)
    (1): Tanh()
    (2): Linear(in_features=64, out_features=1, bias=False)
  )
  (gate_v): Sequential(
    (0): Linear(in_features=64, out_features=64, bias=True)
    (1): Sigmoid()
  )
  (gate_t): Sequential(
    (0): Linear(in_features=64, out_features=64, bias=True)
    (1): Sigmoid()
  )
  (gate_image_prefer): Sequential(
    (0): Linear(in_features=64, out_features=64, bias=True)
    (1): Sigmoid()
  )
  (gate_text_prefer): Sequential(
    (0): Linear(in_features=64, out_features=64, bias=True)
    (1): Sigmoid()
  )
  (combiner): CombinedFusion(
    (text_projection_layer): Linear(in_features=64, out_features=64, bias=True)
    (image_projection_layer): Linear(in_features=64, out_features=64, bias=True)
    (gate_image_prefer): Sequential(
      (0): Linear(in_features=64, out_features=64, bias=True)
      (1): Sigmoid()
    )
    (gate_text_prefer): Sequential(
      (0): Linear(in_features=64, out_features=64, bias=True)
      (1): Sigmoid()
    )
    (query_common): Sequential(
      (0): Linear(in_features=64, out_features=64, bias=True)
      (1): Tanh()
      (2): Linear(in_features=64, out_features=1, bias=False)
    )
    (dynamic_scalar): Sequential(
      (0): Linear(in_features=128, out_features=128, bias=True)
      (1): ReLU()
      (2): Dropout(p=0.5, inplace=False)
      (3): Linear(in_features=128, out_features=1, bias=True)
      (4): Sigmoid()
    )
    (combiner_layer): Linear(in_features=192, out_features=128, bias=True)
    (output_layer): Linear(in_features=128, out_features=64, bias=True)
    (dropout): Dropout(p=0.5, inplace=False)
  )
  (cb): Combiner(
    (text_projection_layer): Linear(in_features=64, out_features=64, bias=True)
    (image_projection_layer): Linear(in_features=64, out_features=64, bias=True)
    (attention): MultiheadAttention(
      (out_proj): NonDynamicallyQuantizableLinear(in_features=64, out_features=64, bias=True)
    )
    (modal_alignment): Sequential(
      (0): Linear(in_features=64, out_features=128, bias=True)
      (1): ReLU()
      (2): Dropout(p=0.1, inplace=False)
      (3): Linear(in_features=128, out_features=64, bias=True)
    )
    (dynamic_scalar): Sequential(
      (0): Linear(in_features=128, out_features=128, bias=True)
      (1): ReLU()
      (2): Dropout(p=0.1, inplace=False)
      (3): Linear(in_features=128, out_features=1, bias=True)
      (4): Sigmoid()
    )
    (fusion_layer): Sequential(
      (0): Linear(in_features=192, out_features=128, bias=True)
      (1): ReLU()
      (2): Dropout(p=0.1, inplace=False)
      (3): Linear(in_features=128, out_features=64, bias=True)
    )
  )
  (img_projector): Linear(in_features=64, out_features=64, bias=True)
  (text_projector): Linear(in_features=64, out_features=64, bias=True)
  (modal_alignment): Sequential(
    (0): Linear(in_features=64, out_features=128, bias=True)
    (1): ReLU()
    (2): Dropout(p=0.1, inplace=False)
    (3): Linear(in_features=128, out_features=64, bias=True)
  )
  (multihead_attn): MultiHeadAttention(
    (query): Linear(in_features=64, out_features=64, bias=True)
    (key): Linear(in_features=64, out_features=64, bias=True)
    (value): Linear(in_features=64, out_features=64, bias=True)
  )
)
Trainable parameters: 86199170
Fri 31 Jan 2025 18:30:02 INFO epoch 0 training [time: 2.87s, train loss: 84.1267]
Fri 31 Jan 2025 18:30:06 INFO epoch 0 evaluating [time: 1.92s, valid_score: 0.066800]
Fri 31 Jan 2025 18:30:06 INFO valid result: 
recall@5: 0.0293    recall@10: 0.0449    recall@20: 0.0668    recall@50: 0.1103    ndcg@5: 0.0193    ndcg@10: 0.0244    ndcg@20: 0.0299    ndcg@50: 0.0386    precision@5: 0.0062    precision@10: 0.0047    precision@20: 0.0035    precision@50: 0.0023    map@5: 0.0158    map@10: 0.0179    map@20: 0.0193    map@50: 0.0207    
…
Valid: recall@5: 0.0498    recall@10: 0.0752    recall@20: 0.1114    recall@50: 0.1767    ndcg@5: 0.0332    ndcg@10: 0.0414    ndcg@20: 0.0506    ndcg@50: 0.0637    precision@5: 0.0104    precision@10: 0.0079    precision@20: 0.0059    precision@50: 0.0037    map@5: 0.0273    map@10: 0.0307    map@20: 0.0332    map@50: 0.0352    ,
Test: recall@5: 0.0485    recall@10: 0.0767    recall@20: 0.1146    recall@50: 0.1819    ndcg@5: 0.0325    ndcg@10: 0.0418    ndcg@20: 0.0516    ndcg@50: 0.0652    precision@5: 0.0106    precision@10: 0.0085    precision@20: 0.0064    precision@50: 0.0041    map@5: 0.0265    map@10: 0.0302    map@20: 0.0328    map@50: 0.0350    



Fri 31 Jan 2025 18:39:59 INFO =========3/9: Parameters:['projection_dim', 'hidden_dim', 'cl_loss', 'vt_loss', 'n_layers', 'seed']=(64, 256, 0.01, 0.1, 2, 999)=======
Fri 31 Jan 2025 18:40:10 INFO MGCN(
  (user_embedding): Embedding(35598, 64)
  (item_id_embedding): Embedding(18357, 64)
  (image_embedding): Embedding(18357, 4096)
  (text_embedding): Embedding(18357, 384)
  (image_trs): Linear(in_features=4096, out_features=64, bias=True)
  (text_trs): Linear(in_features=384, out_features=64, bias=True)
  (softmax): Softmax(dim=-1)
  (query_common): Sequential(
    (0): Linear(in_features=64, out_features=64, bias=True)
    (1): Tanh()
    (2): Linear(in_features=64, out_features=1, bias=False)
  )
  (gate_v): Sequential(
    (0): Linear(in_features=64, out_features=64, bias=True)
    (1): Sigmoid()
  )
  (gate_t): Sequential(
    (0): Linear(in_features=64, out_features=64, bias=True)
    (1): Sigmoid()
  )
  (gate_image_prefer): Sequential(
    (0): Linear(in_features=64, out_features=64, bias=True)
    (1): Sigmoid()
  )
  (gate_text_prefer): Sequential(
    (0): Linear(in_features=64, out_features=64, bias=True)
    (1): Sigmoid()
  )
  (combiner): CombinedFusion(
    (text_projection_layer): Linear(in_features=64, out_features=64, bias=True)
    (image_projection_layer): Linear(in_features=64, out_features=64, bias=True)
    (gate_image_prefer): Sequential(
      (0): Linear(in_features=64, out_features=64, bias=True)
      (1): Sigmoid()
    )
    (gate_text_prefer): Sequential(
      (0): Linear(in_features=64, out_features=64, bias=True)
      (1): Sigmoid()
    )
    (query_common): Sequential(
      (0): Linear(in_features=64, out_features=64, bias=True)
      (1): Tanh()
      (2): Linear(in_features=64, out_features=1, bias=False)
    )
    (dynamic_scalar): Sequential(
      (0): Linear(in_features=128, out_features=256, bias=True)
      (1): ReLU()
      (2): Dropout(p=0.5, inplace=False)
      (3): Linear(in_features=256, out_features=1, bias=True)
      (4): Sigmoid()
    )
    (combiner_layer): Linear(in_features=192, out_features=256, bias=True)
    (output_layer): Linear(in_features=256, out_features=64, bias=True)
    (dropout): Dropout(p=0.5, inplace=False)
  )
  (cb): Combiner(
    (text_projection_layer): Linear(in_features=64, out_features=64, bias=True)
    (image_projection_layer): Linear(in_features=64, out_features=64, bias=True)
    (attention): MultiheadAttention(
      (out_proj): NonDynamicallyQuantizableLinear(in_features=64, out_features=64, bias=True)
    )
    (modal_alignment): Sequential(
      (0): Linear(in_features=64, out_features=256, bias=True)
      (1): ReLU()
      (2): Dropout(p=0.1, inplace=False)
      (3): Linear(in_features=256, out_features=64, bias=True)
    )
    (dynamic_scalar): Sequential(
      (0): Linear(in_features=128, out_features=256, bias=True)
      (1): ReLU()
      (2): Dropout(p=0.1, inplace=False)
      (3): Linear(in_features=256, out_features=1, bias=True)
      (4): Sigmoid()
    )
    (fusion_layer): Sequential(
      (0): Linear(in_features=192, out_features=256, bias=True)
      (1): ReLU()
      (2): Dropout(p=0.1, inplace=False)
      (3): Linear(in_features=256, out_features=64, bias=True)
    )
  )
  (img_projector): Linear(in_features=64, out_features=64, bias=True)
  (text_projector): Linear(in_features=64, out_features=64, bias=True)
  (modal_alignment): Sequential(
    (0): Linear(in_features=64, out_features=128, bias=True)
    (1): ReLU()
    (2): Dropout(p=0.1, inplace=False)
    (3): Linear(in_features=128, out_features=64, bias=True)
  )
  (multihead_attn): MultiHeadAttention(
    (query): Linear(in_features=64, out_features=64, bias=True)
    (key): Linear(in_features=64, out_features=64, bias=True)
    (value): Linear(in_features=64, out_features=64, bias=True)
  )
)
Trainable parameters: 86314754
Fri 31 Jan 2025 18:40:13 INFO epoch 0 training [time: 3.10s, train loss: 78.7623]
Fri 31 Jan 2025 18:40:17 INFO epoch 0 evaluating [time: 1.98s, valid_score: 0.062900]
Fri 31 Jan 2025 18:40:17 INFO valid result: 
recall@5: 0.0272    recall@10: 0.0420    recall@20: 0.0629    recall@50: 0.1039    ndcg@5: 0.0184    ndcg@10: 0.0232    ndcg@20: 0.0285    ndcg@50: 0.0367    precision@5: 0.0057    precision@10: 0.0044    precision@20: 0.0033    precision@50: 0.0022    map@5: 0.0153    map@10: 0.0173    map@20: 0.0187    map@50: 0.0200    
…
Valid: recall@5: 0.0498    recall@10: 0.0752    recall@20: 0.1114    recall@50: 0.1767    ndcg@5: 0.0332    ndcg@10: 0.0414    ndcg@20: 0.0506    ndcg@50: 0.0637    precision@5: 0.0104    precision@10: 0.0079    precision@20: 0.0059    precision@50: 0.0037    map@5: 0.0273    map@10: 0.0307    map@20: 0.0332    map@50: 0.0352    ,
Test: recall@5: 0.0485    recall@10: 0.0767    recall@20: 0.1146    recall@50: 0.1819    ndcg@5: 0.0325    ndcg@10: 0.0418    ndcg@20: 0.0516    ndcg@50: 0.0652    precision@5: 0.0106    precision@10: 0.0085    precision@20: 0.0064    precision@50: 0.0041    map@5: 0.0265    map@10: 0.0302    map@20: 0.0328    map@50: 0.0350    



Fri 31 Jan 2025 18:50:28 INFO =========4/9: Parameters:['projection_dim', 'hidden_dim', 'cl_loss', 'vt_loss', 'n_layers', 'seed']=(128, 64, 0.01, 0.1, 2, 999)=======
Fri 31 Jan 2025 18:50:38 INFO MGCN(
  (user_embedding): Embedding(35598, 64)
  (item_id_embedding): Embedding(18357, 64)
  (image_embedding): Embedding(18357, 4096)
  (text_embedding): Embedding(18357, 384)
  (image_trs): Linear(in_features=4096, out_features=64, bias=True)
  (text_trs): Linear(in_features=384, out_features=64, bias=True)
  (softmax): Softmax(dim=-1)
  (query_common): Sequential(
    (0): Linear(in_features=64, out_features=64, bias=True)
    (1): Tanh()
    (2): Linear(in_features=64, out_features=1, bias=False)
  )
  (gate_v): Sequential(
    (0): Linear(in_features=64, out_features=64, bias=True)
    (1): Sigmoid()
  )
  (gate_t): Sequential(
    (0): Linear(in_features=64, out_features=64, bias=True)
    (1): Sigmoid()
  )
  (gate_image_prefer): Sequential(
    (0): Linear(in_features=64, out_features=64, bias=True)
    (1): Sigmoid()
  )
  (gate_text_prefer): Sequential(
    (0): Linear(in_features=64, out_features=64, bias=True)
    (1): Sigmoid()
  )
  (combiner): CombinedFusion(
    (text_projection_layer): Linear(in_features=64, out_features=128, bias=True)
    (image_projection_layer): Linear(in_features=64, out_features=128, bias=True)
    (gate_image_prefer): Sequential(
      (0): Linear(in_features=128, out_features=128, bias=True)
      (1): Sigmoid()
    )
    (gate_text_prefer): Sequential(
      (0): Linear(in_features=128, out_features=128, bias=True)
      (1): Sigmoid()
    )
    (query_common): Sequential(
      (0): Linear(in_features=128, out_features=128, bias=True)
      (1): Tanh()
      (2): Linear(in_features=128, out_features=1, bias=False)
    )
    (dynamic_scalar): Sequential(
      (0): Linear(in_features=256, out_features=64, bias=True)
      (1): ReLU()
      (2): Dropout(p=0.5, inplace=False)
      (3): Linear(in_features=64, out_features=1, bias=True)
      (4): Sigmoid()
    )
    (combiner_layer): Linear(in_features=384, out_features=64, bias=True)
    (output_layer): Linear(in_features=64, out_features=64, bias=True)
    (dropout): Dropout(p=0.5, inplace=False)
  )
  (cb): Combiner(
    (text_projection_layer): Linear(in_features=64, out_features=128, bias=True)
    (image_projection_layer): Linear(in_features=64, out_features=128, bias=True)
    (attention): MultiheadAttention(
      (out_proj): NonDynamicallyQuantizableLinear(in_features=128, out_features=128, bias=True)
    )
    (modal_alignment): Sequential(
      (0): Linear(in_features=128, out_features=64, bias=True)
      (1): ReLU()
      (2): Dropout(p=0.1, inplace=False)
      (3): Linear(in_features=64, out_features=128, bias=True)
    )
    (dynamic_scalar): Sequential(
      (0): Linear(in_features=256, out_features=64, bias=True)
      (1): ReLU()
      (2): Dropout(p=0.1, inplace=False)
      (3): Linear(in_features=64, out_features=1, bias=True)
      (4): Sigmoid()
    )
    (fusion_layer): Sequential(
      (0): Linear(in_features=384, out_features=64, bias=True)
      (1): ReLU()
      (2): Dropout(p=0.1, inplace=False)
      (3): Linear(in_features=64, out_features=64, bias=True)
    )
  )
  (img_projector): Linear(in_features=64, out_features=64, bias=True)
  (text_projector): Linear(in_features=64, out_features=64, bias=True)
  (modal_alignment): Sequential(
    (0): Linear(in_features=64, out_features=128, bias=True)
    (1): ReLU()
    (2): Dropout(p=0.1, inplace=False)
    (3): Linear(in_features=128, out_features=64, bias=True)
  )
  (multihead_attn): MultiHeadAttention(
    (query): Linear(in_features=64, out_features=64, bias=True)
    (key): Linear(in_features=64, out_features=64, bias=True)
    (value): Linear(in_features=64, out_features=64, bias=True)
  )
)
Trainable parameters: 86293762
Fri 31 Jan 2025 18:50:41 INFO epoch 0 training [time: 3.00s, train loss: 92.0457]
Fri 31 Jan 2025 18:50:45 INFO epoch 0 evaluating [time: 1.92s, valid_score: 0.028600]
Fri 31 Jan 2025 18:50:45 INFO valid result: 
recall@5: 0.0118    recall@10: 0.0169    recall@20: 0.0286    recall@50: 0.0492    ndcg@5: 0.0080    ndcg@10: 0.0097    ndcg@20: 0.0127    ndcg@50: 0.0168    precision@5: 0.0025    precision@10: 0.0018    precision@20: 0.0015    precision@50: 0.0011    map@5: 0.0067    map@10: 0.0073    map@20: 0.0081    map@50: 0.0088    
…
Valid: recall@5: 0.0498    recall@10: 0.0752    recall@20: 0.1114    recall@50: 0.1767    ndcg@5: 0.0332    ndcg@10: 0.0414    ndcg@20: 0.0506    ndcg@50: 0.0637    precision@5: 0.0104    precision@10: 0.0079    precision@20: 0.0059    precision@50: 0.0037    map@5: 0.0273    map@10: 0.0307    map@20: 0.0332    map@50: 0.0352    ,
Test: recall@5: 0.0485    recall@10: 0.0767    recall@20: 0.1146    recall@50: 0.1819    ndcg@5: 0.0325    ndcg@10: 0.0418    ndcg@20: 0.0516    ndcg@50: 0.0652    precision@5: 0.0106    precision@10: 0.0085    precision@20: 0.0064    precision@50: 0.0041    map@5: 0.0265    map@10: 0.0302    map@20: 0.0328    map@50: 0.0350    



Fri 31 Jan 2025 18:59:19 INFO =========5/9: Parameters:['projection_dim', 'hidden_dim', 'cl_loss', 'vt_loss', 'n_layers', 'seed']=(128, 128, 0.01, 0.1, 2, 999)=======
Fri 31 Jan 2025 18:59:30 INFO MGCN(
  (user_embedding): Embedding(35598, 64)
  (item_id_embedding): Embedding(18357, 64)
  (image_embedding): Embedding(18357, 4096)
  (text_embedding): Embedding(18357, 384)
  (image_trs): Linear(in_features=4096, out_features=64, bias=True)
  (text_trs): Linear(in_features=384, out_features=64, bias=True)
  (softmax): Softmax(dim=-1)
  (query_common): Sequential(
    (0): Linear(in_features=64, out_features=64, bias=True)
    (1): Tanh()
    (2): Linear(in_features=64, out_features=1, bias=False)
  )
  (gate_v): Sequential(
    (0): Linear(in_features=64, out_features=64, bias=True)
    (1): Sigmoid()
  )
  (gate_t): Sequential(
    (0): Linear(in_features=64, out_features=64, bias=True)
    (1): Sigmoid()
  )
  (gate_image_prefer): Sequential(
    (0): Linear(in_features=64, out_features=64, bias=True)
    (1): Sigmoid()
  )
  (gate_text_prefer): Sequential(
    (0): Linear(in_features=64, out_features=64, bias=True)
    (1): Sigmoid()
  )
  (combiner): CombinedFusion(
    (text_projection_layer): Linear(in_features=64, out_features=128, bias=True)
    (image_projection_layer): Linear(in_features=64, out_features=128, bias=True)
    (gate_image_prefer): Sequential(
      (0): Linear(in_features=128, out_features=128, bias=True)
      (1): Sigmoid()
    )
    (gate_text_prefer): Sequential(
      (0): Linear(in_features=128, out_features=128, bias=True)
      (1): Sigmoid()
    )
    (query_common): Sequential(
      (0): Linear(in_features=128, out_features=128, bias=True)
      (1): Tanh()
      (2): Linear(in_features=128, out_features=1, bias=False)
    )
    (dynamic_scalar): Sequential(
      (0): Linear(in_features=256, out_features=128, bias=True)
      (1): ReLU()
      (2): Dropout(p=0.5, inplace=False)
      (3): Linear(in_features=128, out_features=1, bias=True)
      (4): Sigmoid()
    )
    (combiner_layer): Linear(in_features=384, out_features=128, bias=True)
    (output_layer): Linear(in_features=128, out_features=64, bias=True)
    (dropout): Dropout(p=0.5, inplace=False)
  )
  (cb): Combiner(
    (text_projection_layer): Linear(in_features=64, out_features=128, bias=True)
    (image_projection_layer): Linear(in_features=64, out_features=128, bias=True)
    (attention): MultiheadAttention(
      (out_proj): NonDynamicallyQuantizableLinear(in_features=128, out_features=128, bias=True)
    )
    (modal_alignment): Sequential(
      (0): Linear(in_features=128, out_features=128, bias=True)
      (1): ReLU()
      (2): Dropout(p=0.1, inplace=False)
      (3): Linear(in_features=128, out_features=128, bias=True)
    )
    (dynamic_scalar): Sequential(
      (0): Linear(in_features=256, out_features=128, bias=True)
      (1): ReLU()
      (2): Dropout(p=0.1, inplace=False)
      (3): Linear(in_features=128, out_features=1, bias=True)
      (4): Sigmoid()
    )
    (fusion_layer): Sequential(
      (0): Linear(in_features=384, out_features=128, bias=True)
      (1): ReLU()
      (2): Dropout(p=0.1, inplace=False)
      (3): Linear(in_features=128, out_features=64, bias=True)
    )
  )
  (img_projector): Linear(in_features=64, out_features=64, bias=True)
  (text_projector): Linear(in_features=64, out_features=64, bias=True)
  (modal_alignment): Sequential(
    (0): Linear(in_features=64, out_features=128, bias=True)
    (1): ReLU()
    (2): Dropout(p=0.1, inplace=False)
    (3): Linear(in_features=128, out_features=64, bias=True)
  )
  (multihead_attn): MultiHeadAttention(
    (query): Linear(in_features=64, out_features=64, bias=True)
    (key): Linear(in_features=64, out_features=64, bias=True)
    (value): Linear(in_features=64, out_features=64, bias=True)
  )
)
Trainable parameters: 86400706
Fri 31 Jan 2025 18:59:33 INFO epoch 0 training [time: 3.09s, train loss: 82.5294]
Fri 31 Jan 2025 18:59:37 INFO epoch 0 evaluating [time: 1.94s, valid_score: 0.069300]
Fri 31 Jan 2025 18:59:37 INFO valid result: 
recall@5: 0.0303    recall@10: 0.0468    recall@20: 0.0693    recall@50: 0.1142    ndcg@5: 0.0202    ndcg@10: 0.0255    ndcg@20: 0.0312    ndcg@50: 0.0402    precision@5: 0.0064    precision@10: 0.0050    precision@20: 0.0037    precision@50: 0.0024    map@5: 0.0165    map@10: 0.0187    map@20: 0.0203    map@50: 0.0217    
…
Valid: recall@5: 0.0498    recall@10: 0.0752    recall@20: 0.1114    recall@50: 0.1767    ndcg@5: 0.0332    ndcg@10: 0.0414    ndcg@20: 0.0506    ndcg@50: 0.0637    precision@5: 0.0104    precision@10: 0.0079    precision@20: 0.0059    precision@50: 0.0037    map@5: 0.0273    map@10: 0.0307    map@20: 0.0332    map@50: 0.0352    ,
Test: recall@5: 0.0485    recall@10: 0.0767    recall@20: 0.1146    recall@50: 0.1819    ndcg@5: 0.0325    ndcg@10: 0.0418    ndcg@20: 0.0516    ndcg@50: 0.0652    precision@5: 0.0106    precision@10: 0.0085    precision@20: 0.0064    precision@50: 0.0041    map@5: 0.0265    map@10: 0.0302    map@20: 0.0328    map@50: 0.0350    



Fri 31 Jan 2025 19:09:18 INFO =========6/9: Parameters:['projection_dim', 'hidden_dim', 'cl_loss', 'vt_loss', 'n_layers', 'seed']=(128, 256, 0.01, 0.1, 2, 999)=======
Fri 31 Jan 2025 19:09:28 INFO MGCN(
  (user_embedding): Embedding(35598, 64)
  (item_id_embedding): Embedding(18357, 64)
  (image_embedding): Embedding(18357, 4096)
  (text_embedding): Embedding(18357, 384)
  (image_trs): Linear(in_features=4096, out_features=64, bias=True)
  (text_trs): Linear(in_features=384, out_features=64, bias=True)
  (softmax): Softmax(dim=-1)
  (query_common): Sequential(
    (0): Linear(in_features=64, out_features=64, bias=True)
    (1): Tanh()
    (2): Linear(in_features=64, out_features=1, bias=False)
  )
  (gate_v): Sequential(
    (0): Linear(in_features=64, out_features=64, bias=True)
    (1): Sigmoid()
  )
  (gate_t): Sequential(
    (0): Linear(in_features=64, out_features=64, bias=True)
    (1): Sigmoid()
  )
  (gate_image_prefer): Sequential(
    (0): Linear(in_features=64, out_features=64, bias=True)
    (1): Sigmoid()
  )
  (gate_text_prefer): Sequential(
    (0): Linear(in_features=64, out_features=64, bias=True)
    (1): Sigmoid()
  )
  (combiner): CombinedFusion(
    (text_projection_layer): Linear(in_features=64, out_features=128, bias=True)
    (image_projection_layer): Linear(in_features=64, out_features=128, bias=True)
    (gate_image_prefer): Sequential(
      (0): Linear(in_features=128, out_features=128, bias=True)
      (1): Sigmoid()
    )
    (gate_text_prefer): Sequential(
      (0): Linear(in_features=128, out_features=128, bias=True)
      (1): Sigmoid()
    )
    (query_common): Sequential(
      (0): Linear(in_features=128, out_features=128, bias=True)
      (1): Tanh()
      (2): Linear(in_features=128, out_features=1, bias=False)
    )
    (dynamic_scalar): Sequential(
      (0): Linear(in_features=256, out_features=256, bias=True)
      (1): ReLU()
      (2): Dropout(p=0.5, inplace=False)
      (3): Linear(in_features=256, out_features=1, bias=True)
      (4): Sigmoid()
    )
    (combiner_layer): Linear(in_features=384, out_features=256, bias=True)
    (output_layer): Linear(in_features=256, out_features=64, bias=True)
    (dropout): Dropout(p=0.5, inplace=False)
  )
  (cb): Combiner(
    (text_projection_layer): Linear(in_features=64, out_features=128, bias=True)
    (image_projection_layer): Linear(in_features=64, out_features=128, bias=True)
    (attention): MultiheadAttention(
      (out_proj): NonDynamicallyQuantizableLinear(in_features=128, out_features=128, bias=True)
    )
    (modal_alignment): Sequential(
      (0): Linear(in_features=128, out_features=256, bias=True)
      (1): ReLU()
      (2): Dropout(p=0.1, inplace=False)
      (3): Linear(in_features=256, out_features=128, bias=True)
    )
    (dynamic_scalar): Sequential(
      (0): Linear(in_features=256, out_features=256, bias=True)
      (1): ReLU()
      (2): Dropout(p=0.1, inplace=False)
      (3): Linear(in_features=256, out_features=1, bias=True)
      (4): Sigmoid()
    )
    (fusion_layer): Sequential(
      (0): Linear(in_features=384, out_features=256, bias=True)
      (1): ReLU()
      (2): Dropout(p=0.1, inplace=False)
      (3): Linear(in_features=256, out_features=64, bias=True)
    )
  )
  (img_projector): Linear(in_features=64, out_features=64, bias=True)
  (text_projector): Linear(in_features=64, out_features=64, bias=True)
  (modal_alignment): Sequential(
    (0): Linear(in_features=64, out_features=128, bias=True)
    (1): ReLU()
    (2): Dropout(p=0.1, inplace=False)
    (3): Linear(in_features=128, out_features=64, bias=True)
  )
  (multihead_attn): MultiHeadAttention(
    (query): Linear(in_features=64, out_features=64, bias=True)
    (key): Linear(in_features=64, out_features=64, bias=True)
    (value): Linear(in_features=64, out_features=64, bias=True)
  )
)
Trainable parameters: 86614594
Fri 31 Jan 2025 19:09:32 INFO epoch 0 training [time: 3.37s, train loss: 77.1526]
Fri 31 Jan 2025 19:09:36 INFO epoch 0 evaluating [time: 1.93s, valid_score: 0.066400]
Fri 31 Jan 2025 19:09:36 INFO valid result: 
recall@5: 0.0288    recall@10: 0.0436    recall@20: 0.0664    recall@50: 0.1089    ndcg@5: 0.0192    ndcg@10: 0.0240    ndcg@20: 0.0298    ndcg@50: 0.0383    precision@5: 0.0060    precision@10: 0.0046    precision@20: 0.0035    precision@50: 0.0023    map@5: 0.0159    map@10: 0.0178    map@20: 0.0193    map@50: 0.0207    
…
Valid: recall@5: 0.0498    recall@10: 0.0752    recall@20: 0.1114    recall@50: 0.1767    ndcg@5: 0.0332    ndcg@10: 0.0414    ndcg@20: 0.0506    ndcg@50: 0.0637    precision@5: 0.0104    precision@10: 0.0079    precision@20: 0.0059    precision@50: 0.0037    map@5: 0.0273    map@10: 0.0307    map@20: 0.0332    map@50: 0.0352    ,
Test: recall@5: 0.0485    recall@10: 0.0767    recall@20: 0.1146    recall@50: 0.1819    ndcg@5: 0.0325    ndcg@10: 0.0418    ndcg@20: 0.0516    ndcg@50: 0.0652    precision@5: 0.0106    precision@10: 0.0085    precision@20: 0.0064    precision@50: 0.0041    map@5: 0.0265    map@10: 0.0302    map@20: 0.0328    map@50: 0.0350    



Fri 31 Jan 2025 19:20:56 INFO =========7/9: Parameters:['projection_dim', 'hidden_dim', 'cl_loss', 'vt_loss', 'n_layers', 'seed']=(256, 64, 0.01, 0.1, 2, 999)=======
Fri 31 Jan 2025 19:21:07 INFO MGCN(
  (user_embedding): Embedding(35598, 64)
  (item_id_embedding): Embedding(18357, 64)
  (image_embedding): Embedding(18357, 4096)
  (text_embedding): Embedding(18357, 384)
  (image_trs): Linear(in_features=4096, out_features=64, bias=True)
  (text_trs): Linear(in_features=384, out_features=64, bias=True)
  (softmax): Softmax(dim=-1)
  (query_common): Sequential(
    (0): Linear(in_features=64, out_features=64, bias=True)
    (1): Tanh()
    (2): Linear(in_features=64, out_features=1, bias=False)
  )
  (gate_v): Sequential(
    (0): Linear(in_features=64, out_features=64, bias=True)
    (1): Sigmoid()
  )
  (gate_t): Sequential(
    (0): Linear(in_features=64, out_features=64, bias=True)
    (1): Sigmoid()
  )
  (gate_image_prefer): Sequential(
    (0): Linear(in_features=64, out_features=64, bias=True)
    (1): Sigmoid()
  )
  (gate_text_prefer): Sequential(
    (0): Linear(in_features=64, out_features=64, bias=True)
    (1): Sigmoid()
  )
  (combiner): CombinedFusion(
    (text_projection_layer): Linear(in_features=64, out_features=256, bias=True)
    (image_projection_layer): Linear(in_features=64, out_features=256, bias=True)
    (gate_image_prefer): Sequential(
      (0): Linear(in_features=256, out_features=256, bias=True)
      (1): Sigmoid()
    )
    (gate_text_prefer): Sequential(
      (0): Linear(in_features=256, out_features=256, bias=True)
      (1): Sigmoid()
    )
    (query_common): Sequential(
      (0): Linear(in_features=256, out_features=256, bias=True)
      (1): Tanh()
      (2): Linear(in_features=256, out_features=1, bias=False)
    )
    (dynamic_scalar): Sequential(
      (0): Linear(in_features=512, out_features=64, bias=True)
      (1): ReLU()
      (2): Dropout(p=0.5, inplace=False)
      (3): Linear(in_features=64, out_features=1, bias=True)
      (4): Sigmoid()
    )
    (combiner_layer): Linear(in_features=768, out_features=64, bias=True)
    (output_layer): Linear(in_features=64, out_features=64, bias=True)
    (dropout): Dropout(p=0.5, inplace=False)
  )
  (cb): Combiner(
    (text_projection_layer): Linear(in_features=64, out_features=256, bias=True)
    (image_projection_layer): Linear(in_features=64, out_features=256, bias=True)
    (attention): MultiheadAttention(
      (out_proj): NonDynamicallyQuantizableLinear(in_features=256, out_features=256, bias=True)
    )
    (modal_alignment): Sequential(
      (0): Linear(in_features=256, out_features=64, bias=True)
      (1): ReLU()
      (2): Dropout(p=0.1, inplace=False)
      (3): Linear(in_features=64, out_features=256, bias=True)
    )
    (dynamic_scalar): Sequential(
      (0): Linear(in_features=512, out_features=64, bias=True)
      (1): ReLU()
      (2): Dropout(p=0.1, inplace=False)
      (3): Linear(in_features=64, out_features=1, bias=True)
      (4): Sigmoid()
    )
    (fusion_layer): Sequential(
      (0): Linear(in_features=768, out_features=64, bias=True)
      (1): ReLU()
      (2): Dropout(p=0.1, inplace=False)
      (3): Linear(in_features=64, out_features=64, bias=True)
    )
  )
  (img_projector): Linear(in_features=64, out_features=64, bias=True)
  (text_projector): Linear(in_features=64, out_features=64, bias=True)
  (modal_alignment): Sequential(
    (0): Linear(in_features=64, out_features=128, bias=True)
    (1): ReLU()
    (2): Dropout(p=0.1, inplace=False)
    (3): Linear(in_features=128, out_features=64, bias=True)
  )
  (multihead_attn): MultiHeadAttention(
    (query): Linear(in_features=64, out_features=64, bias=True)
    (key): Linear(in_features=64, out_features=64, bias=True)
    (value): Linear(in_features=64, out_features=64, bias=True)
  )
)
Trainable parameters: 86770562
Fri 31 Jan 2025 19:21:10 INFO epoch 0 training [time: 3.68s, train loss: 91.7734]
Fri 31 Jan 2025 19:21:14 INFO epoch 0 evaluating [time: 1.98s, valid_score: 0.028400]
Fri 31 Jan 2025 19:21:14 INFO valid result: 
recall@5: 0.0115    recall@10: 0.0172    recall@20: 0.0284    recall@50: 0.0492    ndcg@5: 0.0079    ndcg@10: 0.0098    ndcg@20: 0.0126    ndcg@50: 0.0167    precision@5: 0.0024    precision@10: 0.0019    precision@20: 0.0015    precision@50: 0.0011    map@5: 0.0066    map@10: 0.0073    map@20: 0.0081    map@50: 0.0087    
…
Valid: recall@5: 0.0498    recall@10: 0.0752    recall@20: 0.1114    recall@50: 0.1767    ndcg@5: 0.0332    ndcg@10: 0.0414    ndcg@20: 0.0506    ndcg@50: 0.0637    precision@5: 0.0104    precision@10: 0.0079    precision@20: 0.0059    precision@50: 0.0037    map@5: 0.0273    map@10: 0.0307    map@20: 0.0332    map@50: 0.0352    ,
Test: recall@5: 0.0485    recall@10: 0.0767    recall@20: 0.1146    recall@50: 0.1819    ndcg@5: 0.0325    ndcg@10: 0.0418    ndcg@20: 0.0516    ndcg@50: 0.0652    precision@5: 0.0106    precision@10: 0.0085    precision@20: 0.0064    precision@50: 0.0041    map@5: 0.0265    map@10: 0.0302    map@20: 0.0328    map@50: 0.0350    



Fri 31 Jan 2025 19:31:05 INFO =========8/9: Parameters:['projection_dim', 'hidden_dim', 'cl_loss', 'vt_loss', 'n_layers', 'seed']=(256, 128, 0.01, 0.1, 2, 999)=======
Fri 31 Jan 2025 19:31:15 INFO MGCN(
  (user_embedding): Embedding(35598, 64)
  (item_id_embedding): Embedding(18357, 64)
  (image_embedding): Embedding(18357, 4096)
  (text_embedding): Embedding(18357, 384)
  (image_trs): Linear(in_features=4096, out_features=64, bias=True)
  (text_trs): Linear(in_features=384, out_features=64, bias=True)
  (softmax): Softmax(dim=-1)
  (query_common): Sequential(
    (0): Linear(in_features=64, out_features=64, bias=True)
    (1): Tanh()
    (2): Linear(in_features=64, out_features=1, bias=False)
  )
  (gate_v): Sequential(
    (0): Linear(in_features=64, out_features=64, bias=True)
    (1): Sigmoid()
  )
  (gate_t): Sequential(
    (0): Linear(in_features=64, out_features=64, bias=True)
    (1): Sigmoid()
  )
  (gate_image_prefer): Sequential(
    (0): Linear(in_features=64, out_features=64, bias=True)
    (1): Sigmoid()
  )
  (gate_text_prefer): Sequential(
    (0): Linear(in_features=64, out_features=64, bias=True)
    (1): Sigmoid()
  )
  (combiner): CombinedFusion(
    (text_projection_layer): Linear(in_features=64, out_features=256, bias=True)
    (image_projection_layer): Linear(in_features=64, out_features=256, bias=True)
    (gate_image_prefer): Sequential(
      (0): Linear(in_features=256, out_features=256, bias=True)
      (1): Sigmoid()
    )
    (gate_text_prefer): Sequential(
      (0): Linear(in_features=256, out_features=256, bias=True)
      (1): Sigmoid()
    )
    (query_common): Sequential(
      (0): Linear(in_features=256, out_features=256, bias=True)
      (1): Tanh()
      (2): Linear(in_features=256, out_features=1, bias=False)
    )
    (dynamic_scalar): Sequential(
      (0): Linear(in_features=512, out_features=128, bias=True)
      (1): ReLU()
      (2): Dropout(p=0.5, inplace=False)
      (3): Linear(in_features=128, out_features=1, bias=True)
      (4): Sigmoid()
    )
    (combiner_layer): Linear(in_features=768, out_features=128, bias=True)
    (output_layer): Linear(in_features=128, out_features=64, bias=True)
    (dropout): Dropout(p=0.5, inplace=False)
  )
  (cb): Combiner(
    (text_projection_layer): Linear(in_features=64, out_features=256, bias=True)
    (image_projection_layer): Linear(in_features=64, out_features=256, bias=True)
    (attention): MultiheadAttention(
      (out_proj): NonDynamicallyQuantizableLinear(in_features=256, out_features=256, bias=True)
    )
    (modal_alignment): Sequential(
      (0): Linear(in_features=256, out_features=128, bias=True)
      (1): ReLU()
      (2): Dropout(p=0.1, inplace=False)
      (3): Linear(in_features=128, out_features=256, bias=True)
    )
    (dynamic_scalar): Sequential(
      (0): Linear(in_features=512, out_features=128, bias=True)
      (1): ReLU()
      (2): Dropout(p=0.1, inplace=False)
      (3): Linear(in_features=128, out_features=1, bias=True)
      (4): Sigmoid()
    )
    (fusion_layer): Sequential(
      (0): Linear(in_features=768, out_features=128, bias=True)
      (1): ReLU()
      (2): Dropout(p=0.1, inplace=False)
      (3): Linear(in_features=128, out_features=64, bias=True)
    )
  )
  (img_projector): Linear(in_features=64, out_features=64, bias=True)
  (text_projector): Linear(in_features=64, out_features=64, bias=True)
  (modal_alignment): Sequential(
    (0): Linear(in_features=64, out_features=128, bias=True)
    (1): ReLU()
    (2): Dropout(p=0.1, inplace=False)
    (3): Linear(in_features=128, out_features=64, bias=True)
  )
  (multihead_attn): MultiHeadAttention(
    (query): Linear(in_features=64, out_features=64, bias=True)
    (key): Linear(in_features=64, out_features=64, bias=True)
    (value): Linear(in_features=64, out_features=64, bias=True)
  )
)
Trainable parameters: 86975810
Fri 31 Jan 2025 19:31:19 INFO epoch 0 training [time: 3.77s, train loss: 84.1960]
Fri 31 Jan 2025 19:31:23 INFO epoch 0 evaluating [time: 1.97s, valid_score: 0.056000]
Fri 31 Jan 2025 19:31:23 INFO valid result: 
recall@5: 0.0251    recall@10: 0.0371    recall@20: 0.0560    recall@50: 0.0927    ndcg@5: 0.0164    ndcg@10: 0.0203    ndcg@20: 0.0251    ndcg@50: 0.0324    precision@5: 0.0052    precision@10: 0.0039    precision@20: 0.0030    precision@50: 0.0020    map@5: 0.0134    map@10: 0.0149    map@20: 0.0162    map@50: 0.0174    
…
Valid: recall@5: 0.0486    recall@10: 0.0747    recall@20: 0.1115    recall@50: 0.1759    ndcg@5: 0.0322    ndcg@10: 0.0407    ndcg@20: 0.0501    ndcg@50: 0.0629    precision@5: 0.0102    precision@10: 0.0078    precision@20: 0.0059    precision@50: 0.0037    map@5: 0.0264    map@10: 0.0299    map@20: 0.0324    map@50: 0.0344    ,
Test: recall@5: 0.0482    recall@10: 0.0764    recall@20: 0.1147    recall@50: 0.1811    ndcg@5: 0.0322    ndcg@10: 0.0415    ndcg@20: 0.0514    ndcg@50: 0.0649    precision@5: 0.0106    precision@10: 0.0084    precision@20: 0.0064    precision@50: 0.0040    map@5: 0.0262    map@10: 0.0299    map@20: 0.0326    map@50: 0.0347    



Fri 31 Jan 2025 19:42:00 INFO =========9/9: Parameters:['projection_dim', 'hidden_dim', 'cl_loss', 'vt_loss', 'n_layers', 'seed']=(256, 256, 0.01, 0.1, 2, 999)=======
Fri 31 Jan 2025 19:42:11 INFO MGCN(
  (user_embedding): Embedding(35598, 64)
  (item_id_embedding): Embedding(18357, 64)
  (image_embedding): Embedding(18357, 4096)
  (text_embedding): Embedding(18357, 384)
  (image_trs): Linear(in_features=4096, out_features=64, bias=True)
  (text_trs): Linear(in_features=384, out_features=64, bias=True)
  (softmax): Softmax(dim=-1)
  (query_common): Sequential(
    (0): Linear(in_features=64, out_features=64, bias=True)
    (1): Tanh()
    (2): Linear(in_features=64, out_features=1, bias=False)
  )
  (gate_v): Sequential(
    (0): Linear(in_features=64, out_features=64, bias=True)
    (1): Sigmoid()
  )
  (gate_t): Sequential(
    (0): Linear(in_features=64, out_features=64, bias=True)
    (1): Sigmoid()
  )
  (gate_image_prefer): Sequential(
    (0): Linear(in_features=64, out_features=64, bias=True)
    (1): Sigmoid()
  )
  (gate_text_prefer): Sequential(
    (0): Linear(in_features=64, out_features=64, bias=True)
    (1): Sigmoid()
  )
  (combiner): CombinedFusion(
    (text_projection_layer): Linear(in_features=64, out_features=256, bias=True)
    (image_projection_layer): Linear(in_features=64, out_features=256, bias=True)
    (gate_image_prefer): Sequential(
      (0): Linear(in_features=256, out_features=256, bias=True)
      (1): Sigmoid()
    )
    (gate_text_prefer): Sequential(
      (0): Linear(in_features=256, out_features=256, bias=True)
      (1): Sigmoid()
    )
    (query_common): Sequential(
      (0): Linear(in_features=256, out_features=256, bias=True)
      (1): Tanh()
      (2): Linear(in_features=256, out_features=1, bias=False)
    )
    (dynamic_scalar): Sequential(
      (0): Linear(in_features=512, out_features=256, bias=True)
      (1): ReLU()
      (2): Dropout(p=0.5, inplace=False)
      (3): Linear(in_features=256, out_features=1, bias=True)
      (4): Sigmoid()
    )
    (combiner_layer): Linear(in_features=768, out_features=256, bias=True)
    (output_layer): Linear(in_features=256, out_features=64, bias=True)
    (dropout): Dropout(p=0.5, inplace=False)
  )
  (cb): Combiner(
    (text_projection_layer): Linear(in_features=64, out_features=256, bias=True)
    (image_projection_layer): Linear(in_features=64, out_features=256, bias=True)
    (attention): MultiheadAttention(
      (out_proj): NonDynamicallyQuantizableLinear(in_features=256, out_features=256, bias=True)
    )
    (modal_alignment): Sequential(
      (0): Linear(in_features=256, out_features=256, bias=True)
      (1): ReLU()
      (2): Dropout(p=0.1, inplace=False)
      (3): Linear(in_features=256, out_features=256, bias=True)
    )
    (dynamic_scalar): Sequential(
      (0): Linear(in_features=512, out_features=256, bias=True)
      (1): ReLU()
      (2): Dropout(p=0.1, inplace=False)
      (3): Linear(in_features=256, out_features=1, bias=True)
      (4): Sigmoid()
    )
    (fusion_layer): Sequential(
      (0): Linear(in_features=768, out_features=256, bias=True)
      (1): ReLU()
      (2): Dropout(p=0.1, inplace=False)
      (3): Linear(in_features=256, out_features=64, bias=True)
    )
  )
  (img_projector): Linear(in_features=64, out_features=64, bias=True)
  (text_projector): Linear(in_features=64, out_features=64, bias=True)
  (modal_alignment): Sequential(
    (0): Linear(in_features=64, out_features=128, bias=True)
    (1): ReLU()
    (2): Dropout(p=0.1, inplace=False)
    (3): Linear(in_features=128, out_features=64, bias=True)
  )
  (multihead_attn): MultiHeadAttention(
    (query): Linear(in_features=64, out_features=64, bias=True)
    (key): Linear(in_features=64, out_features=64, bias=True)
    (value): Linear(in_features=64, out_features=64, bias=True)
  )
)
Trainable parameters: 87386306
Fri 31 Jan 2025 19:42:15 INFO epoch 0 training [time: 4.25s, train loss: 77.8327]
Fri 31 Jan 2025 19:42:19 INFO epoch 0 evaluating [time: 2.03s, valid_score: 0.064300]
Fri 31 Jan 2025 19:42:19 INFO valid result: 
recall@5: 0.0278    recall@10: 0.0420    recall@20: 0.0643    recall@50: 0.1068    ndcg@5: 0.0188    ndcg@10: 0.0234    ndcg@20: 0.0291    ndcg@50: 0.0376    precision@5: 0.0058    precision@10: 0.0044    precision@20: 0.0034    precision@50: 0.0023    map@5: 0.0156    map@10: 0.0175    map@20: 0.0190    map@50: 0.0203    
…
