…
The sparsity of the dataset: 99.99202039826986%
Mon 03 Feb 2025 13:35:55 INFO 
====Testing====
sports
The number of users: 35598
Average actions of users: 1.1244732850160122
The number of items: 13738
Average actions of items: 2.9137429028970736
The number of inters: 40029
The sparsity of the dataset: 99.99181486908563%
Mon 03 Feb 2025 13:35:57 INFO 

=================================


Mon 03 Feb 2025 13:35:57 INFO =========1/9: Parameters:['projection_dim', 'hidden_dim', 'cl_loss', 'vt_loss', 'n_layers', 'seed']=(64, 64, 0.01, 0.1, 2, 999)=======
Mon 03 Feb 2025 13:36:08 INFO MGCN(
  (user_embedding): Embedding(35598, 64)
  (item_id_embedding): Embedding(18357, 64)
  (image_embedding): Embedding(18357, 4096)
  (text_embedding): Embedding(18357, 384)
  (image_trs): Linear(in_features=4096, out_features=64, bias=True)
  (text_trs): Linear(in_features=384, out_features=64, bias=True)
  (softmax): Softmax(dim=-1)
  (query_common): Sequential(
    (0): Linear(in_features=64, out_features=64, bias=True)
    (1): Tanh()
    (2): Linear(in_features=64, out_features=1, bias=False)
  )
  (gate_v): Sequential(
    (0): Linear(in_features=64, out_features=64, bias=True)
    (1): Sigmoid()
  )
  (gate_t): Sequential(
    (0): Linear(in_features=64, out_features=64, bias=True)
    (1): Sigmoid()
  )
  (gate_image_prefer): Sequential(
    (0): Linear(in_features=64, out_features=64, bias=True)
    (1): Sigmoid()
  )
  (gate_text_prefer): Sequential(
    (0): Linear(in_features=64, out_features=64, bias=True)
    (1): Sigmoid()
  )
  (combiner): CombinedFusion(
    (text_projection_layer): Linear(in_features=64, out_features=64, bias=True)
    (image_projection_layer): Linear(in_features=64, out_features=64, bias=True)
    (gate_image_prefer): Sequential(
      (0): Linear(in_features=64, out_features=64, bias=True)
      (1): Sigmoid()
    )
    (gate_text_prefer): Sequential(
      (0): Linear(in_features=64, out_features=64, bias=True)
      (1): Sigmoid()
    )
    (query_common): Sequential(
      (0): Linear(in_features=64, out_features=64, bias=True)
      (1): Tanh()
      (2): Linear(in_features=64, out_features=1, bias=False)
    )
    (dynamic_scalar): Sequential(
      (0): Linear(in_features=128, out_features=64, bias=True)
      (1): ReLU()
      (2): Dropout(p=0.5, inplace=False)
      (3): Linear(in_features=64, out_features=1, bias=True)
      (4): Sigmoid()
    )
    (combiner_layer): Linear(in_features=192, out_features=64, bias=True)
    (output_layer): Linear(in_features=64, out_features=64, bias=True)
    (dropout): Dropout(p=0.5, inplace=False)
  )
  (cb): Combiner(
    (text_projection_layer): Linear(in_features=64, out_features=64, bias=True)
    (image_projection_layer): Linear(in_features=64, out_features=64, bias=True)
    (attention): MultiheadAttention(
      (out_proj): NonDynamicallyQuantizableLinear(in_features=64, out_features=64, bias=True)
    )
    (modal_alignment): Sequential(
      (0): Linear(in_features=64, out_features=64, bias=True)
      (1): ReLU()
      (2): Dropout(p=0.1, inplace=False)
      (3): Linear(in_features=64, out_features=64, bias=True)
    )
    (dynamic_scalar): Sequential(
      (0): Linear(in_features=128, out_features=64, bias=True)
      (1): ReLU()
      (2): Dropout(p=0.1, inplace=False)
      (3): Linear(in_features=64, out_features=1, bias=True)
      (4): Sigmoid()
    )
    (fusion_layer): Sequential(
      (0): Linear(in_features=192, out_features=64, bias=True)
      (1): ReLU()
      (2): Dropout(p=0.1, inplace=False)
      (3): Linear(in_features=64, out_features=64, bias=True)
    )
  )
  (img_projector): Linear(in_features=64, out_features=64, bias=True)
  (text_projector): Linear(in_features=64, out_features=64, bias=True)
  (modal_alignment): Sequential(
    (0): Linear(in_features=64, out_features=128, bias=True)
    (1): ReLU()
    (2): Dropout(p=0.1, inplace=False)
    (3): Linear(in_features=128, out_features=64, bias=True)
  )
  (multihead_attn): MultiHeadAttention(
    (query): Linear(in_features=64, out_features=64, bias=True)
    (key): Linear(in_features=64, out_features=64, bias=True)
    (value): Linear(in_features=64, out_features=64, bias=True)
  )
)
Trainable parameters: 86141378
Mon 03 Feb 2025 13:36:22 INFO epoch 0 training [time: 14.33s, train loss: 64.9732]
Mon 03 Feb 2025 13:36:27 INFO epoch 0 evaluating [time: 2.66s, valid_score: 0.037400]
Mon 03 Feb 2025 13:36:27 INFO valid result: 
recall@5: 0.0137    recall@10: 0.0223    recall@20: 0.0374    recall@50: 0.0660    ndcg@5: 0.0093    ndcg@10: 0.0120    ndcg@20: 0.0158    ndcg@50: 0.0215    precision@5: 0.0029    precision@10: 0.0024    precision@20: 0.0020    precision@50: 0.0014    map@5: 0.0076    map@10: 0.0087    map@20: 0.0098    map@50: 0.0106    
…
Valid: recall@5: 0.0440    recall@10: 0.0678    recall@20: 0.1015    recall@50: 0.1638    ndcg@5: 0.0292    ndcg@10: 0.0369    ndcg@20: 0.0455    ndcg@50: 0.0579    precision@5: 0.0092    precision@10: 0.0071    precision@20: 0.0054    precision@50: 0.0035    map@5: 0.0240    map@10: 0.0271    map@20: 0.0294    map@50: 0.0314    ,
Test: recall@5: 0.0432    recall@10: 0.0672    recall@20: 0.1023    recall@50: 0.1664    ndcg@5: 0.0286    ndcg@10: 0.0364    ndcg@20: 0.0456    ndcg@50: 0.0586    precision@5: 0.0095    precision@10: 0.0074    precision@20: 0.0057    precision@50: 0.0037    map@5: 0.0230    map@10: 0.0262    map@20: 0.0286    map@50: 0.0307    



Mon 03 Feb 2025 14:15:02 INFO =========2/9: Parameters:['projection_dim', 'hidden_dim', 'cl_loss', 'vt_loss', 'n_layers', 'seed']=(64, 128, 0.01, 0.1, 2, 999)=======
Mon 03 Feb 2025 14:15:13 INFO MGCN(
  (user_embedding): Embedding(35598, 64)
  (item_id_embedding): Embedding(18357, 64)
  (image_embedding): Embedding(18357, 4096)
  (text_embedding): Embedding(18357, 384)
  (image_trs): Linear(in_features=4096, out_features=64, bias=True)
  (text_trs): Linear(in_features=384, out_features=64, bias=True)
  (softmax): Softmax(dim=-1)
  (query_common): Sequential(
    (0): Linear(in_features=64, out_features=64, bias=True)
    (1): Tanh()
    (2): Linear(in_features=64, out_features=1, bias=False)
  )
  (gate_v): Sequential(
    (0): Linear(in_features=64, out_features=64, bias=True)
    (1): Sigmoid()
  )
  (gate_t): Sequential(
    (0): Linear(in_features=64, out_features=64, bias=True)
    (1): Sigmoid()
  )
  (gate_image_prefer): Sequential(
    (0): Linear(in_features=64, out_features=64, bias=True)
    (1): Sigmoid()
  )
  (gate_text_prefer): Sequential(
    (0): Linear(in_features=64, out_features=64, bias=True)
    (1): Sigmoid()
  )
  (combiner): CombinedFusion(
    (text_projection_layer): Linear(in_features=64, out_features=64, bias=True)
    (image_projection_layer): Linear(in_features=64, out_features=64, bias=True)
    (gate_image_prefer): Sequential(
      (0): Linear(in_features=64, out_features=64, bias=True)
      (1): Sigmoid()
    )
    (gate_text_prefer): Sequential(
      (0): Linear(in_features=64, out_features=64, bias=True)
      (1): Sigmoid()
    )
    (query_common): Sequential(
      (0): Linear(in_features=64, out_features=64, bias=True)
      (1): Tanh()
      (2): Linear(in_features=64, out_features=1, bias=False)
    )
    (dynamic_scalar): Sequential(
      (0): Linear(in_features=128, out_features=128, bias=True)
      (1): ReLU()
      (2): Dropout(p=0.5, inplace=False)
      (3): Linear(in_features=128, out_features=1, bias=True)
      (4): Sigmoid()
    )
    (combiner_layer): Linear(in_features=192, out_features=128, bias=True)
    (output_layer): Linear(in_features=128, out_features=64, bias=True)
    (dropout): Dropout(p=0.5, inplace=False)
  )
  (cb): Combiner(
    (text_projection_layer): Linear(in_features=64, out_features=64, bias=True)
    (image_projection_layer): Linear(in_features=64, out_features=64, bias=True)
    (attention): MultiheadAttention(
      (out_proj): NonDynamicallyQuantizableLinear(in_features=64, out_features=64, bias=True)
    )
    (modal_alignment): Sequential(
      (0): Linear(in_features=64, out_features=128, bias=True)
      (1): ReLU()
      (2): Dropout(p=0.1, inplace=False)
      (3): Linear(in_features=128, out_features=64, bias=True)
    )
    (dynamic_scalar): Sequential(
      (0): Linear(in_features=128, out_features=128, bias=True)
      (1): ReLU()
      (2): Dropout(p=0.1, inplace=False)
      (3): Linear(in_features=128, out_features=1, bias=True)
      (4): Sigmoid()
    )
    (fusion_layer): Sequential(
      (0): Linear(in_features=192, out_features=128, bias=True)
      (1): ReLU()
      (2): Dropout(p=0.1, inplace=False)
      (3): Linear(in_features=128, out_features=64, bias=True)
    )
  )
  (img_projector): Linear(in_features=64, out_features=64, bias=True)
  (text_projector): Linear(in_features=64, out_features=64, bias=True)
  (modal_alignment): Sequential(
    (0): Linear(in_features=64, out_features=128, bias=True)
    (1): ReLU()
    (2): Dropout(p=0.1, inplace=False)
    (3): Linear(in_features=128, out_features=64, bias=True)
  )
  (multihead_attn): MultiHeadAttention(
    (query): Linear(in_features=64, out_features=64, bias=True)
    (key): Linear(in_features=64, out_features=64, bias=True)
    (value): Linear(in_features=64, out_features=64, bias=True)
  )
)
Trainable parameters: 86199170
Mon 03 Feb 2025 14:15:27 INFO epoch 0 training [time: 14.15s, train loss: 63.2331]
Mon 03 Feb 2025 14:15:32 INFO epoch 0 evaluating [time: 2.59s, valid_score: 0.037600]
Mon 03 Feb 2025 14:15:32 INFO valid result: 
recall@5: 0.0138    recall@10: 0.0229    recall@20: 0.0376    recall@50: 0.0665    ndcg@5: 0.0093    ndcg@10: 0.0122    ndcg@20: 0.0160    ndcg@50: 0.0217    precision@5: 0.0029    precision@10: 0.0024    precision@20: 0.0020    precision@50: 0.0014    map@5: 0.0077    map@10: 0.0089    map@20: 0.0099    map@50: 0.0108    
…
Valid: recall@5: 0.0454    recall@10: 0.0686    recall@20: 0.1028    recall@50: 0.1638    ndcg@5: 0.0303    ndcg@10: 0.0378    ndcg@20: 0.0465    ndcg@50: 0.0587    precision@5: 0.0095    precision@10: 0.0072    precision@20: 0.0054    precision@50: 0.0035    map@5: 0.0250    map@10: 0.0281    map@20: 0.0304    map@50: 0.0323    ,
Test: recall@5: 0.0439    recall@10: 0.0683    recall@20: 0.1046    recall@50: 0.1670    ndcg@5: 0.0288    ndcg@10: 0.0368    ndcg@20: 0.0461    ndcg@50: 0.0588    precision@5: 0.0096    precision@10: 0.0075    precision@20: 0.0058    precision@50: 0.0037    map@5: 0.0231    map@10: 0.0263    map@20: 0.0288    map@50: 0.0308    



Mon 03 Feb 2025 14:53:02 INFO =========3/9: Parameters:['projection_dim', 'hidden_dim', 'cl_loss', 'vt_loss', 'n_layers', 'seed']=(64, 256, 0.01, 0.1, 2, 999)=======
Mon 03 Feb 2025 14:53:13 INFO MGCN(
  (user_embedding): Embedding(35598, 64)
  (item_id_embedding): Embedding(18357, 64)
  (image_embedding): Embedding(18357, 4096)
  (text_embedding): Embedding(18357, 384)
  (image_trs): Linear(in_features=4096, out_features=64, bias=True)
  (text_trs): Linear(in_features=384, out_features=64, bias=True)
  (softmax): Softmax(dim=-1)
  (query_common): Sequential(
    (0): Linear(in_features=64, out_features=64, bias=True)
    (1): Tanh()
    (2): Linear(in_features=64, out_features=1, bias=False)
  )
  (gate_v): Sequential(
    (0): Linear(in_features=64, out_features=64, bias=True)
    (1): Sigmoid()
  )
  (gate_t): Sequential(
    (0): Linear(in_features=64, out_features=64, bias=True)
    (1): Sigmoid()
  )
  (gate_image_prefer): Sequential(
    (0): Linear(in_features=64, out_features=64, bias=True)
    (1): Sigmoid()
  )
  (gate_text_prefer): Sequential(
    (0): Linear(in_features=64, out_features=64, bias=True)
    (1): Sigmoid()
  )
  (combiner): CombinedFusion(
    (text_projection_layer): Linear(in_features=64, out_features=64, bias=True)
    (image_projection_layer): Linear(in_features=64, out_features=64, bias=True)
    (gate_image_prefer): Sequential(
      (0): Linear(in_features=64, out_features=64, bias=True)
      (1): Sigmoid()
    )
    (gate_text_prefer): Sequential(
      (0): Linear(in_features=64, out_features=64, bias=True)
      (1): Sigmoid()
    )
    (query_common): Sequential(
      (0): Linear(in_features=64, out_features=64, bias=True)
      (1): Tanh()
      (2): Linear(in_features=64, out_features=1, bias=False)
    )
    (dynamic_scalar): Sequential(
      (0): Linear(in_features=128, out_features=256, bias=True)
      (1): ReLU()
      (2): Dropout(p=0.5, inplace=False)
      (3): Linear(in_features=256, out_features=1, bias=True)
      (4): Sigmoid()
    )
    (combiner_layer): Linear(in_features=192, out_features=256, bias=True)
    (output_layer): Linear(in_features=256, out_features=64, bias=True)
    (dropout): Dropout(p=0.5, inplace=False)
  )
  (cb): Combiner(
    (text_projection_layer): Linear(in_features=64, out_features=64, bias=True)
    (image_projection_layer): Linear(in_features=64, out_features=64, bias=True)
    (attention): MultiheadAttention(
      (out_proj): NonDynamicallyQuantizableLinear(in_features=64, out_features=64, bias=True)
    )
    (modal_alignment): Sequential(
      (0): Linear(in_features=64, out_features=256, bias=True)
      (1): ReLU()
      (2): Dropout(p=0.1, inplace=False)
      (3): Linear(in_features=256, out_features=64, bias=True)
    )
    (dynamic_scalar): Sequential(
      (0): Linear(in_features=128, out_features=256, bias=True)
      (1): ReLU()
      (2): Dropout(p=0.1, inplace=False)
      (3): Linear(in_features=256, out_features=1, bias=True)
      (4): Sigmoid()
    )
    (fusion_layer): Sequential(
      (0): Linear(in_features=192, out_features=256, bias=True)
      (1): ReLU()
      (2): Dropout(p=0.1, inplace=False)
      (3): Linear(in_features=256, out_features=64, bias=True)
    )
  )
  (img_projector): Linear(in_features=64, out_features=64, bias=True)
  (text_projector): Linear(in_features=64, out_features=64, bias=True)
  (modal_alignment): Sequential(
    (0): Linear(in_features=64, out_features=128, bias=True)
    (1): ReLU()
    (2): Dropout(p=0.1, inplace=False)
    (3): Linear(in_features=128, out_features=64, bias=True)
  )
  (multihead_attn): MultiHeadAttention(
    (query): Linear(in_features=64, out_features=64, bias=True)
    (key): Linear(in_features=64, out_features=64, bias=True)
    (value): Linear(in_features=64, out_features=64, bias=True)
  )
)
Trainable parameters: 86314754
Mon 03 Feb 2025 14:53:27 INFO epoch 0 training [time: 14.45s, train loss: 62.0898]
Mon 03 Feb 2025 14:53:32 INFO epoch 0 evaluating [time: 2.64s, valid_score: 0.037300]
Mon 03 Feb 2025 14:53:32 INFO valid result: 
recall@5: 0.0142    recall@10: 0.0230    recall@20: 0.0373    recall@50: 0.0668    ndcg@5: 0.0094    ndcg@10: 0.0123    ndcg@20: 0.0159    ndcg@50: 0.0218    precision@5: 0.0030    precision@10: 0.0025    precision@20: 0.0020    precision@50: 0.0014    map@5: 0.0077    map@10: 0.0089    map@20: 0.0098    map@50: 0.0108    
…
Valid: recall@5: 0.0442    recall@10: 0.0685    recall@20: 0.1028    recall@50: 0.1669    ndcg@5: 0.0293    ndcg@10: 0.0372    ndcg@20: 0.0460    ndcg@50: 0.0588    precision@5: 0.0093    precision@10: 0.0072    precision@20: 0.0054    precision@50: 0.0035    map@5: 0.0241    map@10: 0.0273    map@20: 0.0297    map@50: 0.0317    ,
Test: recall@5: 0.0437    recall@10: 0.0690    recall@20: 0.1051    recall@50: 0.1708    ndcg@5: 0.0288    ndcg@10: 0.0371    ndcg@20: 0.0464    ndcg@50: 0.0597    precision@5: 0.0097    precision@10: 0.0076    precision@20: 0.0058    precision@50: 0.0038    map@5: 0.0231    map@10: 0.0264    map@20: 0.0289    map@50: 0.0310    



Mon 03 Feb 2025 15:28:22 INFO =========4/9: Parameters:['projection_dim', 'hidden_dim', 'cl_loss', 'vt_loss', 'n_layers', 'seed']=(128, 64, 0.01, 0.1, 2, 999)=======
Mon 03 Feb 2025 15:28:32 INFO MGCN(
  (user_embedding): Embedding(35598, 64)
  (item_id_embedding): Embedding(18357, 64)
  (image_embedding): Embedding(18357, 4096)
  (text_embedding): Embedding(18357, 384)
  (image_trs): Linear(in_features=4096, out_features=64, bias=True)
  (text_trs): Linear(in_features=384, out_features=64, bias=True)
  (softmax): Softmax(dim=-1)
  (query_common): Sequential(
    (0): Linear(in_features=64, out_features=64, bias=True)
    (1): Tanh()
    (2): Linear(in_features=64, out_features=1, bias=False)
  )
  (gate_v): Sequential(
    (0): Linear(in_features=64, out_features=64, bias=True)
    (1): Sigmoid()
  )
  (gate_t): Sequential(
    (0): Linear(in_features=64, out_features=64, bias=True)
    (1): Sigmoid()
  )
  (gate_image_prefer): Sequential(
    (0): Linear(in_features=64, out_features=64, bias=True)
    (1): Sigmoid()
  )
  (gate_text_prefer): Sequential(
    (0): Linear(in_features=64, out_features=64, bias=True)
    (1): Sigmoid()
  )
  (combiner): CombinedFusion(
    (text_projection_layer): Linear(in_features=64, out_features=128, bias=True)
    (image_projection_layer): Linear(in_features=64, out_features=128, bias=True)
    (gate_image_prefer): Sequential(
      (0): Linear(in_features=128, out_features=128, bias=True)
      (1): Sigmoid()
    )
    (gate_text_prefer): Sequential(
      (0): Linear(in_features=128, out_features=128, bias=True)
      (1): Sigmoid()
    )
    (query_common): Sequential(
      (0): Linear(in_features=128, out_features=128, bias=True)
      (1): Tanh()
      (2): Linear(in_features=128, out_features=1, bias=False)
    )
    (dynamic_scalar): Sequential(
      (0): Linear(in_features=256, out_features=64, bias=True)
      (1): ReLU()
      (2): Dropout(p=0.5, inplace=False)
      (3): Linear(in_features=64, out_features=1, bias=True)
      (4): Sigmoid()
    )
    (combiner_layer): Linear(in_features=384, out_features=64, bias=True)
    (output_layer): Linear(in_features=64, out_features=64, bias=True)
    (dropout): Dropout(p=0.5, inplace=False)
  )
  (cb): Combiner(
    (text_projection_layer): Linear(in_features=64, out_features=128, bias=True)
    (image_projection_layer): Linear(in_features=64, out_features=128, bias=True)
    (attention): MultiheadAttention(
      (out_proj): NonDynamicallyQuantizableLinear(in_features=128, out_features=128, bias=True)
    )
    (modal_alignment): Sequential(
      (0): Linear(in_features=128, out_features=64, bias=True)
      (1): ReLU()
      (2): Dropout(p=0.1, inplace=False)
      (3): Linear(in_features=64, out_features=128, bias=True)
    )
    (dynamic_scalar): Sequential(
      (0): Linear(in_features=256, out_features=64, bias=True)
      (1): ReLU()
      (2): Dropout(p=0.1, inplace=False)
      (3): Linear(in_features=64, out_features=1, bias=True)
      (4): Sigmoid()
    )
    (fusion_layer): Sequential(
      (0): Linear(in_features=384, out_features=64, bias=True)
      (1): ReLU()
      (2): Dropout(p=0.1, inplace=False)
      (3): Linear(in_features=64, out_features=64, bias=True)
    )
  )
  (img_projector): Linear(in_features=64, out_features=64, bias=True)
  (text_projector): Linear(in_features=64, out_features=64, bias=True)
  (modal_alignment): Sequential(
    (0): Linear(in_features=64, out_features=128, bias=True)
    (1): ReLU()
    (2): Dropout(p=0.1, inplace=False)
    (3): Linear(in_features=128, out_features=64, bias=True)
  )
  (multihead_attn): MultiHeadAttention(
    (query): Linear(in_features=64, out_features=64, bias=True)
    (key): Linear(in_features=64, out_features=64, bias=True)
    (value): Linear(in_features=64, out_features=64, bias=True)
  )
)
Trainable parameters: 86293762
Mon 03 Feb 2025 15:28:47 INFO epoch 0 training [time: 14.27s, train loss: 63.7670]
Mon 03 Feb 2025 15:28:52 INFO epoch 0 evaluating [time: 2.61s, valid_score: 0.037400]
Mon 03 Feb 2025 15:28:52 INFO valid result: 
recall@5: 0.0134    recall@10: 0.0230    recall@20: 0.0374    recall@50: 0.0648    ndcg@5: 0.0089    ndcg@10: 0.0120    ndcg@20: 0.0156    ndcg@50: 0.0211    precision@5: 0.0029    precision@10: 0.0025    precision@20: 0.0020    precision@50: 0.0014    map@5: 0.0073    map@10: 0.0085    map@20: 0.0095    map@50: 0.0103    
…
Valid: recall@5: 0.0442    recall@10: 0.0685    recall@20: 0.1028    recall@50: 0.1669    ndcg@5: 0.0293    ndcg@10: 0.0372    ndcg@20: 0.0460    ndcg@50: 0.0588    precision@5: 0.0093    precision@10: 0.0072    precision@20: 0.0054    precision@50: 0.0035    map@5: 0.0241    map@10: 0.0273    map@20: 0.0297    map@50: 0.0317    ,
Test: recall@5: 0.0437    recall@10: 0.0690    recall@20: 0.1051    recall@50: 0.1708    ndcg@5: 0.0288    ndcg@10: 0.0371    ndcg@20: 0.0464    ndcg@50: 0.0597    precision@5: 0.0097    precision@10: 0.0076    precision@20: 0.0058    precision@50: 0.0038    map@5: 0.0231    map@10: 0.0264    map@20: 0.0289    map@50: 0.0310    



Mon 03 Feb 2025 16:18:24 INFO =========5/9: Parameters:['projection_dim', 'hidden_dim', 'cl_loss', 'vt_loss', 'n_layers', 'seed']=(128, 128, 0.01, 0.1, 2, 999)=======
Mon 03 Feb 2025 16:18:35 INFO MGCN(
  (user_embedding): Embedding(35598, 64)
  (item_id_embedding): Embedding(18357, 64)
  (image_embedding): Embedding(18357, 4096)
  (text_embedding): Embedding(18357, 384)
  (image_trs): Linear(in_features=4096, out_features=64, bias=True)
  (text_trs): Linear(in_features=384, out_features=64, bias=True)
  (softmax): Softmax(dim=-1)
  (query_common): Sequential(
    (0): Linear(in_features=64, out_features=64, bias=True)
    (1): Tanh()
    (2): Linear(in_features=64, out_features=1, bias=False)
  )
  (gate_v): Sequential(
    (0): Linear(in_features=64, out_features=64, bias=True)
    (1): Sigmoid()
  )
  (gate_t): Sequential(
    (0): Linear(in_features=64, out_features=64, bias=True)
    (1): Sigmoid()
  )
  (gate_image_prefer): Sequential(
    (0): Linear(in_features=64, out_features=64, bias=True)
    (1): Sigmoid()
  )
  (gate_text_prefer): Sequential(
    (0): Linear(in_features=64, out_features=64, bias=True)
    (1): Sigmoid()
  )
  (combiner): CombinedFusion(
    (text_projection_layer): Linear(in_features=64, out_features=128, bias=True)
    (image_projection_layer): Linear(in_features=64, out_features=128, bias=True)
    (gate_image_prefer): Sequential(
      (0): Linear(in_features=128, out_features=128, bias=True)
      (1): Sigmoid()
    )
    (gate_text_prefer): Sequential(
      (0): Linear(in_features=128, out_features=128, bias=True)
      (1): Sigmoid()
    )
    (query_common): Sequential(
      (0): Linear(in_features=128, out_features=128, bias=True)
      (1): Tanh()
      (2): Linear(in_features=128, out_features=1, bias=False)
    )
    (dynamic_scalar): Sequential(
      (0): Linear(in_features=256, out_features=128, bias=True)
      (1): ReLU()
      (2): Dropout(p=0.5, inplace=False)
      (3): Linear(in_features=128, out_features=1, bias=True)
      (4): Sigmoid()
    )
    (combiner_layer): Linear(in_features=384, out_features=128, bias=True)
    (output_layer): Linear(in_features=128, out_features=64, bias=True)
    (dropout): Dropout(p=0.5, inplace=False)
  )
  (cb): Combiner(
    (text_projection_layer): Linear(in_features=64, out_features=128, bias=True)
    (image_projection_layer): Linear(in_features=64, out_features=128, bias=True)
    (attention): MultiheadAttention(
      (out_proj): NonDynamicallyQuantizableLinear(in_features=128, out_features=128, bias=True)
    )
    (modal_alignment): Sequential(
      (0): Linear(in_features=128, out_features=128, bias=True)
      (1): ReLU()
      (2): Dropout(p=0.1, inplace=False)
      (3): Linear(in_features=128, out_features=128, bias=True)
    )
    (dynamic_scalar): Sequential(
      (0): Linear(in_features=256, out_features=128, bias=True)
      (1): ReLU()
      (2): Dropout(p=0.1, inplace=False)
      (3): Linear(in_features=128, out_features=1, bias=True)
      (4): Sigmoid()
    )
    (fusion_layer): Sequential(
      (0): Linear(in_features=384, out_features=128, bias=True)
      (1): ReLU()
      (2): Dropout(p=0.1, inplace=False)
      (3): Linear(in_features=128, out_features=64, bias=True)
    )
  )
  (img_projector): Linear(in_features=64, out_features=64, bias=True)
  (text_projector): Linear(in_features=64, out_features=64, bias=True)
  (modal_alignment): Sequential(
    (0): Linear(in_features=64, out_features=128, bias=True)
    (1): ReLU()
    (2): Dropout(p=0.1, inplace=False)
    (3): Linear(in_features=128, out_features=64, bias=True)
  )
  (multihead_attn): MultiHeadAttention(
    (query): Linear(in_features=64, out_features=64, bias=True)
    (key): Linear(in_features=64, out_features=64, bias=True)
    (value): Linear(in_features=64, out_features=64, bias=True)
  )
)
Trainable parameters: 86400706
Mon 03 Feb 2025 16:18:49 INFO epoch 0 training [time: 14.38s, train loss: 62.7920]
Mon 03 Feb 2025 16:18:54 INFO epoch 0 evaluating [time: 2.65s, valid_score: 0.036300]
Mon 03 Feb 2025 16:18:54 INFO valid result: 
recall@5: 0.0135    recall@10: 0.0231    recall@20: 0.0363    recall@50: 0.0655    ndcg@5: 0.0091    ndcg@10: 0.0122    ndcg@20: 0.0156    ndcg@50: 0.0213    precision@5: 0.0029    precision@10: 0.0025    precision@20: 0.0019    precision@50: 0.0014    map@5: 0.0075    map@10: 0.0087    map@20: 0.0096    map@50: 0.0105    
…
Valid: recall@5: 0.0442    recall@10: 0.0685    recall@20: 0.1028    recall@50: 0.1669    ndcg@5: 0.0293    ndcg@10: 0.0372    ndcg@20: 0.0460    ndcg@50: 0.0588    precision@5: 0.0093    precision@10: 0.0072    precision@20: 0.0054    precision@50: 0.0035    map@5: 0.0241    map@10: 0.0273    map@20: 0.0297    map@50: 0.0317    ,
Test: recall@5: 0.0437    recall@10: 0.0690    recall@20: 0.1051    recall@50: 0.1708    ndcg@5: 0.0288    ndcg@10: 0.0371    ndcg@20: 0.0464    ndcg@50: 0.0597    precision@5: 0.0097    precision@10: 0.0076    precision@20: 0.0058    precision@50: 0.0038    map@5: 0.0231    map@10: 0.0264    map@20: 0.0289    map@50: 0.0310    



Mon 03 Feb 2025 17:01:34 INFO =========6/9: Parameters:['projection_dim', 'hidden_dim', 'cl_loss', 'vt_loss', 'n_layers', 'seed']=(128, 256, 0.01, 0.1, 2, 999)=======
Mon 03 Feb 2025 17:01:45 INFO MGCN(
  (user_embedding): Embedding(35598, 64)
  (item_id_embedding): Embedding(18357, 64)
  (image_embedding): Embedding(18357, 4096)
  (text_embedding): Embedding(18357, 384)
  (image_trs): Linear(in_features=4096, out_features=64, bias=True)
  (text_trs): Linear(in_features=384, out_features=64, bias=True)
  (softmax): Softmax(dim=-1)
  (query_common): Sequential(
    (0): Linear(in_features=64, out_features=64, bias=True)
    (1): Tanh()
    (2): Linear(in_features=64, out_features=1, bias=False)
  )
  (gate_v): Sequential(
    (0): Linear(in_features=64, out_features=64, bias=True)
    (1): Sigmoid()
  )
  (gate_t): Sequential(
    (0): Linear(in_features=64, out_features=64, bias=True)
    (1): Sigmoid()
  )
  (gate_image_prefer): Sequential(
    (0): Linear(in_features=64, out_features=64, bias=True)
    (1): Sigmoid()
  )
  (gate_text_prefer): Sequential(
    (0): Linear(in_features=64, out_features=64, bias=True)
    (1): Sigmoid()
  )
  (combiner): CombinedFusion(
    (text_projection_layer): Linear(in_features=64, out_features=128, bias=True)
    (image_projection_layer): Linear(in_features=64, out_features=128, bias=True)
    (gate_image_prefer): Sequential(
      (0): Linear(in_features=128, out_features=128, bias=True)
      (1): Sigmoid()
    )
    (gate_text_prefer): Sequential(
      (0): Linear(in_features=128, out_features=128, bias=True)
      (1): Sigmoid()
    )
    (query_common): Sequential(
      (0): Linear(in_features=128, out_features=128, bias=True)
      (1): Tanh()
      (2): Linear(in_features=128, out_features=1, bias=False)
    )
    (dynamic_scalar): Sequential(
      (0): Linear(in_features=256, out_features=256, bias=True)
      (1): ReLU()
      (2): Dropout(p=0.5, inplace=False)
      (3): Linear(in_features=256, out_features=1, bias=True)
      (4): Sigmoid()
    )
    (combiner_layer): Linear(in_features=384, out_features=256, bias=True)
    (output_layer): Linear(in_features=256, out_features=64, bias=True)
    (dropout): Dropout(p=0.5, inplace=False)
  )
  (cb): Combiner(
    (text_projection_layer): Linear(in_features=64, out_features=128, bias=True)
    (image_projection_layer): Linear(in_features=64, out_features=128, bias=True)
    (attention): MultiheadAttention(
      (out_proj): NonDynamicallyQuantizableLinear(in_features=128, out_features=128, bias=True)
    )
    (modal_alignment): Sequential(
      (0): Linear(in_features=128, out_features=256, bias=True)
      (1): ReLU()
      (2): Dropout(p=0.1, inplace=False)
      (3): Linear(in_features=256, out_features=128, bias=True)
    )
    (dynamic_scalar): Sequential(
      (0): Linear(in_features=256, out_features=256, bias=True)
      (1): ReLU()
      (2): Dropout(p=0.1, inplace=False)
      (3): Linear(in_features=256, out_features=1, bias=True)
      (4): Sigmoid()
    )
    (fusion_layer): Sequential(
      (0): Linear(in_features=384, out_features=256, bias=True)
      (1): ReLU()
      (2): Dropout(p=0.1, inplace=False)
      (3): Linear(in_features=256, out_features=64, bias=True)
    )
  )
  (img_projector): Linear(in_features=64, out_features=64, bias=True)
  (text_projector): Linear(in_features=64, out_features=64, bias=True)
  (modal_alignment): Sequential(
    (0): Linear(in_features=64, out_features=128, bias=True)
    (1): ReLU()
    (2): Dropout(p=0.1, inplace=False)
    (3): Linear(in_features=128, out_features=64, bias=True)
  )
  (multihead_attn): MultiHeadAttention(
    (query): Linear(in_features=64, out_features=64, bias=True)
    (key): Linear(in_features=64, out_features=64, bias=True)
    (value): Linear(in_features=64, out_features=64, bias=True)
  )
)
Trainable parameters: 86614594
Mon 03 Feb 2025 17:01:59 INFO epoch 0 training [time: 14.67s, train loss: 60.8223]
Mon 03 Feb 2025 17:02:05 INFO epoch 0 evaluating [time: 2.66s, valid_score: 0.038000]
Mon 03 Feb 2025 17:02:05 INFO valid result: 
recall@5: 0.0142    recall@10: 0.0238    recall@20: 0.0380    recall@50: 0.0674    ndcg@5: 0.0094    ndcg@10: 0.0125    ndcg@20: 0.0161    ndcg@50: 0.0220    precision@5: 0.0030    precision@10: 0.0025    precision@20: 0.0020    precision@50: 0.0014    map@5: 0.0077    map@10: 0.0090    map@20: 0.0100    map@50: 0.0109    
…
Valid: recall@5: 0.0442    recall@10: 0.0685    recall@20: 0.1028    recall@50: 0.1669    ndcg@5: 0.0293    ndcg@10: 0.0372    ndcg@20: 0.0460    ndcg@50: 0.0588    precision@5: 0.0093    precision@10: 0.0072    precision@20: 0.0054    precision@50: 0.0035    map@5: 0.0241    map@10: 0.0273    map@20: 0.0297    map@50: 0.0317    ,
Test: recall@5: 0.0437    recall@10: 0.0690    recall@20: 0.1051    recall@50: 0.1708    ndcg@5: 0.0288    ndcg@10: 0.0371    ndcg@20: 0.0464    ndcg@50: 0.0597    precision@5: 0.0097    precision@10: 0.0076    precision@20: 0.0058    precision@50: 0.0038    map@5: 0.0231    map@10: 0.0264    map@20: 0.0289    map@50: 0.0310    



Mon 03 Feb 2025 17:41:19 INFO =========7/9: Parameters:['projection_dim', 'hidden_dim', 'cl_loss', 'vt_loss', 'n_layers', 'seed']=(256, 64, 0.01, 0.1, 2, 999)=======
Mon 03 Feb 2025 17:41:30 INFO MGCN(
  (user_embedding): Embedding(35598, 64)
  (item_id_embedding): Embedding(18357, 64)
  (image_embedding): Embedding(18357, 4096)
  (text_embedding): Embedding(18357, 384)
  (image_trs): Linear(in_features=4096, out_features=64, bias=True)
  (text_trs): Linear(in_features=384, out_features=64, bias=True)
  (softmax): Softmax(dim=-1)
  (query_common): Sequential(
    (0): Linear(in_features=64, out_features=64, bias=True)
    (1): Tanh()
    (2): Linear(in_features=64, out_features=1, bias=False)
  )
  (gate_v): Sequential(
    (0): Linear(in_features=64, out_features=64, bias=True)
    (1): Sigmoid()
  )
  (gate_t): Sequential(
    (0): Linear(in_features=64, out_features=64, bias=True)
    (1): Sigmoid()
  )
  (gate_image_prefer): Sequential(
    (0): Linear(in_features=64, out_features=64, bias=True)
    (1): Sigmoid()
  )
  (gate_text_prefer): Sequential(
    (0): Linear(in_features=64, out_features=64, bias=True)
    (1): Sigmoid()
  )
  (combiner): CombinedFusion(
    (text_projection_layer): Linear(in_features=64, out_features=256, bias=True)
    (image_projection_layer): Linear(in_features=64, out_features=256, bias=True)
    (gate_image_prefer): Sequential(
      (0): Linear(in_features=256, out_features=256, bias=True)
      (1): Sigmoid()
    )
    (gate_text_prefer): Sequential(
      (0): Linear(in_features=256, out_features=256, bias=True)
      (1): Sigmoid()
    )
    (query_common): Sequential(
      (0): Linear(in_features=256, out_features=256, bias=True)
      (1): Tanh()
      (2): Linear(in_features=256, out_features=1, bias=False)
    )
    (dynamic_scalar): Sequential(
      (0): Linear(in_features=512, out_features=64, bias=True)
      (1): ReLU()
      (2): Dropout(p=0.5, inplace=False)
      (3): Linear(in_features=64, out_features=1, bias=True)
      (4): Sigmoid()
    )
    (combiner_layer): Linear(in_features=768, out_features=64, bias=True)
    (output_layer): Linear(in_features=64, out_features=64, bias=True)
    (dropout): Dropout(p=0.5, inplace=False)
  )
  (cb): Combiner(
    (text_projection_layer): Linear(in_features=64, out_features=256, bias=True)
    (image_projection_layer): Linear(in_features=64, out_features=256, bias=True)
    (attention): MultiheadAttention(
      (out_proj): NonDynamicallyQuantizableLinear(in_features=256, out_features=256, bias=True)
    )
    (modal_alignment): Sequential(
      (0): Linear(in_features=256, out_features=64, bias=True)
      (1): ReLU()
      (2): Dropout(p=0.1, inplace=False)
      (3): Linear(in_features=64, out_features=256, bias=True)
    )
    (dynamic_scalar): Sequential(
      (0): Linear(in_features=512, out_features=64, bias=True)
      (1): ReLU()
      (2): Dropout(p=0.1, inplace=False)
      (3): Linear(in_features=64, out_features=1, bias=True)
      (4): Sigmoid()
    )
    (fusion_layer): Sequential(
      (0): Linear(in_features=768, out_features=64, bias=True)
      (1): ReLU()
      (2): Dropout(p=0.1, inplace=False)
      (3): Linear(in_features=64, out_features=64, bias=True)
    )
  )
  (img_projector): Linear(in_features=64, out_features=64, bias=True)
  (text_projector): Linear(in_features=64, out_features=64, bias=True)
  (modal_alignment): Sequential(
    (0): Linear(in_features=64, out_features=128, bias=True)
    (1): ReLU()
    (2): Dropout(p=0.1, inplace=False)
    (3): Linear(in_features=128, out_features=64, bias=True)
  )
  (multihead_attn): MultiHeadAttention(
    (query): Linear(in_features=64, out_features=64, bias=True)
    (key): Linear(in_features=64, out_features=64, bias=True)
    (value): Linear(in_features=64, out_features=64, bias=True)
  )
)
Trainable parameters: 86770562
Mon 03 Feb 2025 17:41:45 INFO epoch 0 training [time: 14.97s, train loss: 63.2901]
Mon 03 Feb 2025 17:41:50 INFO epoch 0 evaluating [time: 2.64s, valid_score: 0.036800]
Mon 03 Feb 2025 17:41:50 INFO valid result: 
recall@5: 0.0142    recall@10: 0.0228    recall@20: 0.0368    recall@50: 0.0653    ndcg@5: 0.0094    ndcg@10: 0.0121    ndcg@20: 0.0156    ndcg@50: 0.0213    precision@5: 0.0030    precision@10: 0.0024    precision@20: 0.0020    precision@50: 0.0014    map@5: 0.0076    map@10: 0.0087    map@20: 0.0096    map@50: 0.0105    
…
Valid: recall@5: 0.0442    recall@10: 0.0685    recall@20: 0.1028    recall@50: 0.1669    ndcg@5: 0.0293    ndcg@10: 0.0372    ndcg@20: 0.0460    ndcg@50: 0.0588    precision@5: 0.0093    precision@10: 0.0072    precision@20: 0.0054    precision@50: 0.0035    map@5: 0.0241    map@10: 0.0273    map@20: 0.0297    map@50: 0.0317    ,
Test: recall@5: 0.0437    recall@10: 0.0690    recall@20: 0.1051    recall@50: 0.1708    ndcg@5: 0.0288    ndcg@10: 0.0371    ndcg@20: 0.0464    ndcg@50: 0.0597    precision@5: 0.0097    precision@10: 0.0076    precision@20: 0.0058    precision@50: 0.0038    map@5: 0.0231    map@10: 0.0264    map@20: 0.0289    map@50: 0.0310    



Mon 03 Feb 2025 18:30:18 INFO =========8/9: Parameters:['projection_dim', 'hidden_dim', 'cl_loss', 'vt_loss', 'n_layers', 'seed']=(256, 128, 0.01, 0.1, 2, 999)=======
Mon 03 Feb 2025 18:30:29 INFO MGCN(
  (user_embedding): Embedding(35598, 64)
  (item_id_embedding): Embedding(18357, 64)
  (image_embedding): Embedding(18357, 4096)
  (text_embedding): Embedding(18357, 384)
  (image_trs): Linear(in_features=4096, out_features=64, bias=True)
  (text_trs): Linear(in_features=384, out_features=64, bias=True)
  (softmax): Softmax(dim=-1)
  (query_common): Sequential(
    (0): Linear(in_features=64, out_features=64, bias=True)
    (1): Tanh()
    (2): Linear(in_features=64, out_features=1, bias=False)
  )
  (gate_v): Sequential(
    (0): Linear(in_features=64, out_features=64, bias=True)
    (1): Sigmoid()
  )
  (gate_t): Sequential(
    (0): Linear(in_features=64, out_features=64, bias=True)
    (1): Sigmoid()
  )
  (gate_image_prefer): Sequential(
    (0): Linear(in_features=64, out_features=64, bias=True)
    (1): Sigmoid()
  )
  (gate_text_prefer): Sequential(
    (0): Linear(in_features=64, out_features=64, bias=True)
    (1): Sigmoid()
  )
  (combiner): CombinedFusion(
    (text_projection_layer): Linear(in_features=64, out_features=256, bias=True)
    (image_projection_layer): Linear(in_features=64, out_features=256, bias=True)
    (gate_image_prefer): Sequential(
      (0): Linear(in_features=256, out_features=256, bias=True)
      (1): Sigmoid()
    )
    (gate_text_prefer): Sequential(
      (0): Linear(in_features=256, out_features=256, bias=True)
      (1): Sigmoid()
    )
    (query_common): Sequential(
      (0): Linear(in_features=256, out_features=256, bias=True)
      (1): Tanh()
      (2): Linear(in_features=256, out_features=1, bias=False)
    )
    (dynamic_scalar): Sequential(
      (0): Linear(in_features=512, out_features=128, bias=True)
      (1): ReLU()
      (2): Dropout(p=0.5, inplace=False)
      (3): Linear(in_features=128, out_features=1, bias=True)
      (4): Sigmoid()
    )
    (combiner_layer): Linear(in_features=768, out_features=128, bias=True)
    (output_layer): Linear(in_features=128, out_features=64, bias=True)
    (dropout): Dropout(p=0.5, inplace=False)
  )
  (cb): Combiner(
    (text_projection_layer): Linear(in_features=64, out_features=256, bias=True)
    (image_projection_layer): Linear(in_features=64, out_features=256, bias=True)
    (attention): MultiheadAttention(
      (out_proj): NonDynamicallyQuantizableLinear(in_features=256, out_features=256, bias=True)
    )
    (modal_alignment): Sequential(
      (0): Linear(in_features=256, out_features=128, bias=True)
      (1): ReLU()
      (2): Dropout(p=0.1, inplace=False)
      (3): Linear(in_features=128, out_features=256, bias=True)
    )
    (dynamic_scalar): Sequential(
      (0): Linear(in_features=512, out_features=128, bias=True)
      (1): ReLU()
      (2): Dropout(p=0.1, inplace=False)
      (3): Linear(in_features=128, out_features=1, bias=True)
      (4): Sigmoid()
    )
    (fusion_layer): Sequential(
      (0): Linear(in_features=768, out_features=128, bias=True)
      (1): ReLU()
      (2): Dropout(p=0.1, inplace=False)
      (3): Linear(in_features=128, out_features=64, bias=True)
    )
  )
  (img_projector): Linear(in_features=64, out_features=64, bias=True)
  (text_projector): Linear(in_features=64, out_features=64, bias=True)
  (modal_alignment): Sequential(
    (0): Linear(in_features=64, out_features=128, bias=True)
    (1): ReLU()
    (2): Dropout(p=0.1, inplace=False)
    (3): Linear(in_features=128, out_features=64, bias=True)
  )
  (multihead_attn): MultiHeadAttention(
    (query): Linear(in_features=64, out_features=64, bias=True)
    (key): Linear(in_features=64, out_features=64, bias=True)
    (value): Linear(in_features=64, out_features=64, bias=True)
  )
)
Trainable parameters: 86975810
Mon 03 Feb 2025 18:30:44 INFO epoch 0 training [time: 15.01s, train loss: 62.2436]
Mon 03 Feb 2025 18:30:49 INFO epoch 0 evaluating [time: 2.65s, valid_score: 0.033900]
Mon 03 Feb 2025 18:30:49 INFO valid result: 
recall@5: 0.0130    recall@10: 0.0218    recall@20: 0.0339    recall@50: 0.0586    ndcg@5: 0.0087    ndcg@10: 0.0115    ndcg@20: 0.0146    ndcg@50: 0.0195    precision@5: 0.0028    precision@10: 0.0023    precision@20: 0.0018    precision@50: 0.0012    map@5: 0.0072    map@10: 0.0083    map@20: 0.0091    map@50: 0.0099    
…
Valid: recall@5: 0.0442    recall@10: 0.0685    recall@20: 0.1028    recall@50: 0.1669    ndcg@5: 0.0293    ndcg@10: 0.0372    ndcg@20: 0.0460    ndcg@50: 0.0588    precision@5: 0.0093    precision@10: 0.0072    precision@20: 0.0054    precision@50: 0.0035    map@5: 0.0241    map@10: 0.0273    map@20: 0.0297    map@50: 0.0317    ,
Test: recall@5: 0.0437    recall@10: 0.0690    recall@20: 0.1051    recall@50: 0.1708    ndcg@5: 0.0288    ndcg@10: 0.0371    ndcg@20: 0.0464    ndcg@50: 0.0597    precision@5: 0.0097    precision@10: 0.0076    precision@20: 0.0058    precision@50: 0.0038    map@5: 0.0231    map@10: 0.0264    map@20: 0.0289    map@50: 0.0310    



Mon 03 Feb 2025 19:09:08 INFO =========9/9: Parameters:['projection_dim', 'hidden_dim', 'cl_loss', 'vt_loss', 'n_layers', 'seed']=(256, 256, 0.01, 0.1, 2, 999)=======
Mon 03 Feb 2025 19:09:19 INFO MGCN(
  (user_embedding): Embedding(35598, 64)
  (item_id_embedding): Embedding(18357, 64)
  (image_embedding): Embedding(18357, 4096)
  (text_embedding): Embedding(18357, 384)
  (image_trs): Linear(in_features=4096, out_features=64, bias=True)
  (text_trs): Linear(in_features=384, out_features=64, bias=True)
  (softmax): Softmax(dim=-1)
  (query_common): Sequential(
    (0): Linear(in_features=64, out_features=64, bias=True)
    (1): Tanh()
    (2): Linear(in_features=64, out_features=1, bias=False)
  )
  (gate_v): Sequential(
    (0): Linear(in_features=64, out_features=64, bias=True)
    (1): Sigmoid()
  )
  (gate_t): Sequential(
    (0): Linear(in_features=64, out_features=64, bias=True)
    (1): Sigmoid()
  )
  (gate_image_prefer): Sequential(
    (0): Linear(in_features=64, out_features=64, bias=True)
    (1): Sigmoid()
  )
  (gate_text_prefer): Sequential(
    (0): Linear(in_features=64, out_features=64, bias=True)
    (1): Sigmoid()
  )
  (combiner): CombinedFusion(
    (text_projection_layer): Linear(in_features=64, out_features=256, bias=True)
    (image_projection_layer): Linear(in_features=64, out_features=256, bias=True)
    (gate_image_prefer): Sequential(
      (0): Linear(in_features=256, out_features=256, bias=True)
      (1): Sigmoid()
    )
    (gate_text_prefer): Sequential(
      (0): Linear(in_features=256, out_features=256, bias=True)
      (1): Sigmoid()
    )
    (query_common): Sequential(
      (0): Linear(in_features=256, out_features=256, bias=True)
      (1): Tanh()
      (2): Linear(in_features=256, out_features=1, bias=False)
    )
    (dynamic_scalar): Sequential(
      (0): Linear(in_features=512, out_features=256, bias=True)
      (1): ReLU()
      (2): Dropout(p=0.5, inplace=False)
      (3): Linear(in_features=256, out_features=1, bias=True)
      (4): Sigmoid()
    )
    (combiner_layer): Linear(in_features=768, out_features=256, bias=True)
    (output_layer): Linear(in_features=256, out_features=64, bias=True)
    (dropout): Dropout(p=0.5, inplace=False)
  )
  (cb): Combiner(
    (text_projection_layer): Linear(in_features=64, out_features=256, bias=True)
    (image_projection_layer): Linear(in_features=64, out_features=256, bias=True)
    (attention): MultiheadAttention(
      (out_proj): NonDynamicallyQuantizableLinear(in_features=256, out_features=256, bias=True)
    )
    (modal_alignment): Sequential(
      (0): Linear(in_features=256, out_features=256, bias=True)
      (1): ReLU()
      (2): Dropout(p=0.1, inplace=False)
      (3): Linear(in_features=256, out_features=256, bias=True)
    )
    (dynamic_scalar): Sequential(
      (0): Linear(in_features=512, out_features=256, bias=True)
      (1): ReLU()
      (2): Dropout(p=0.1, inplace=False)
      (3): Linear(in_features=256, out_features=1, bias=True)
      (4): Sigmoid()
    )
    (fusion_layer): Sequential(
      (0): Linear(in_features=768, out_features=256, bias=True)
      (1): ReLU()
      (2): Dropout(p=0.1, inplace=False)
      (3): Linear(in_features=256, out_features=64, bias=True)
    )
  )
  (img_projector): Linear(in_features=64, out_features=64, bias=True)
  (text_projector): Linear(in_features=64, out_features=64, bias=True)
  (modal_alignment): Sequential(
    (0): Linear(in_features=64, out_features=128, bias=True)
    (1): ReLU()
    (2): Dropout(p=0.1, inplace=False)
    (3): Linear(in_features=128, out_features=64, bias=True)
  )
  (multihead_attn): MultiHeadAttention(
    (query): Linear(in_features=64, out_features=64, bias=True)
    (key): Linear(in_features=64, out_features=64, bias=True)
    (value): Linear(in_features=64, out_features=64, bias=True)
  )
)
Trainable parameters: 87386306
Mon 03 Feb 2025 19:09:34 INFO epoch 0 training [time: 15.48s, train loss: 62.5501]
Mon 03 Feb 2025 19:09:40 INFO epoch 0 evaluating [time: 2.65s, valid_score: 0.036600]
Mon 03 Feb 2025 19:09:40 INFO valid result: 
recall@5: 0.0139    recall@10: 0.0223    recall@20: 0.0366    recall@50: 0.0635    ndcg@5: 0.0092    ndcg@10: 0.0119    ndcg@20: 0.0156    ndcg@50: 0.0209    precision@5: 0.0030    precision@10: 0.0024    precision@20: 0.0019    precision@50: 0.0013    map@5: 0.0075    map@10: 0.0086    map@20: 0.0096    map@50: 0.0104    
…
