…
The sparsity of the dataset: 99.99202039826986%
Thu 16 Jan 2025 10:46:16 INFO 
====Testing====
sports
The number of users: 35598
Average actions of users: 1.1244732850160122
The number of items: 13738
Average actions of items: 2.9137429028970736
The number of inters: 40029
The sparsity of the dataset: 99.99181486908563%
Thu 16 Jan 2025 10:46:17 INFO 

=================================


Thu 16 Jan 2025 10:46:17 INFO =========1/9: Parameters:['projection_dim', 'hidden_dim', 'cl_loss', 'vt_loss', 'n_layers', 'seed']=(64, 64, 0.01, 0.01, 2, 999)=======
Thu 16 Jan 2025 10:46:28 INFO MGCN(
  (user_embedding): Embedding(35598, 64)
  (item_id_embedding): Embedding(18357, 64)
  (image_embedding): Embedding(18357, 4096)
  (text_embedding): Embedding(18357, 384)
  (image_trs): Linear(in_features=4096, out_features=64, bias=True)
  (text_trs): Linear(in_features=384, out_features=64, bias=True)
  (softmax): Softmax(dim=-1)
  (query_common): Sequential(
    (0): Linear(in_features=64, out_features=64, bias=True)
    (1): Tanh()
    (2): Linear(in_features=64, out_features=1, bias=False)
  )
  (gate_v): Sequential(
    (0): Linear(in_features=64, out_features=64, bias=True)
    (1): Sigmoid()
  )
  (gate_t): Sequential(
    (0): Linear(in_features=64, out_features=64, bias=True)
    (1): Sigmoid()
  )
  (gate_image_prefer): Sequential(
    (0): Linear(in_features=64, out_features=64, bias=True)
    (1): Sigmoid()
  )
  (gate_text_prefer): Sequential(
    (0): Linear(in_features=64, out_features=64, bias=True)
    (1): Sigmoid()
  )
  (combiner): CombinedFusion(
    (text_projection_layer): Linear(in_features=64, out_features=64, bias=True)
    (image_projection_layer): Linear(in_features=64, out_features=64, bias=True)
    (gate_image_prefer): Sequential(
      (0): Linear(in_features=64, out_features=64, bias=True)
      (1): Sigmoid()
    )
    (gate_text_prefer): Sequential(
      (0): Linear(in_features=64, out_features=64, bias=True)
      (1): Sigmoid()
    )
    (query_common): Sequential(
      (0): Linear(in_features=64, out_features=64, bias=True)
      (1): Tanh()
      (2): Linear(in_features=64, out_features=1, bias=False)
    )
    (dynamic_scalar): Sequential(
      (0): Linear(in_features=128, out_features=64, bias=True)
      (1): ReLU()
      (2): Dropout(p=0.5, inplace=False)
      (3): Linear(in_features=64, out_features=1, bias=True)
      (4): Sigmoid()
    )
    (combiner_layer): Linear(in_features=192, out_features=64, bias=True)
    (output_layer): Linear(in_features=64, out_features=64, bias=True)
    (dropout): Dropout(p=0.5, inplace=False)
  )
  (cb): Combiner(
    (text_projection_layer): Linear(in_features=64, out_features=64, bias=True)
    (image_projection_layer): Linear(in_features=64, out_features=64, bias=True)
    (attention): MultiheadAttention(
      (out_proj): NonDynamicallyQuantizableLinear(in_features=64, out_features=64, bias=True)
    )
    (modal_alignment): Sequential(
      (0): Linear(in_features=64, out_features=64, bias=True)
      (1): ReLU()
      (2): Dropout(p=0.1, inplace=False)
      (3): Linear(in_features=64, out_features=64, bias=True)
    )
    (dynamic_scalar): Sequential(
      (0): Linear(in_features=128, out_features=64, bias=True)
      (1): ReLU()
      (2): Dropout(p=0.1, inplace=False)
      (3): Linear(in_features=64, out_features=1, bias=True)
      (4): Sigmoid()
    )
    (fusion_layer): Sequential(
      (0): Linear(in_features=192, out_features=64, bias=True)
      (1): ReLU()
      (2): Dropout(p=0.1, inplace=False)
      (3): Linear(in_features=64, out_features=64, bias=True)
    )
  )
  (img_projector): Linear(in_features=64, out_features=64, bias=True)
  (text_projector): Linear(in_features=64, out_features=64, bias=True)
  (modal_alignment): Sequential(
    (0): Linear(in_features=64, out_features=128, bias=True)
    (1): ReLU()
    (2): Dropout(p=0.1, inplace=False)
    (3): Linear(in_features=128, out_features=64, bias=True)
  )
  (multihead_attn): MultiHeadAttention(
    (query): Linear(in_features=64, out_features=64, bias=True)
    (key): Linear(in_features=64, out_features=64, bias=True)
    (value): Linear(in_features=64, out_features=64, bias=True)
  )
)
Trainable parameters: 86141378
Thu 16 Jan 2025 10:46:43 INFO epoch 0 training [time: 14.54s, train loss: 86.0103]
Thu 16 Jan 2025 10:46:48 INFO epoch 0 evaluating [time: 2.67s, valid_score: 0.056200]
Thu 16 Jan 2025 10:46:48 INFO valid result: 
recall@5: 0.0222    recall@10: 0.0351    recall@20: 0.0562    recall@50: 0.0990    ndcg@5: 0.0144    ndcg@10: 0.0186    ndcg@20: 0.0239    ndcg@50: 0.0325    precision@5: 0.0047    precision@10: 0.0037    precision@20: 0.0030    precision@50: 0.0021    map@5: 0.0116    map@10: 0.0133    map@20: 0.0147    map@50: 0.0161    
…
Valid: recall@5: 0.0485    recall@10: 0.0744    recall@20: 0.1101    recall@50: 0.1770    ndcg@5: 0.0322    ndcg@10: 0.0407    ndcg@20: 0.0497    ndcg@50: 0.0630    precision@5: 0.0102    precision@10: 0.0078    precision@20: 0.0058    precision@50: 0.0037    map@5: 0.0265    map@10: 0.0299    map@20: 0.0324    map@50: 0.0344    ,
Test: recall@5: 0.0481    recall@10: 0.0758    recall@20: 0.1136    recall@50: 0.1808    ndcg@5: 0.0318    ndcg@10: 0.0408    ndcg@20: 0.0506    ndcg@50: 0.0642    precision@5: 0.0105    precision@10: 0.0084    precision@20: 0.0063    precision@50: 0.0040    map@5: 0.0256    map@10: 0.0293    map@20: 0.0319    map@50: 0.0340    



Thu 16 Jan 2025 11:13:30 INFO =========2/9: Parameters:['projection_dim', 'hidden_dim', 'cl_loss', 'vt_loss', 'n_layers', 'seed']=(64, 128, 0.01, 0.01, 2, 999)=======
Thu 16 Jan 2025 11:13:41 INFO MGCN(
  (user_embedding): Embedding(35598, 64)
  (item_id_embedding): Embedding(18357, 64)
  (image_embedding): Embedding(18357, 4096)
  (text_embedding): Embedding(18357, 384)
  (image_trs): Linear(in_features=4096, out_features=64, bias=True)
  (text_trs): Linear(in_features=384, out_features=64, bias=True)
  (softmax): Softmax(dim=-1)
  (query_common): Sequential(
    (0): Linear(in_features=64, out_features=64, bias=True)
    (1): Tanh()
    (2): Linear(in_features=64, out_features=1, bias=False)
  )
  (gate_v): Sequential(
    (0): Linear(in_features=64, out_features=64, bias=True)
    (1): Sigmoid()
  )
  (gate_t): Sequential(
    (0): Linear(in_features=64, out_features=64, bias=True)
    (1): Sigmoid()
  )
  (gate_image_prefer): Sequential(
    (0): Linear(in_features=64, out_features=64, bias=True)
    (1): Sigmoid()
  )
  (gate_text_prefer): Sequential(
    (0): Linear(in_features=64, out_features=64, bias=True)
    (1): Sigmoid()
  )
  (combiner): CombinedFusion(
    (text_projection_layer): Linear(in_features=64, out_features=64, bias=True)
    (image_projection_layer): Linear(in_features=64, out_features=64, bias=True)
    (gate_image_prefer): Sequential(
      (0): Linear(in_features=64, out_features=64, bias=True)
      (1): Sigmoid()
    )
    (gate_text_prefer): Sequential(
      (0): Linear(in_features=64, out_features=64, bias=True)
      (1): Sigmoid()
    )
    (query_common): Sequential(
      (0): Linear(in_features=64, out_features=64, bias=True)
      (1): Tanh()
      (2): Linear(in_features=64, out_features=1, bias=False)
    )
    (dynamic_scalar): Sequential(
      (0): Linear(in_features=128, out_features=128, bias=True)
      (1): ReLU()
      (2): Dropout(p=0.5, inplace=False)
      (3): Linear(in_features=128, out_features=1, bias=True)
      (4): Sigmoid()
    )
    (combiner_layer): Linear(in_features=192, out_features=128, bias=True)
    (output_layer): Linear(in_features=128, out_features=64, bias=True)
    (dropout): Dropout(p=0.5, inplace=False)
  )
  (cb): Combiner(
    (text_projection_layer): Linear(in_features=64, out_features=64, bias=True)
    (image_projection_layer): Linear(in_features=64, out_features=64, bias=True)
    (attention): MultiheadAttention(
      (out_proj): NonDynamicallyQuantizableLinear(in_features=64, out_features=64, bias=True)
    )
    (modal_alignment): Sequential(
      (0): Linear(in_features=64, out_features=128, bias=True)
      (1): ReLU()
      (2): Dropout(p=0.1, inplace=False)
      (3): Linear(in_features=128, out_features=64, bias=True)
    )
    (dynamic_scalar): Sequential(
      (0): Linear(in_features=128, out_features=128, bias=True)
      (1): ReLU()
      (2): Dropout(p=0.1, inplace=False)
      (3): Linear(in_features=128, out_features=1, bias=True)
      (4): Sigmoid()
    )
    (fusion_layer): Sequential(
      (0): Linear(in_features=192, out_features=128, bias=True)
      (1): ReLU()
      (2): Dropout(p=0.1, inplace=False)
      (3): Linear(in_features=128, out_features=64, bias=True)
    )
  )
  (img_projector): Linear(in_features=64, out_features=64, bias=True)
  (text_projector): Linear(in_features=64, out_features=64, bias=True)
  (modal_alignment): Sequential(
    (0): Linear(in_features=64, out_features=128, bias=True)
    (1): ReLU()
    (2): Dropout(p=0.1, inplace=False)
    (3): Linear(in_features=128, out_features=64, bias=True)
  )
  (multihead_attn): MultiHeadAttention(
    (query): Linear(in_features=64, out_features=64, bias=True)
    (key): Linear(in_features=64, out_features=64, bias=True)
    (value): Linear(in_features=64, out_features=64, bias=True)
  )
)
Trainable parameters: 86199170
Thu 16 Jan 2025 11:13:55 INFO epoch 0 training [time: 14.39s, train loss: 75.5836]
Thu 16 Jan 2025 11:14:01 INFO epoch 0 evaluating [time: 2.61s, valid_score: 0.073600]
Thu 16 Jan 2025 11:14:01 INFO valid result: 
recall@5: 0.0309    recall@10: 0.0479    recall@20: 0.0736    recall@50: 0.1205    ndcg@5: 0.0202    ndcg@10: 0.0257    ndcg@20: 0.0322    ndcg@50: 0.0416    precision@5: 0.0065    precision@10: 0.0050    precision@20: 0.0039    precision@50: 0.0026    map@5: 0.0165    map@10: 0.0187    map@20: 0.0204    map@50: 0.0219    
…
Valid: recall@5: 0.0485    recall@10: 0.0744    recall@20: 0.1101    recall@50: 0.1770    ndcg@5: 0.0322    ndcg@10: 0.0407    ndcg@20: 0.0497    ndcg@50: 0.0630    precision@5: 0.0102    precision@10: 0.0078    precision@20: 0.0058    precision@50: 0.0037    map@5: 0.0265    map@10: 0.0299    map@20: 0.0324    map@50: 0.0344    ,
Test: recall@5: 0.0481    recall@10: 0.0758    recall@20: 0.1136    recall@50: 0.1808    ndcg@5: 0.0318    ndcg@10: 0.0408    ndcg@20: 0.0506    ndcg@50: 0.0642    precision@5: 0.0105    precision@10: 0.0084    precision@20: 0.0063    precision@50: 0.0040    map@5: 0.0256    map@10: 0.0293    map@20: 0.0319    map@50: 0.0340    



Thu 16 Jan 2025 11:40:12 INFO =========3/9: Parameters:['projection_dim', 'hidden_dim', 'cl_loss', 'vt_loss', 'n_layers', 'seed']=(64, 256, 0.01, 0.01, 2, 999)=======
Thu 16 Jan 2025 11:40:23 INFO MGCN(
  (user_embedding): Embedding(35598, 64)
  (item_id_embedding): Embedding(18357, 64)
  (image_embedding): Embedding(18357, 4096)
  (text_embedding): Embedding(18357, 384)
  (image_trs): Linear(in_features=4096, out_features=64, bias=True)
  (text_trs): Linear(in_features=384, out_features=64, bias=True)
  (softmax): Softmax(dim=-1)
  (query_common): Sequential(
    (0): Linear(in_features=64, out_features=64, bias=True)
    (1): Tanh()
    (2): Linear(in_features=64, out_features=1, bias=False)
  )
  (gate_v): Sequential(
    (0): Linear(in_features=64, out_features=64, bias=True)
    (1): Sigmoid()
  )
  (gate_t): Sequential(
    (0): Linear(in_features=64, out_features=64, bias=True)
    (1): Sigmoid()
  )
  (gate_image_prefer): Sequential(
    (0): Linear(in_features=64, out_features=64, bias=True)
    (1): Sigmoid()
  )
  (gate_text_prefer): Sequential(
    (0): Linear(in_features=64, out_features=64, bias=True)
    (1): Sigmoid()
  )
  (combiner): CombinedFusion(
    (text_projection_layer): Linear(in_features=64, out_features=64, bias=True)
    (image_projection_layer): Linear(in_features=64, out_features=64, bias=True)
    (gate_image_prefer): Sequential(
      (0): Linear(in_features=64, out_features=64, bias=True)
      (1): Sigmoid()
    )
    (gate_text_prefer): Sequential(
      (0): Linear(in_features=64, out_features=64, bias=True)
      (1): Sigmoid()
    )
    (query_common): Sequential(
      (0): Linear(in_features=64, out_features=64, bias=True)
      (1): Tanh()
      (2): Linear(in_features=64, out_features=1, bias=False)
    )
    (dynamic_scalar): Sequential(
      (0): Linear(in_features=128, out_features=256, bias=True)
      (1): ReLU()
      (2): Dropout(p=0.5, inplace=False)
      (3): Linear(in_features=256, out_features=1, bias=True)
      (4): Sigmoid()
    )
    (combiner_layer): Linear(in_features=192, out_features=256, bias=True)
    (output_layer): Linear(in_features=256, out_features=64, bias=True)
    (dropout): Dropout(p=0.5, inplace=False)
  )
  (cb): Combiner(
    (text_projection_layer): Linear(in_features=64, out_features=64, bias=True)
    (image_projection_layer): Linear(in_features=64, out_features=64, bias=True)
    (attention): MultiheadAttention(
      (out_proj): NonDynamicallyQuantizableLinear(in_features=64, out_features=64, bias=True)
    )
    (modal_alignment): Sequential(
      (0): Linear(in_features=64, out_features=256, bias=True)
      (1): ReLU()
      (2): Dropout(p=0.1, inplace=False)
      (3): Linear(in_features=256, out_features=64, bias=True)
    )
    (dynamic_scalar): Sequential(
      (0): Linear(in_features=128, out_features=256, bias=True)
      (1): ReLU()
      (2): Dropout(p=0.1, inplace=False)
      (3): Linear(in_features=256, out_features=1, bias=True)
      (4): Sigmoid()
    )
    (fusion_layer): Sequential(
      (0): Linear(in_features=192, out_features=256, bias=True)
      (1): ReLU()
      (2): Dropout(p=0.1, inplace=False)
      (3): Linear(in_features=256, out_features=64, bias=True)
    )
  )
  (img_projector): Linear(in_features=64, out_features=64, bias=True)
  (text_projector): Linear(in_features=64, out_features=64, bias=True)
  (modal_alignment): Sequential(
    (0): Linear(in_features=64, out_features=128, bias=True)
    (1): ReLU()
    (2): Dropout(p=0.1, inplace=False)
    (3): Linear(in_features=128, out_features=64, bias=True)
  )
  (multihead_attn): MultiHeadAttention(
    (query): Linear(in_features=64, out_features=64, bias=True)
    (key): Linear(in_features=64, out_features=64, bias=True)
    (value): Linear(in_features=64, out_features=64, bias=True)
  )
)
Trainable parameters: 86314754
Thu 16 Jan 2025 11:40:37 INFO epoch 0 training [time: 14.65s, train loss: 69.6683]
Thu 16 Jan 2025 11:40:43 INFO epoch 0 evaluating [time: 2.66s, valid_score: 0.071700]
Thu 16 Jan 2025 11:40:43 INFO valid result: 
recall@5: 0.0310    recall@10: 0.0475    recall@20: 0.0717    recall@50: 0.1170    ndcg@5: 0.0204    ndcg@10: 0.0257    ndcg@20: 0.0319    ndcg@50: 0.0410    precision@5: 0.0065    precision@10: 0.0050    precision@20: 0.0038    precision@50: 0.0025    map@5: 0.0167    map@10: 0.0188    map@20: 0.0205    map@50: 0.0219    
…
Valid: recall@5: 0.0485    recall@10: 0.0744    recall@20: 0.1101    recall@50: 0.1770    ndcg@5: 0.0322    ndcg@10: 0.0407    ndcg@20: 0.0497    ndcg@50: 0.0630    precision@5: 0.0102    precision@10: 0.0078    precision@20: 0.0058    precision@50: 0.0037    map@5: 0.0265    map@10: 0.0299    map@20: 0.0324    map@50: 0.0344    ,
Test: recall@5: 0.0481    recall@10: 0.0758    recall@20: 0.1136    recall@50: 0.1808    ndcg@5: 0.0318    ndcg@10: 0.0408    ndcg@20: 0.0506    ndcg@50: 0.0642    precision@5: 0.0105    precision@10: 0.0084    precision@20: 0.0063    precision@50: 0.0040    map@5: 0.0256    map@10: 0.0293    map@20: 0.0319    map@50: 0.0340    



Thu 16 Jan 2025 12:09:55 INFO =========4/9: Parameters:['projection_dim', 'hidden_dim', 'cl_loss', 'vt_loss', 'n_layers', 'seed']=(128, 64, 0.01, 0.01, 2, 999)=======
Thu 16 Jan 2025 12:10:06 INFO MGCN(
  (user_embedding): Embedding(35598, 64)
  (item_id_embedding): Embedding(18357, 64)
  (image_embedding): Embedding(18357, 4096)
  (text_embedding): Embedding(18357, 384)
  (image_trs): Linear(in_features=4096, out_features=64, bias=True)
  (text_trs): Linear(in_features=384, out_features=64, bias=True)
  (softmax): Softmax(dim=-1)
  (query_common): Sequential(
    (0): Linear(in_features=64, out_features=64, bias=True)
    (1): Tanh()
    (2): Linear(in_features=64, out_features=1, bias=False)
  )
  (gate_v): Sequential(
    (0): Linear(in_features=64, out_features=64, bias=True)
    (1): Sigmoid()
  )
  (gate_t): Sequential(
    (0): Linear(in_features=64, out_features=64, bias=True)
    (1): Sigmoid()
  )
  (gate_image_prefer): Sequential(
    (0): Linear(in_features=64, out_features=64, bias=True)
    (1): Sigmoid()
  )
  (gate_text_prefer): Sequential(
    (0): Linear(in_features=64, out_features=64, bias=True)
    (1): Sigmoid()
  )
  (combiner): CombinedFusion(
    (text_projection_layer): Linear(in_features=64, out_features=128, bias=True)
    (image_projection_layer): Linear(in_features=64, out_features=128, bias=True)
    (gate_image_prefer): Sequential(
      (0): Linear(in_features=128, out_features=128, bias=True)
      (1): Sigmoid()
    )
    (gate_text_prefer): Sequential(
      (0): Linear(in_features=128, out_features=128, bias=True)
      (1): Sigmoid()
    )
    (query_common): Sequential(
      (0): Linear(in_features=128, out_features=128, bias=True)
      (1): Tanh()
      (2): Linear(in_features=128, out_features=1, bias=False)
    )
    (dynamic_scalar): Sequential(
      (0): Linear(in_features=256, out_features=64, bias=True)
      (1): ReLU()
      (2): Dropout(p=0.5, inplace=False)
      (3): Linear(in_features=64, out_features=1, bias=True)
      (4): Sigmoid()
    )
    (combiner_layer): Linear(in_features=384, out_features=64, bias=True)
    (output_layer): Linear(in_features=64, out_features=64, bias=True)
    (dropout): Dropout(p=0.5, inplace=False)
  )
  (cb): Combiner(
    (text_projection_layer): Linear(in_features=64, out_features=128, bias=True)
    (image_projection_layer): Linear(in_features=64, out_features=128, bias=True)
    (attention): MultiheadAttention(
      (out_proj): NonDynamicallyQuantizableLinear(in_features=128, out_features=128, bias=True)
    )
    (modal_alignment): Sequential(
      (0): Linear(in_features=128, out_features=64, bias=True)
      (1): ReLU()
      (2): Dropout(p=0.1, inplace=False)
      (3): Linear(in_features=64, out_features=128, bias=True)
    )
    (dynamic_scalar): Sequential(
      (0): Linear(in_features=256, out_features=64, bias=True)
      (1): ReLU()
      (2): Dropout(p=0.1, inplace=False)
      (3): Linear(in_features=64, out_features=1, bias=True)
      (4): Sigmoid()
    )
    (fusion_layer): Sequential(
      (0): Linear(in_features=384, out_features=64, bias=True)
      (1): ReLU()
      (2): Dropout(p=0.1, inplace=False)
      (3): Linear(in_features=64, out_features=64, bias=True)
    )
  )
  (img_projector): Linear(in_features=64, out_features=64, bias=True)
  (text_projector): Linear(in_features=64, out_features=64, bias=True)
  (modal_alignment): Sequential(
    (0): Linear(in_features=64, out_features=128, bias=True)
    (1): ReLU()
    (2): Dropout(p=0.1, inplace=False)
    (3): Linear(in_features=128, out_features=64, bias=True)
  )
  (multihead_attn): MultiHeadAttention(
    (query): Linear(in_features=64, out_features=64, bias=True)
    (key): Linear(in_features=64, out_features=64, bias=True)
    (value): Linear(in_features=64, out_features=64, bias=True)
  )
)
Trainable parameters: 86293762
Thu 16 Jan 2025 12:10:21 INFO epoch 0 training [time: 14.54s, train loss: 88.5862]
Thu 16 Jan 2025 12:10:26 INFO epoch 0 evaluating [time: 2.60s, valid_score: 0.036100]
Thu 16 Jan 2025 12:10:26 INFO valid result: 
recall@5: 0.0134    recall@10: 0.0214    recall@20: 0.0361    recall@50: 0.0636    ndcg@5: 0.0090    ndcg@10: 0.0116    ndcg@20: 0.0153    ndcg@50: 0.0208    precision@5: 0.0029    precision@10: 0.0023    precision@20: 0.0019    precision@50: 0.0014    map@5: 0.0074    map@10: 0.0084    map@20: 0.0094    map@50: 0.0103    
…
Valid: recall@5: 0.0485    recall@10: 0.0744    recall@20: 0.1101    recall@50: 0.1770    ndcg@5: 0.0322    ndcg@10: 0.0407    ndcg@20: 0.0497    ndcg@50: 0.0630    precision@5: 0.0102    precision@10: 0.0078    precision@20: 0.0058    precision@50: 0.0037    map@5: 0.0265    map@10: 0.0299    map@20: 0.0324    map@50: 0.0344    ,
Test: recall@5: 0.0481    recall@10: 0.0758    recall@20: 0.1136    recall@50: 0.1808    ndcg@5: 0.0318    ndcg@10: 0.0408    ndcg@20: 0.0506    ndcg@50: 0.0642    precision@5: 0.0105    precision@10: 0.0084    precision@20: 0.0063    precision@50: 0.0040    map@5: 0.0256    map@10: 0.0293    map@20: 0.0319    map@50: 0.0340    



Thu 16 Jan 2025 12:44:10 INFO =========5/9: Parameters:['projection_dim', 'hidden_dim', 'cl_loss', 'vt_loss', 'n_layers', 'seed']=(128, 128, 0.01, 0.01, 2, 999)=======
Thu 16 Jan 2025 12:44:21 INFO MGCN(
  (user_embedding): Embedding(35598, 64)
  (item_id_embedding): Embedding(18357, 64)
  (image_embedding): Embedding(18357, 4096)
  (text_embedding): Embedding(18357, 384)
  (image_trs): Linear(in_features=4096, out_features=64, bias=True)
  (text_trs): Linear(in_features=384, out_features=64, bias=True)
  (softmax): Softmax(dim=-1)
  (query_common): Sequential(
    (0): Linear(in_features=64, out_features=64, bias=True)
    (1): Tanh()
    (2): Linear(in_features=64, out_features=1, bias=False)
  )
  (gate_v): Sequential(
    (0): Linear(in_features=64, out_features=64, bias=True)
    (1): Sigmoid()
  )
  (gate_t): Sequential(
    (0): Linear(in_features=64, out_features=64, bias=True)
    (1): Sigmoid()
  )
  (gate_image_prefer): Sequential(
    (0): Linear(in_features=64, out_features=64, bias=True)
    (1): Sigmoid()
  )
  (gate_text_prefer): Sequential(
    (0): Linear(in_features=64, out_features=64, bias=True)
    (1): Sigmoid()
  )
  (combiner): CombinedFusion(
    (text_projection_layer): Linear(in_features=64, out_features=128, bias=True)
    (image_projection_layer): Linear(in_features=64, out_features=128, bias=True)
    (gate_image_prefer): Sequential(
      (0): Linear(in_features=128, out_features=128, bias=True)
      (1): Sigmoid()
    )
    (gate_text_prefer): Sequential(
      (0): Linear(in_features=128, out_features=128, bias=True)
      (1): Sigmoid()
    )
    (query_common): Sequential(
      (0): Linear(in_features=128, out_features=128, bias=True)
      (1): Tanh()
      (2): Linear(in_features=128, out_features=1, bias=False)
    )
    (dynamic_scalar): Sequential(
      (0): Linear(in_features=256, out_features=128, bias=True)
      (1): ReLU()
      (2): Dropout(p=0.5, inplace=False)
      (3): Linear(in_features=128, out_features=1, bias=True)
      (4): Sigmoid()
    )
    (combiner_layer): Linear(in_features=384, out_features=128, bias=True)
    (output_layer): Linear(in_features=128, out_features=64, bias=True)
    (dropout): Dropout(p=0.5, inplace=False)
  )
  (cb): Combiner(
    (text_projection_layer): Linear(in_features=64, out_features=128, bias=True)
    (image_projection_layer): Linear(in_features=64, out_features=128, bias=True)
    (attention): MultiheadAttention(
      (out_proj): NonDynamicallyQuantizableLinear(in_features=128, out_features=128, bias=True)
    )
    (modal_alignment): Sequential(
      (0): Linear(in_features=128, out_features=128, bias=True)
      (1): ReLU()
      (2): Dropout(p=0.1, inplace=False)
      (3): Linear(in_features=128, out_features=128, bias=True)
    )
    (dynamic_scalar): Sequential(
      (0): Linear(in_features=256, out_features=128, bias=True)
      (1): ReLU()
      (2): Dropout(p=0.1, inplace=False)
      (3): Linear(in_features=128, out_features=1, bias=True)
      (4): Sigmoid()
    )
    (fusion_layer): Sequential(
      (0): Linear(in_features=384, out_features=128, bias=True)
      (1): ReLU()
      (2): Dropout(p=0.1, inplace=False)
      (3): Linear(in_features=128, out_features=64, bias=True)
    )
  )
  (img_projector): Linear(in_features=64, out_features=64, bias=True)
  (text_projector): Linear(in_features=64, out_features=64, bias=True)
  (modal_alignment): Sequential(
    (0): Linear(in_features=64, out_features=128, bias=True)
    (1): ReLU()
    (2): Dropout(p=0.1, inplace=False)
    (3): Linear(in_features=128, out_features=64, bias=True)
  )
  (multihead_attn): MultiHeadAttention(
    (query): Linear(in_features=64, out_features=64, bias=True)
    (key): Linear(in_features=64, out_features=64, bias=True)
    (value): Linear(in_features=64, out_features=64, bias=True)
  )
)
Trainable parameters: 86400706
Thu 16 Jan 2025 12:44:35 INFO epoch 0 training [time: 14.69s, train loss: 73.7993]
Thu 16 Jan 2025 12:44:41 INFO epoch 0 evaluating [time: 2.61s, valid_score: 0.076000]
Thu 16 Jan 2025 12:44:41 INFO valid result: 
recall@5: 0.0317    recall@10: 0.0511    recall@20: 0.0760    recall@50: 0.1234    ndcg@5: 0.0210    ndcg@10: 0.0273    ndcg@20: 0.0336    ndcg@50: 0.0431    precision@5: 0.0066    precision@10: 0.0054    precision@20: 0.0040    precision@50: 0.0026    map@5: 0.0172    map@10: 0.0198    map@20: 0.0215    map@50: 0.0230    
…
Valid: recall@5: 0.0485    recall@10: 0.0744    recall@20: 0.1101    recall@50: 0.1770    ndcg@5: 0.0322    ndcg@10: 0.0407    ndcg@20: 0.0497    ndcg@50: 0.0630    precision@5: 0.0102    precision@10: 0.0078    precision@20: 0.0058    precision@50: 0.0037    map@5: 0.0265    map@10: 0.0299    map@20: 0.0324    map@50: 0.0344    ,
Test: recall@5: 0.0481    recall@10: 0.0758    recall@20: 0.1136    recall@50: 0.1808    ndcg@5: 0.0318    ndcg@10: 0.0408    ndcg@20: 0.0506    ndcg@50: 0.0642    precision@5: 0.0105    precision@10: 0.0084    precision@20: 0.0063    precision@50: 0.0040    map@5: 0.0256    map@10: 0.0293    map@20: 0.0319    map@50: 0.0340    



Thu 16 Jan 2025 13:11:13 INFO =========6/9: Parameters:['projection_dim', 'hidden_dim', 'cl_loss', 'vt_loss', 'n_layers', 'seed']=(128, 256, 0.01, 0.01, 2, 999)=======
Thu 16 Jan 2025 13:11:24 INFO MGCN(
  (user_embedding): Embedding(35598, 64)
  (item_id_embedding): Embedding(18357, 64)
  (image_embedding): Embedding(18357, 4096)
  (text_embedding): Embedding(18357, 384)
  (image_trs): Linear(in_features=4096, out_features=64, bias=True)
  (text_trs): Linear(in_features=384, out_features=64, bias=True)
  (softmax): Softmax(dim=-1)
  (query_common): Sequential(
    (0): Linear(in_features=64, out_features=64, bias=True)
    (1): Tanh()
    (2): Linear(in_features=64, out_features=1, bias=False)
  )
  (gate_v): Sequential(
    (0): Linear(in_features=64, out_features=64, bias=True)
    (1): Sigmoid()
  )
  (gate_t): Sequential(
    (0): Linear(in_features=64, out_features=64, bias=True)
    (1): Sigmoid()
  )
  (gate_image_prefer): Sequential(
    (0): Linear(in_features=64, out_features=64, bias=True)
    (1): Sigmoid()
  )
  (gate_text_prefer): Sequential(
    (0): Linear(in_features=64, out_features=64, bias=True)
    (1): Sigmoid()
  )
  (combiner): CombinedFusion(
    (text_projection_layer): Linear(in_features=64, out_features=128, bias=True)
    (image_projection_layer): Linear(in_features=64, out_features=128, bias=True)
    (gate_image_prefer): Sequential(
      (0): Linear(in_features=128, out_features=128, bias=True)
      (1): Sigmoid()
    )
    (gate_text_prefer): Sequential(
      (0): Linear(in_features=128, out_features=128, bias=True)
      (1): Sigmoid()
    )
    (query_common): Sequential(
      (0): Linear(in_features=128, out_features=128, bias=True)
      (1): Tanh()
      (2): Linear(in_features=128, out_features=1, bias=False)
    )
    (dynamic_scalar): Sequential(
      (0): Linear(in_features=256, out_features=256, bias=True)
      (1): ReLU()
      (2): Dropout(p=0.5, inplace=False)
      (3): Linear(in_features=256, out_features=1, bias=True)
      (4): Sigmoid()
    )
    (combiner_layer): Linear(in_features=384, out_features=256, bias=True)
    (output_layer): Linear(in_features=256, out_features=64, bias=True)
    (dropout): Dropout(p=0.5, inplace=False)
  )
  (cb): Combiner(
    (text_projection_layer): Linear(in_features=64, out_features=128, bias=True)
    (image_projection_layer): Linear(in_features=64, out_features=128, bias=True)
    (attention): MultiheadAttention(
      (out_proj): NonDynamicallyQuantizableLinear(in_features=128, out_features=128, bias=True)
    )
    (modal_alignment): Sequential(
      (0): Linear(in_features=128, out_features=256, bias=True)
      (1): ReLU()
      (2): Dropout(p=0.1, inplace=False)
      (3): Linear(in_features=256, out_features=128, bias=True)
    )
    (dynamic_scalar): Sequential(
      (0): Linear(in_features=256, out_features=256, bias=True)
      (1): ReLU()
      (2): Dropout(p=0.1, inplace=False)
      (3): Linear(in_features=256, out_features=1, bias=True)
      (4): Sigmoid()
    )
    (fusion_layer): Sequential(
      (0): Linear(in_features=384, out_features=256, bias=True)
      (1): ReLU()
      (2): Dropout(p=0.1, inplace=False)
      (3): Linear(in_features=256, out_features=64, bias=True)
    )
  )
  (img_projector): Linear(in_features=64, out_features=64, bias=True)
  (text_projector): Linear(in_features=64, out_features=64, bias=True)
  (modal_alignment): Sequential(
    (0): Linear(in_features=64, out_features=128, bias=True)
    (1): ReLU()
    (2): Dropout(p=0.1, inplace=False)
    (3): Linear(in_features=128, out_features=64, bias=True)
  )
  (multihead_attn): MultiHeadAttention(
    (query): Linear(in_features=64, out_features=64, bias=True)
    (key): Linear(in_features=64, out_features=64, bias=True)
    (value): Linear(in_features=64, out_features=64, bias=True)
  )
)
Trainable parameters: 86614594
Thu 16 Jan 2025 13:11:39 INFO epoch 0 training [time: 14.93s, train loss: 69.0942]
Thu 16 Jan 2025 13:11:44 INFO epoch 0 evaluating [time: 2.62s, valid_score: 0.073700]
Thu 16 Jan 2025 13:11:44 INFO valid result: 
recall@5: 0.0316    recall@10: 0.0498    recall@20: 0.0737    recall@50: 0.1210    ndcg@5: 0.0207    ndcg@10: 0.0266    ndcg@20: 0.0327    ndcg@50: 0.0422    precision@5: 0.0066    precision@10: 0.0053    precision@20: 0.0039    precision@50: 0.0026    map@5: 0.0169    map@10: 0.0193    map@20: 0.0209    map@50: 0.0224    
…
Valid: recall@5: 0.0485    recall@10: 0.0744    recall@20: 0.1101    recall@50: 0.1770    ndcg@5: 0.0322    ndcg@10: 0.0407    ndcg@20: 0.0497    ndcg@50: 0.0630    precision@5: 0.0102    precision@10: 0.0078    precision@20: 0.0058    precision@50: 0.0037    map@5: 0.0265    map@10: 0.0299    map@20: 0.0324    map@50: 0.0344    ,
Test: recall@5: 0.0481    recall@10: 0.0758    recall@20: 0.1136    recall@50: 0.1808    ndcg@5: 0.0318    ndcg@10: 0.0408    ndcg@20: 0.0506    ndcg@50: 0.0642    precision@5: 0.0105    precision@10: 0.0084    precision@20: 0.0063    precision@50: 0.0040    map@5: 0.0256    map@10: 0.0293    map@20: 0.0319    map@50: 0.0340    



Thu 16 Jan 2025 13:44:47 INFO =========7/9: Parameters:['projection_dim', 'hidden_dim', 'cl_loss', 'vt_loss', 'n_layers', 'seed']=(256, 64, 0.01, 0.01, 2, 999)=======
Thu 16 Jan 2025 13:44:58 INFO MGCN(
  (user_embedding): Embedding(35598, 64)
  (item_id_embedding): Embedding(18357, 64)
  (image_embedding): Embedding(18357, 4096)
  (text_embedding): Embedding(18357, 384)
  (image_trs): Linear(in_features=4096, out_features=64, bias=True)
  (text_trs): Linear(in_features=384, out_features=64, bias=True)
  (softmax): Softmax(dim=-1)
  (query_common): Sequential(
    (0): Linear(in_features=64, out_features=64, bias=True)
    (1): Tanh()
    (2): Linear(in_features=64, out_features=1, bias=False)
  )
  (gate_v): Sequential(
    (0): Linear(in_features=64, out_features=64, bias=True)
    (1): Sigmoid()
  )
  (gate_t): Sequential(
    (0): Linear(in_features=64, out_features=64, bias=True)
    (1): Sigmoid()
  )
  (gate_image_prefer): Sequential(
    (0): Linear(in_features=64, out_features=64, bias=True)
    (1): Sigmoid()
  )
  (gate_text_prefer): Sequential(
    (0): Linear(in_features=64, out_features=64, bias=True)
    (1): Sigmoid()
  )
  (combiner): CombinedFusion(
    (text_projection_layer): Linear(in_features=64, out_features=256, bias=True)
    (image_projection_layer): Linear(in_features=64, out_features=256, bias=True)
    (gate_image_prefer): Sequential(
      (0): Linear(in_features=256, out_features=256, bias=True)
      (1): Sigmoid()
    )
    (gate_text_prefer): Sequential(
      (0): Linear(in_features=256, out_features=256, bias=True)
      (1): Sigmoid()
    )
    (query_common): Sequential(
      (0): Linear(in_features=256, out_features=256, bias=True)
      (1): Tanh()
      (2): Linear(in_features=256, out_features=1, bias=False)
    )
    (dynamic_scalar): Sequential(
      (0): Linear(in_features=512, out_features=64, bias=True)
      (1): ReLU()
      (2): Dropout(p=0.5, inplace=False)
      (3): Linear(in_features=64, out_features=1, bias=True)
      (4): Sigmoid()
    )
    (combiner_layer): Linear(in_features=768, out_features=64, bias=True)
    (output_layer): Linear(in_features=64, out_features=64, bias=True)
    (dropout): Dropout(p=0.5, inplace=False)
  )
  (cb): Combiner(
    (text_projection_layer): Linear(in_features=64, out_features=256, bias=True)
    (image_projection_layer): Linear(in_features=64, out_features=256, bias=True)
    (attention): MultiheadAttention(
      (out_proj): NonDynamicallyQuantizableLinear(in_features=256, out_features=256, bias=True)
    )
    (modal_alignment): Sequential(
      (0): Linear(in_features=256, out_features=64, bias=True)
      (1): ReLU()
      (2): Dropout(p=0.1, inplace=False)
      (3): Linear(in_features=64, out_features=256, bias=True)
    )
    (dynamic_scalar): Sequential(
      (0): Linear(in_features=512, out_features=64, bias=True)
      (1): ReLU()
      (2): Dropout(p=0.1, inplace=False)
      (3): Linear(in_features=64, out_features=1, bias=True)
      (4): Sigmoid()
    )
    (fusion_layer): Sequential(
      (0): Linear(in_features=768, out_features=64, bias=True)
      (1): ReLU()
      (2): Dropout(p=0.1, inplace=False)
      (3): Linear(in_features=64, out_features=64, bias=True)
    )
  )
  (img_projector): Linear(in_features=64, out_features=64, bias=True)
  (text_projector): Linear(in_features=64, out_features=64, bias=True)
  (modal_alignment): Sequential(
    (0): Linear(in_features=64, out_features=128, bias=True)
    (1): ReLU()
    (2): Dropout(p=0.1, inplace=False)
    (3): Linear(in_features=128, out_features=64, bias=True)
  )
  (multihead_attn): MultiHeadAttention(
    (query): Linear(in_features=64, out_features=64, bias=True)
    (key): Linear(in_features=64, out_features=64, bias=True)
    (value): Linear(in_features=64, out_features=64, bias=True)
  )
)
Trainable parameters: 86770562
Thu 16 Jan 2025 13:45:13 INFO epoch 0 training [time: 15.23s, train loss: 88.3688]
Thu 16 Jan 2025 13:45:18 INFO epoch 0 evaluating [time: 2.66s, valid_score: 0.027700]
Thu 16 Jan 2025 13:45:18 INFO valid result: 
recall@5: 0.0117    recall@10: 0.0171    recall@20: 0.0277    recall@50: 0.0495    ndcg@5: 0.0080    ndcg@10: 0.0097    ndcg@20: 0.0124    ndcg@50: 0.0168    precision@5: 0.0025    precision@10: 0.0019    precision@20: 0.0015    precision@50: 0.0011    map@5: 0.0066    map@10: 0.0073    map@20: 0.0080    map@50: 0.0087    
…
Valid: recall@5: 0.0485    recall@10: 0.0744    recall@20: 0.1101    recall@50: 0.1770    ndcg@5: 0.0322    ndcg@10: 0.0407    ndcg@20: 0.0497    ndcg@50: 0.0630    precision@5: 0.0102    precision@10: 0.0078    precision@20: 0.0058    precision@50: 0.0037    map@5: 0.0265    map@10: 0.0299    map@20: 0.0324    map@50: 0.0344    ,
Test: recall@5: 0.0481    recall@10: 0.0758    recall@20: 0.1136    recall@50: 0.1808    ndcg@5: 0.0318    ndcg@10: 0.0408    ndcg@20: 0.0506    ndcg@50: 0.0642    precision@5: 0.0105    precision@10: 0.0084    precision@20: 0.0063    precision@50: 0.0040    map@5: 0.0256    map@10: 0.0293    map@20: 0.0319    map@50: 0.0340    



Thu 16 Jan 2025 14:12:25 INFO =========8/9: Parameters:['projection_dim', 'hidden_dim', 'cl_loss', 'vt_loss', 'n_layers', 'seed']=(256, 128, 0.01, 0.01, 2, 999)=======
Thu 16 Jan 2025 14:12:36 INFO MGCN(
  (user_embedding): Embedding(35598, 64)
  (item_id_embedding): Embedding(18357, 64)
  (image_embedding): Embedding(18357, 4096)
  (text_embedding): Embedding(18357, 384)
  (image_trs): Linear(in_features=4096, out_features=64, bias=True)
  (text_trs): Linear(in_features=384, out_features=64, bias=True)
  (softmax): Softmax(dim=-1)
  (query_common): Sequential(
    (0): Linear(in_features=64, out_features=64, bias=True)
    (1): Tanh()
    (2): Linear(in_features=64, out_features=1, bias=False)
  )
  (gate_v): Sequential(
    (0): Linear(in_features=64, out_features=64, bias=True)
    (1): Sigmoid()
  )
  (gate_t): Sequential(
    (0): Linear(in_features=64, out_features=64, bias=True)
    (1): Sigmoid()
  )
  (gate_image_prefer): Sequential(
    (0): Linear(in_features=64, out_features=64, bias=True)
    (1): Sigmoid()
  )
  (gate_text_prefer): Sequential(
    (0): Linear(in_features=64, out_features=64, bias=True)
    (1): Sigmoid()
  )
  (combiner): CombinedFusion(
    (text_projection_layer): Linear(in_features=64, out_features=256, bias=True)
    (image_projection_layer): Linear(in_features=64, out_features=256, bias=True)
    (gate_image_prefer): Sequential(
      (0): Linear(in_features=256, out_features=256, bias=True)
      (1): Sigmoid()
    )
    (gate_text_prefer): Sequential(
      (0): Linear(in_features=256, out_features=256, bias=True)
      (1): Sigmoid()
    )
    (query_common): Sequential(
      (0): Linear(in_features=256, out_features=256, bias=True)
      (1): Tanh()
      (2): Linear(in_features=256, out_features=1, bias=False)
    )
    (dynamic_scalar): Sequential(
      (0): Linear(in_features=512, out_features=128, bias=True)
      (1): ReLU()
      (2): Dropout(p=0.5, inplace=False)
      (3): Linear(in_features=128, out_features=1, bias=True)
      (4): Sigmoid()
    )
    (combiner_layer): Linear(in_features=768, out_features=128, bias=True)
    (output_layer): Linear(in_features=128, out_features=64, bias=True)
    (dropout): Dropout(p=0.5, inplace=False)
  )
  (cb): Combiner(
    (text_projection_layer): Linear(in_features=64, out_features=256, bias=True)
    (image_projection_layer): Linear(in_features=64, out_features=256, bias=True)
    (attention): MultiheadAttention(
      (out_proj): NonDynamicallyQuantizableLinear(in_features=256, out_features=256, bias=True)
    )
    (modal_alignment): Sequential(
      (0): Linear(in_features=256, out_features=128, bias=True)
      (1): ReLU()
      (2): Dropout(p=0.1, inplace=False)
      (3): Linear(in_features=128, out_features=256, bias=True)
    )
    (dynamic_scalar): Sequential(
      (0): Linear(in_features=512, out_features=128, bias=True)
      (1): ReLU()
      (2): Dropout(p=0.1, inplace=False)
      (3): Linear(in_features=128, out_features=1, bias=True)
      (4): Sigmoid()
    )
    (fusion_layer): Sequential(
      (0): Linear(in_features=768, out_features=128, bias=True)
      (1): ReLU()
      (2): Dropout(p=0.1, inplace=False)
      (3): Linear(in_features=128, out_features=64, bias=True)
    )
  )
  (img_projector): Linear(in_features=64, out_features=64, bias=True)
  (text_projector): Linear(in_features=64, out_features=64, bias=True)
  (modal_alignment): Sequential(
    (0): Linear(in_features=64, out_features=128, bias=True)
    (1): ReLU()
    (2): Dropout(p=0.1, inplace=False)
    (3): Linear(in_features=128, out_features=64, bias=True)
  )
  (multihead_attn): MultiHeadAttention(
    (query): Linear(in_features=64, out_features=64, bias=True)
    (key): Linear(in_features=64, out_features=64, bias=True)
    (value): Linear(in_features=64, out_features=64, bias=True)
  )
)
Trainable parameters: 86975810
Thu 16 Jan 2025 14:12:52 INFO epoch 0 training [time: 15.30s, train loss: 75.4443]
Thu 16 Jan 2025 14:12:57 INFO epoch 0 evaluating [time: 2.64s, valid_score: 0.072700]
Thu 16 Jan 2025 14:12:57 INFO valid result: 
recall@5: 0.0311    recall@10: 0.0488    recall@20: 0.0727    recall@50: 0.1196    ndcg@5: 0.0206    ndcg@10: 0.0263    ndcg@20: 0.0324    ndcg@50: 0.0418    precision@5: 0.0065    precision@10: 0.0051    precision@20: 0.0038    precision@50: 0.0025    map@5: 0.0169    map@10: 0.0192    map@20: 0.0209    map@50: 0.0224    
…
Valid: recall@5: 0.0494    recall@10: 0.0739    recall@20: 0.1109    recall@50: 0.1775    ndcg@5: 0.0326    ndcg@10: 0.0405    ndcg@20: 0.0499    ndcg@50: 0.0633    precision@5: 0.0103    precision@10: 0.0078    precision@20: 0.0059    precision@50: 0.0038    map@5: 0.0267    map@10: 0.0299    map@20: 0.0324    map@50: 0.0345    ,
Test: recall@5: 0.0484    recall@10: 0.0745    recall@20: 0.1139    recall@50: 0.1810    ndcg@5: 0.0325    ndcg@10: 0.0411    ndcg@20: 0.0513    ndcg@50: 0.0649    precision@5: 0.0106    precision@10: 0.0082    precision@20: 0.0063    precision@50: 0.0040    map@5: 0.0266    map@10: 0.0300    map@20: 0.0327    map@50: 0.0349    



Thu 16 Jan 2025 14:40:08 INFO =========9/9: Parameters:['projection_dim', 'hidden_dim', 'cl_loss', 'vt_loss', 'n_layers', 'seed']=(256, 256, 0.01, 0.01, 2, 999)=======
Thu 16 Jan 2025 14:40:19 INFO MGCN(
  (user_embedding): Embedding(35598, 64)
  (item_id_embedding): Embedding(18357, 64)
  (image_embedding): Embedding(18357, 4096)
  (text_embedding): Embedding(18357, 384)
  (image_trs): Linear(in_features=4096, out_features=64, bias=True)
  (text_trs): Linear(in_features=384, out_features=64, bias=True)
  (softmax): Softmax(dim=-1)
  (query_common): Sequential(
    (0): Linear(in_features=64, out_features=64, bias=True)
    (1): Tanh()
    (2): Linear(in_features=64, out_features=1, bias=False)
  )
  (gate_v): Sequential(
    (0): Linear(in_features=64, out_features=64, bias=True)
    (1): Sigmoid()
  )
  (gate_t): Sequential(
    (0): Linear(in_features=64, out_features=64, bias=True)
    (1): Sigmoid()
  )
  (gate_image_prefer): Sequential(
    (0): Linear(in_features=64, out_features=64, bias=True)
    (1): Sigmoid()
  )
  (gate_text_prefer): Sequential(
    (0): Linear(in_features=64, out_features=64, bias=True)
    (1): Sigmoid()
  )
  (combiner): CombinedFusion(
    (text_projection_layer): Linear(in_features=64, out_features=256, bias=True)
    (image_projection_layer): Linear(in_features=64, out_features=256, bias=True)
    (gate_image_prefer): Sequential(
      (0): Linear(in_features=256, out_features=256, bias=True)
      (1): Sigmoid()
    )
    (gate_text_prefer): Sequential(
      (0): Linear(in_features=256, out_features=256, bias=True)
      (1): Sigmoid()
    )
    (query_common): Sequential(
      (0): Linear(in_features=256, out_features=256, bias=True)
      (1): Tanh()
      (2): Linear(in_features=256, out_features=1, bias=False)
    )
    (dynamic_scalar): Sequential(
      (0): Linear(in_features=512, out_features=256, bias=True)
      (1): ReLU()
      (2): Dropout(p=0.5, inplace=False)
      (3): Linear(in_features=256, out_features=1, bias=True)
      (4): Sigmoid()
    )
    (combiner_layer): Linear(in_features=768, out_features=256, bias=True)
    (output_layer): Linear(in_features=256, out_features=64, bias=True)
    (dropout): Dropout(p=0.5, inplace=False)
  )
  (cb): Combiner(
    (text_projection_layer): Linear(in_features=64, out_features=256, bias=True)
    (image_projection_layer): Linear(in_features=64, out_features=256, bias=True)
    (attention): MultiheadAttention(
      (out_proj): NonDynamicallyQuantizableLinear(in_features=256, out_features=256, bias=True)
    )
    (modal_alignment): Sequential(
      (0): Linear(in_features=256, out_features=256, bias=True)
      (1): ReLU()
      (2): Dropout(p=0.1, inplace=False)
      (3): Linear(in_features=256, out_features=256, bias=True)
    )
    (dynamic_scalar): Sequential(
      (0): Linear(in_features=512, out_features=256, bias=True)
      (1): ReLU()
      (2): Dropout(p=0.1, inplace=False)
      (3): Linear(in_features=256, out_features=1, bias=True)
      (4): Sigmoid()
    )
    (fusion_layer): Sequential(
      (0): Linear(in_features=768, out_features=256, bias=True)
      (1): ReLU()
      (2): Dropout(p=0.1, inplace=False)
      (3): Linear(in_features=256, out_features=64, bias=True)
    )
  )
  (img_projector): Linear(in_features=64, out_features=64, bias=True)
  (text_projector): Linear(in_features=64, out_features=64, bias=True)
  (modal_alignment): Sequential(
    (0): Linear(in_features=64, out_features=128, bias=True)
    (1): ReLU()
    (2): Dropout(p=0.1, inplace=False)
    (3): Linear(in_features=128, out_features=64, bias=True)
  )
  (multihead_attn): MultiHeadAttention(
    (query): Linear(in_features=64, out_features=64, bias=True)
    (key): Linear(in_features=64, out_features=64, bias=True)
    (value): Linear(in_features=64, out_features=64, bias=True)
  )
)
Trainable parameters: 87386306
Thu 16 Jan 2025 14:40:35 INFO epoch 0 training [time: 15.75s, train loss: 69.5279]
Thu 16 Jan 2025 14:40:40 INFO epoch 0 evaluating [time: 2.66s, valid_score: 0.075300]
Thu 16 Jan 2025 14:40:40 INFO valid result: 
recall@5: 0.0323    recall@10: 0.0506    recall@20: 0.0753    recall@50: 0.1207    ndcg@5: 0.0213    ndcg@10: 0.0272    ndcg@20: 0.0335    ndcg@50: 0.0425    precision@5: 0.0068    precision@10: 0.0054    precision@20: 0.0040    precision@50: 0.0026    map@5: 0.0174    map@10: 0.0198    map@20: 0.0215    map@50: 0.0229    
…
