…
The sparsity of the dataset: 99.99389670773579%
Mon 17 Feb 2025 09:18:51 INFO 
====Testing====
clothing
The number of users: 39387
Average actions of users: 1.0457511361616778
The number of items: 16803
Average actions of items: 2.451288460393977
The number of inters: 41189
The sparsity of the dataset: 99.99377640221293%
Mon 17 Feb 2025 09:18:53 INFO 

=================================


Mon 17 Feb 2025 09:18:53 INFO =========1/5: Parameters:['projection_dim', 'hidden_dim', 'cl_loss', 'vt_loss', 'n_layers', 'tempe', 'seed']=(256, 128, 0.0001, 0.01, 2, 0.1, 999)=======
Mon 17 Feb 2025 09:19:07 INFO MGCN(
  (user_embedding): Embedding(39387, 64)
  (item_id_embedding): Embedding(23033, 64)
  (image_embedding): Embedding(23033, 4096)
  (text_embedding): Embedding(23033, 384)
  (image_trs): Linear(in_features=4096, out_features=64, bias=True)
  (text_trs): Linear(in_features=384, out_features=64, bias=True)
  (softmax): Softmax(dim=-1)
  (query_common): Sequential(
    (0): Linear(in_features=64, out_features=64, bias=True)
    (1): Tanh()
    (2): Linear(in_features=64, out_features=1, bias=False)
  )
  (gate_v): Sequential(
    (0): Linear(in_features=64, out_features=64, bias=True)
    (1): Sigmoid()
  )
  (gate_t): Sequential(
    (0): Linear(in_features=64, out_features=64, bias=True)
    (1): Sigmoid()
  )
  (gate_image_prefer): Sequential(
    (0): Linear(in_features=64, out_features=64, bias=True)
    (1): Sigmoid()
  )
  (gate_text_prefer): Sequential(
    (0): Linear(in_features=64, out_features=64, bias=True)
    (1): Sigmoid()
  )
  (combiner): CombinedFusion(
    (text_projection_layer): Linear(in_features=64, out_features=256, bias=True)
    (image_projection_layer): Linear(in_features=64, out_features=256, bias=True)
    (gate_image_prefer): Sequential(
      (0): Linear(in_features=256, out_features=256, bias=True)
      (1): Sigmoid()
    )
    (gate_text_prefer): Sequential(
      (0): Linear(in_features=256, out_features=256, bias=True)
      (1): Sigmoid()
    )
    (query_common): Sequential(
      (0): Linear(in_features=256, out_features=256, bias=True)
      (1): Tanh()
      (2): Linear(in_features=256, out_features=1, bias=False)
    )
    (dynamic_scalar): Sequential(
      (0): Linear(in_features=512, out_features=128, bias=True)
      (1): ReLU()
      (2): Dropout(p=0.5, inplace=False)
      (3): Linear(in_features=128, out_features=1, bias=True)
      (4): Sigmoid()
    )
    (combiner_layer): Linear(in_features=768, out_features=128, bias=True)
    (output_layer): Linear(in_features=128, out_features=64, bias=True)
    (dropout): Dropout(p=0.5, inplace=False)
  )
  (cb): Combiner(
    (text_projection_layer): Linear(in_features=64, out_features=256, bias=True)
    (image_projection_layer): Linear(in_features=64, out_features=256, bias=True)
    (attention): MultiheadAttention(
      (out_proj): NonDynamicallyQuantizableLinear(in_features=256, out_features=256, bias=True)
    )
    (modal_alignment): Sequential(
      (0): Linear(in_features=256, out_features=128, bias=True)
      (1): ReLU()
      (2): Dropout(p=0.1, inplace=False)
      (3): Linear(in_features=128, out_features=256, bias=True)
    )
    (dynamic_scalar): Sequential(
      (0): Linear(in_features=512, out_features=128, bias=True)
      (1): ReLU()
      (2): Dropout(p=0.1, inplace=False)
      (3): Linear(in_features=128, out_features=1, bias=True)
      (4): Sigmoid()
    )
    (fusion_layer): Sequential(
      (0): Linear(in_features=768, out_features=128, bias=True)
      (1): ReLU()
      (2): Dropout(p=0.1, inplace=False)
      (3): Linear(in_features=128, out_features=64, bias=True)
    )
  )
  (img_projector): Linear(in_features=64, out_features=64, bias=True)
  (text_projector): Linear(in_features=64, out_features=64, bias=True)
  (modal_alignment): Sequential(
    (0): Linear(in_features=64, out_features=128, bias=True)
    (1): ReLU()
    (2): Dropout(p=0.1, inplace=False)
    (3): Linear(in_features=128, out_features=64, bias=True)
  )
  (multihead_attn): MultiHeadAttention(
    (query): Linear(in_features=64, out_features=64, bias=True)
    (key): Linear(in_features=64, out_features=64, bias=True)
    (value): Linear(in_features=64, out_features=64, bias=True)
  )
)
Trainable parameters: 108466050
Mon 17 Feb 2025 09:19:26 INFO epoch 0 training [time: 18.86s, train loss: 61.4830]
Mon 17 Feb 2025 09:19:33 INFO epoch 0 evaluating [time: 3.31s, valid_score: 0.038200]
Mon 17 Feb 2025 09:19:33 INFO valid result: 
recall@5: 0.0150    recall@10: 0.0246    recall@20: 0.0382    recall@50: 0.0673    ndcg@5: 0.0094    ndcg@10: 0.0125    ndcg@20: 0.0160    ndcg@50: 0.0217    precision@5: 0.0031    precision@10: 0.0025    precision@20: 0.0019    precision@50: 0.0014    map@5: 0.0076    map@10: 0.0088    map@20: 0.0097    map@50: 0.0107    
…
