…
The sparsity of the dataset: 99.99389670773579%
Sun 02 Feb 2025 14:38:45 INFO 
====Testing====
clothing
The number of users: 39387
Average actions of users: 1.0457511361616778
The number of items: 16803
Average actions of items: 2.451288460393977
The number of inters: 41189
The sparsity of the dataset: 99.99377640221293%
Sun 02 Feb 2025 14:38:47 INFO 

=================================


Sun 02 Feb 2025 14:38:47 INFO =========1/9: Parameters:['projection_dim', 'hidden_dim', 'cl_loss', 'vt_loss', 'n_layers', 'seed']=(64, 64, 0.01, 0.01, 2, 999)=======
Sun 02 Feb 2025 14:39:02 INFO MGCN(
  (user_embedding): Embedding(39387, 64)
  (item_id_embedding): Embedding(23033, 64)
  (image_embedding): Embedding(23033, 4096)
  (text_embedding): Embedding(23033, 384)
  (image_trs): Linear(in_features=4096, out_features=64, bias=True)
  (text_trs): Linear(in_features=384, out_features=64, bias=True)
  (softmax): Softmax(dim=-1)
  (query_common): Sequential(
    (0): Linear(in_features=64, out_features=64, bias=True)
    (1): Tanh()
    (2): Linear(in_features=64, out_features=1, bias=False)
  )
  (gate_v): Sequential(
    (0): Linear(in_features=64, out_features=64, bias=True)
    (1): Sigmoid()
  )
  (gate_t): Sequential(
    (0): Linear(in_features=64, out_features=64, bias=True)
    (1): Sigmoid()
  )
  (gate_image_prefer): Sequential(
    (0): Linear(in_features=64, out_features=64, bias=True)
    (1): Sigmoid()
  )
  (gate_text_prefer): Sequential(
    (0): Linear(in_features=64, out_features=64, bias=True)
    (1): Sigmoid()
  )
  (combiner): CombinedFusion(
    (text_projection_layer): Linear(in_features=64, out_features=64, bias=True)
    (image_projection_layer): Linear(in_features=64, out_features=64, bias=True)
    (gate_image_prefer): Sequential(
      (0): Linear(in_features=64, out_features=64, bias=True)
      (1): Sigmoid()
    )
    (gate_text_prefer): Sequential(
      (0): Linear(in_features=64, out_features=64, bias=True)
      (1): Sigmoid()
    )
    (query_common): Sequential(
      (0): Linear(in_features=64, out_features=64, bias=True)
      (1): Tanh()
      (2): Linear(in_features=64, out_features=1, bias=False)
    )
    (dynamic_scalar): Sequential(
      (0): Linear(in_features=128, out_features=64, bias=True)
      (1): ReLU()
      (2): Dropout(p=0.5, inplace=False)
      (3): Linear(in_features=64, out_features=1, bias=True)
      (4): Sigmoid()
    )
    (combiner_layer): Linear(in_features=192, out_features=64, bias=True)
    (output_layer): Linear(in_features=64, out_features=64, bias=True)
    (dropout): Dropout(p=0.5, inplace=False)
  )
  (cb): Combiner(
    (text_projection_layer): Linear(in_features=64, out_features=64, bias=True)
    (image_projection_layer): Linear(in_features=64, out_features=64, bias=True)
    (attention): MultiheadAttention(
      (out_proj): NonDynamicallyQuantizableLinear(in_features=64, out_features=64, bias=True)
    )
    (modal_alignment): Sequential(
      (0): Linear(in_features=64, out_features=64, bias=True)
      (1): ReLU()
      (2): Dropout(p=0.1, inplace=False)
      (3): Linear(in_features=64, out_features=64, bias=True)
    )
    (dynamic_scalar): Sequential(
      (0): Linear(in_features=128, out_features=64, bias=True)
      (1): ReLU()
      (2): Dropout(p=0.1, inplace=False)
      (3): Linear(in_features=64, out_features=1, bias=True)
      (4): Sigmoid()
    )
    (fusion_layer): Sequential(
      (0): Linear(in_features=192, out_features=64, bias=True)
      (1): ReLU()
      (2): Dropout(p=0.1, inplace=False)
      (3): Linear(in_features=64, out_features=64, bias=True)
    )
  )
  (img_projector): Linear(in_features=64, out_features=64, bias=True)
  (text_projector): Linear(in_features=64, out_features=64, bias=True)
  (modal_alignment): Sequential(
    (0): Linear(in_features=64, out_features=128, bias=True)
    (1): ReLU()
    (2): Dropout(p=0.1, inplace=False)
    (3): Linear(in_features=128, out_features=64, bias=True)
  )
  (multihead_attn): MultiHeadAttention(
    (query): Linear(in_features=64, out_features=64, bias=True)
    (key): Linear(in_features=64, out_features=64, bias=True)
    (value): Linear(in_features=64, out_features=64, bias=True)
  )
)
Trainable parameters: 107631618
Sun 02 Feb 2025 14:39:19 INFO epoch 0 training [time: 17.52s, train loss: 63.9840]
Sun 02 Feb 2025 14:39:26 INFO epoch 0 evaluating [time: 3.22s, valid_score: 0.014900]
Sun 02 Feb 2025 14:39:26 INFO valid result: 
recall@5: 0.0050    recall@10: 0.0084    recall@20: 0.0149    recall@50: 0.0301    ndcg@5: 0.0033    ndcg@10: 0.0044    ndcg@20: 0.0060    ndcg@50: 0.0090    precision@5: 0.0010    precision@10: 0.0009    precision@20: 0.0008    precision@50: 0.0006    map@5: 0.0027    map@10: 0.0032    map@20: 0.0036    map@50: 0.0041    
…
Valid: recall@5: 0.0354    recall@10: 0.0543    recall@20: 0.0798    recall@50: 0.1237    ndcg@5: 0.0234    ndcg@10: 0.0295    ndcg@20: 0.0359    ndcg@50: 0.0446    precision@5: 0.0072    precision@10: 0.0055    precision@20: 0.0040    precision@50: 0.0025    map@5: 0.0193    map@10: 0.0218    map@20: 0.0236    map@50: 0.0249    ,
Test: recall@5: 0.0344    recall@10: 0.0527    recall@20: 0.0770    recall@50: 0.1229    ndcg@5: 0.0228    ndcg@10: 0.0288    ndcg@20: 0.0350    ndcg@50: 0.0441    precision@5: 0.0071    precision@10: 0.0055    precision@20: 0.0040    precision@50: 0.0026    map@5: 0.0189    map@10: 0.0213    map@20: 0.0229    map@50: 0.0244    



Sun 02 Feb 2025 15:40:22 INFO =========2/9: Parameters:['projection_dim', 'hidden_dim', 'cl_loss', 'vt_loss', 'n_layers', 'seed']=(64, 128, 0.01, 0.01, 2, 999)=======
Sun 02 Feb 2025 15:40:36 INFO MGCN(
  (user_embedding): Embedding(39387, 64)
  (item_id_embedding): Embedding(23033, 64)
  (image_embedding): Embedding(23033, 4096)
  (text_embedding): Embedding(23033, 384)
  (image_trs): Linear(in_features=4096, out_features=64, bias=True)
  (text_trs): Linear(in_features=384, out_features=64, bias=True)
  (softmax): Softmax(dim=-1)
  (query_common): Sequential(
    (0): Linear(in_features=64, out_features=64, bias=True)
    (1): Tanh()
    (2): Linear(in_features=64, out_features=1, bias=False)
  )
  (gate_v): Sequential(
    (0): Linear(in_features=64, out_features=64, bias=True)
    (1): Sigmoid()
  )
  (gate_t): Sequential(
    (0): Linear(in_features=64, out_features=64, bias=True)
    (1): Sigmoid()
  )
  (gate_image_prefer): Sequential(
    (0): Linear(in_features=64, out_features=64, bias=True)
    (1): Sigmoid()
  )
  (gate_text_prefer): Sequential(
    (0): Linear(in_features=64, out_features=64, bias=True)
    (1): Sigmoid()
  )
  (combiner): CombinedFusion(
    (text_projection_layer): Linear(in_features=64, out_features=64, bias=True)
    (image_projection_layer): Linear(in_features=64, out_features=64, bias=True)
    (gate_image_prefer): Sequential(
      (0): Linear(in_features=64, out_features=64, bias=True)
      (1): Sigmoid()
    )
    (gate_text_prefer): Sequential(
      (0): Linear(in_features=64, out_features=64, bias=True)
      (1): Sigmoid()
    )
    (query_common): Sequential(
      (0): Linear(in_features=64, out_features=64, bias=True)
      (1): Tanh()
      (2): Linear(in_features=64, out_features=1, bias=False)
    )
    (dynamic_scalar): Sequential(
      (0): Linear(in_features=128, out_features=128, bias=True)
      (1): ReLU()
      (2): Dropout(p=0.5, inplace=False)
      (3): Linear(in_features=128, out_features=1, bias=True)
      (4): Sigmoid()
    )
    (combiner_layer): Linear(in_features=192, out_features=128, bias=True)
    (output_layer): Linear(in_features=128, out_features=64, bias=True)
    (dropout): Dropout(p=0.5, inplace=False)
  )
  (cb): Combiner(
    (text_projection_layer): Linear(in_features=64, out_features=64, bias=True)
    (image_projection_layer): Linear(in_features=64, out_features=64, bias=True)
    (attention): MultiheadAttention(
      (out_proj): NonDynamicallyQuantizableLinear(in_features=64, out_features=64, bias=True)
    )
    (modal_alignment): Sequential(
      (0): Linear(in_features=64, out_features=128, bias=True)
      (1): ReLU()
      (2): Dropout(p=0.1, inplace=False)
      (3): Linear(in_features=128, out_features=64, bias=True)
    )
    (dynamic_scalar): Sequential(
      (0): Linear(in_features=128, out_features=128, bias=True)
      (1): ReLU()
      (2): Dropout(p=0.1, inplace=False)
      (3): Linear(in_features=128, out_features=1, bias=True)
      (4): Sigmoid()
    )
    (fusion_layer): Sequential(
      (0): Linear(in_features=192, out_features=128, bias=True)
      (1): ReLU()
      (2): Dropout(p=0.1, inplace=False)
      (3): Linear(in_features=128, out_features=64, bias=True)
    )
  )
  (img_projector): Linear(in_features=64, out_features=64, bias=True)
  (text_projector): Linear(in_features=64, out_features=64, bias=True)
  (modal_alignment): Sequential(
    (0): Linear(in_features=64, out_features=128, bias=True)
    (1): ReLU()
    (2): Dropout(p=0.1, inplace=False)
    (3): Linear(in_features=128, out_features=64, bias=True)
  )
  (multihead_attn): MultiHeadAttention(
    (query): Linear(in_features=64, out_features=64, bias=True)
    (key): Linear(in_features=64, out_features=64, bias=True)
    (value): Linear(in_features=64, out_features=64, bias=True)
  )
)
Trainable parameters: 107689410
Sun 02 Feb 2025 15:40:53 INFO epoch 0 training [time: 17.36s, train loss: 62.9070]
Sun 02 Feb 2025 15:41:00 INFO epoch 0 evaluating [time: 3.21s, valid_score: 0.016700]
Sun 02 Feb 2025 15:41:00 INFO valid result: 
recall@5: 0.0061    recall@10: 0.0099    recall@20: 0.0167    recall@50: 0.0323    ndcg@5: 0.0039    ndcg@10: 0.0052    ndcg@20: 0.0069    ndcg@50: 0.0100    precision@5: 0.0012    precision@10: 0.0010    precision@20: 0.0008    precision@50: 0.0007    map@5: 0.0032    map@10: 0.0037    map@20: 0.0042    map@50: 0.0047    
…
Valid: recall@5: 0.0351    recall@10: 0.0537    recall@20: 0.0805    recall@50: 0.1260    ndcg@5: 0.0232    ndcg@10: 0.0292    ndcg@20: 0.0360    ndcg@50: 0.0450    precision@5: 0.0071    precision@10: 0.0054    precision@20: 0.0041    precision@50: 0.0026    map@5: 0.0193    map@10: 0.0217    map@20: 0.0235    map@50: 0.0250    ,
Test: recall@5: 0.0350    recall@10: 0.0537    recall@20: 0.0798    recall@50: 0.1262    ndcg@5: 0.0235    ndcg@10: 0.0296    ndcg@20: 0.0362    ndcg@50: 0.0455    precision@5: 0.0073    precision@10: 0.0056    precision@20: 0.0042    precision@50: 0.0026    map@5: 0.0195    map@10: 0.0220    map@20: 0.0238    map@50: 0.0252    



Sun 02 Feb 2025 16:36:40 INFO =========3/9: Parameters:['projection_dim', 'hidden_dim', 'cl_loss', 'vt_loss', 'n_layers', 'seed']=(64, 256, 0.01, 0.01, 2, 999)=======
Sun 02 Feb 2025 16:36:55 INFO MGCN(
  (user_embedding): Embedding(39387, 64)
  (item_id_embedding): Embedding(23033, 64)
  (image_embedding): Embedding(23033, 4096)
  (text_embedding): Embedding(23033, 384)
  (image_trs): Linear(in_features=4096, out_features=64, bias=True)
  (text_trs): Linear(in_features=384, out_features=64, bias=True)
  (softmax): Softmax(dim=-1)
  (query_common): Sequential(
    (0): Linear(in_features=64, out_features=64, bias=True)
    (1): Tanh()
    (2): Linear(in_features=64, out_features=1, bias=False)
  )
  (gate_v): Sequential(
    (0): Linear(in_features=64, out_features=64, bias=True)
    (1): Sigmoid()
  )
  (gate_t): Sequential(
    (0): Linear(in_features=64, out_features=64, bias=True)
    (1): Sigmoid()
  )
  (gate_image_prefer): Sequential(
    (0): Linear(in_features=64, out_features=64, bias=True)
    (1): Sigmoid()
  )
  (gate_text_prefer): Sequential(
    (0): Linear(in_features=64, out_features=64, bias=True)
    (1): Sigmoid()
  )
  (combiner): CombinedFusion(
    (text_projection_layer): Linear(in_features=64, out_features=64, bias=True)
    (image_projection_layer): Linear(in_features=64, out_features=64, bias=True)
    (gate_image_prefer): Sequential(
      (0): Linear(in_features=64, out_features=64, bias=True)
      (1): Sigmoid()
    )
    (gate_text_prefer): Sequential(
      (0): Linear(in_features=64, out_features=64, bias=True)
      (1): Sigmoid()
    )
    (query_common): Sequential(
      (0): Linear(in_features=64, out_features=64, bias=True)
      (1): Tanh()
      (2): Linear(in_features=64, out_features=1, bias=False)
    )
    (dynamic_scalar): Sequential(
      (0): Linear(in_features=128, out_features=256, bias=True)
      (1): ReLU()
      (2): Dropout(p=0.5, inplace=False)
      (3): Linear(in_features=256, out_features=1, bias=True)
      (4): Sigmoid()
    )
    (combiner_layer): Linear(in_features=192, out_features=256, bias=True)
    (output_layer): Linear(in_features=256, out_features=64, bias=True)
    (dropout): Dropout(p=0.5, inplace=False)
  )
  (cb): Combiner(
    (text_projection_layer): Linear(in_features=64, out_features=64, bias=True)
    (image_projection_layer): Linear(in_features=64, out_features=64, bias=True)
    (attention): MultiheadAttention(
      (out_proj): NonDynamicallyQuantizableLinear(in_features=64, out_features=64, bias=True)
    )
    (modal_alignment): Sequential(
      (0): Linear(in_features=64, out_features=256, bias=True)
      (1): ReLU()
      (2): Dropout(p=0.1, inplace=False)
      (3): Linear(in_features=256, out_features=64, bias=True)
    )
    (dynamic_scalar): Sequential(
      (0): Linear(in_features=128, out_features=256, bias=True)
      (1): ReLU()
      (2): Dropout(p=0.1, inplace=False)
      (3): Linear(in_features=256, out_features=1, bias=True)
      (4): Sigmoid()
    )
    (fusion_layer): Sequential(
      (0): Linear(in_features=192, out_features=256, bias=True)
      (1): ReLU()
      (2): Dropout(p=0.1, inplace=False)
      (3): Linear(in_features=256, out_features=64, bias=True)
    )
  )
  (img_projector): Linear(in_features=64, out_features=64, bias=True)
  (text_projector): Linear(in_features=64, out_features=64, bias=True)
  (modal_alignment): Sequential(
    (0): Linear(in_features=64, out_features=128, bias=True)
    (1): ReLU()
    (2): Dropout(p=0.1, inplace=False)
    (3): Linear(in_features=128, out_features=64, bias=True)
  )
  (multihead_attn): MultiHeadAttention(
    (query): Linear(in_features=64, out_features=64, bias=True)
    (key): Linear(in_features=64, out_features=64, bias=True)
    (value): Linear(in_features=64, out_features=64, bias=True)
  )
)
Trainable parameters: 107804994
Sun 02 Feb 2025 16:37:12 INFO epoch 0 training [time: 17.63s, train loss: 57.3160]
Sun 02 Feb 2025 16:37:19 INFO epoch 0 evaluating [time: 3.24s, valid_score: 0.034500]
Sun 02 Feb 2025 16:37:19 INFO valid result: 
recall@5: 0.0143    recall@10: 0.0221    recall@20: 0.0345    recall@50: 0.0603    ndcg@5: 0.0087    ndcg@10: 0.0113    ndcg@20: 0.0144    ndcg@50: 0.0195    precision@5: 0.0029    precision@10: 0.0023    precision@20: 0.0018    precision@50: 0.0012    map@5: 0.0069    map@10: 0.0079    map@20: 0.0088    map@50: 0.0096    
…
Valid: recall@5: 0.0355    recall@10: 0.0550    recall@20: 0.0810    recall@50: 0.1298    ndcg@5: 0.0234    ndcg@10: 0.0297    ndcg@20: 0.0362    ndcg@50: 0.0459    precision@5: 0.0072    precision@10: 0.0056    precision@20: 0.0041    precision@50: 0.0026    map@5: 0.0194    map@10: 0.0219    map@20: 0.0237    map@50: 0.0253    ,
Test: recall@5: 0.0348    recall@10: 0.0544    recall@20: 0.0811    recall@50: 0.1287    ndcg@5: 0.0233    ndcg@10: 0.0296    ndcg@20: 0.0364    ndcg@50: 0.0459    precision@5: 0.0072    precision@10: 0.0057    precision@20: 0.0042    precision@50: 0.0027    map@5: 0.0193    map@10: 0.0218    map@20: 0.0237    map@50: 0.0252    



Sun 02 Feb 2025 17:22:47 INFO =========4/9: Parameters:['projection_dim', 'hidden_dim', 'cl_loss', 'vt_loss', 'n_layers', 'seed']=(128, 64, 0.01, 0.01, 2, 999)=======
Sun 02 Feb 2025 17:23:02 INFO MGCN(
  (user_embedding): Embedding(39387, 64)
  (item_id_embedding): Embedding(23033, 64)
  (image_embedding): Embedding(23033, 4096)
  (text_embedding): Embedding(23033, 384)
  (image_trs): Linear(in_features=4096, out_features=64, bias=True)
  (text_trs): Linear(in_features=384, out_features=64, bias=True)
  (softmax): Softmax(dim=-1)
  (query_common): Sequential(
    (0): Linear(in_features=64, out_features=64, bias=True)
    (1): Tanh()
    (2): Linear(in_features=64, out_features=1, bias=False)
  )
  (gate_v): Sequential(
    (0): Linear(in_features=64, out_features=64, bias=True)
    (1): Sigmoid()
  )
  (gate_t): Sequential(
    (0): Linear(in_features=64, out_features=64, bias=True)
    (1): Sigmoid()
  )
  (gate_image_prefer): Sequential(
    (0): Linear(in_features=64, out_features=64, bias=True)
    (1): Sigmoid()
  )
  (gate_text_prefer): Sequential(
    (0): Linear(in_features=64, out_features=64, bias=True)
    (1): Sigmoid()
  )
  (combiner): CombinedFusion(
    (text_projection_layer): Linear(in_features=64, out_features=128, bias=True)
    (image_projection_layer): Linear(in_features=64, out_features=128, bias=True)
    (gate_image_prefer): Sequential(
      (0): Linear(in_features=128, out_features=128, bias=True)
      (1): Sigmoid()
    )
    (gate_text_prefer): Sequential(
      (0): Linear(in_features=128, out_features=128, bias=True)
      (1): Sigmoid()
    )
    (query_common): Sequential(
      (0): Linear(in_features=128, out_features=128, bias=True)
      (1): Tanh()
      (2): Linear(in_features=128, out_features=1, bias=False)
    )
    (dynamic_scalar): Sequential(
      (0): Linear(in_features=256, out_features=64, bias=True)
      (1): ReLU()
      (2): Dropout(p=0.5, inplace=False)
      (3): Linear(in_features=64, out_features=1, bias=True)
      (4): Sigmoid()
    )
    (combiner_layer): Linear(in_features=384, out_features=64, bias=True)
    (output_layer): Linear(in_features=64, out_features=64, bias=True)
    (dropout): Dropout(p=0.5, inplace=False)
  )
  (cb): Combiner(
    (text_projection_layer): Linear(in_features=64, out_features=128, bias=True)
    (image_projection_layer): Linear(in_features=64, out_features=128, bias=True)
    (attention): MultiheadAttention(
      (out_proj): NonDynamicallyQuantizableLinear(in_features=128, out_features=128, bias=True)
    )
    (modal_alignment): Sequential(
      (0): Linear(in_features=128, out_features=64, bias=True)
      (1): ReLU()
      (2): Dropout(p=0.1, inplace=False)
      (3): Linear(in_features=64, out_features=128, bias=True)
    )
    (dynamic_scalar): Sequential(
      (0): Linear(in_features=256, out_features=64, bias=True)
      (1): ReLU()
      (2): Dropout(p=0.1, inplace=False)
      (3): Linear(in_features=64, out_features=1, bias=True)
      (4): Sigmoid()
    )
    (fusion_layer): Sequential(
      (0): Linear(in_features=384, out_features=64, bias=True)
      (1): ReLU()
      (2): Dropout(p=0.1, inplace=False)
      (3): Linear(in_features=64, out_features=64, bias=True)
    )
  )
  (img_projector): Linear(in_features=64, out_features=64, bias=True)
  (text_projector): Linear(in_features=64, out_features=64, bias=True)
  (modal_alignment): Sequential(
    (0): Linear(in_features=64, out_features=128, bias=True)
    (1): ReLU()
    (2): Dropout(p=0.1, inplace=False)
    (3): Linear(in_features=128, out_features=64, bias=True)
  )
  (multihead_attn): MultiHeadAttention(
    (query): Linear(in_features=64, out_features=64, bias=True)
    (key): Linear(in_features=64, out_features=64, bias=True)
    (value): Linear(in_features=64, out_features=64, bias=True)
  )
)
Trainable parameters: 107784002
Sun 02 Feb 2025 17:23:19 INFO epoch 0 training [time: 17.52s, train loss: 63.4524]
Sun 02 Feb 2025 17:23:26 INFO epoch 0 evaluating [time: 3.22s, valid_score: 0.015900]
Sun 02 Feb 2025 17:23:26 INFO valid result: 
recall@5: 0.0052    recall@10: 0.0091    recall@20: 0.0159    recall@50: 0.0302    ndcg@5: 0.0035    ndcg@10: 0.0047    ndcg@20: 0.0064    ndcg@50: 0.0093    precision@5: 0.0011    precision@10: 0.0009    precision@20: 0.0008    precision@50: 0.0006    map@5: 0.0029    map@10: 0.0034    map@20: 0.0039    map@50: 0.0043    
…
Valid: recall@5: 0.0355    recall@10: 0.0550    recall@20: 0.0810    recall@50: 0.1298    ndcg@5: 0.0234    ndcg@10: 0.0297    ndcg@20: 0.0362    ndcg@50: 0.0459    precision@5: 0.0072    precision@10: 0.0056    precision@20: 0.0041    precision@50: 0.0026    map@5: 0.0194    map@10: 0.0219    map@20: 0.0237    map@50: 0.0253    ,
Test: recall@5: 0.0348    recall@10: 0.0544    recall@20: 0.0811    recall@50: 0.1287    ndcg@5: 0.0233    ndcg@10: 0.0296    ndcg@20: 0.0364    ndcg@50: 0.0459    precision@5: 0.0072    precision@10: 0.0057    precision@20: 0.0042    precision@50: 0.0027    map@5: 0.0193    map@10: 0.0218    map@20: 0.0237    map@50: 0.0252    



Sun 02 Feb 2025 18:23:08 INFO =========5/9: Parameters:['projection_dim', 'hidden_dim', 'cl_loss', 'vt_loss', 'n_layers', 'seed']=(128, 128, 0.01, 0.01, 2, 999)=======
Sun 02 Feb 2025 18:23:23 INFO MGCN(
  (user_embedding): Embedding(39387, 64)
  (item_id_embedding): Embedding(23033, 64)
  (image_embedding): Embedding(23033, 4096)
  (text_embedding): Embedding(23033, 384)
  (image_trs): Linear(in_features=4096, out_features=64, bias=True)
  (text_trs): Linear(in_features=384, out_features=64, bias=True)
  (softmax): Softmax(dim=-1)
  (query_common): Sequential(
    (0): Linear(in_features=64, out_features=64, bias=True)
    (1): Tanh()
    (2): Linear(in_features=64, out_features=1, bias=False)
  )
  (gate_v): Sequential(
    (0): Linear(in_features=64, out_features=64, bias=True)
    (1): Sigmoid()
  )
  (gate_t): Sequential(
    (0): Linear(in_features=64, out_features=64, bias=True)
    (1): Sigmoid()
  )
  (gate_image_prefer): Sequential(
    (0): Linear(in_features=64, out_features=64, bias=True)
    (1): Sigmoid()
  )
  (gate_text_prefer): Sequential(
    (0): Linear(in_features=64, out_features=64, bias=True)
    (1): Sigmoid()
  )
  (combiner): CombinedFusion(
    (text_projection_layer): Linear(in_features=64, out_features=128, bias=True)
    (image_projection_layer): Linear(in_features=64, out_features=128, bias=True)
    (gate_image_prefer): Sequential(
      (0): Linear(in_features=128, out_features=128, bias=True)
      (1): Sigmoid()
    )
    (gate_text_prefer): Sequential(
      (0): Linear(in_features=128, out_features=128, bias=True)
      (1): Sigmoid()
    )
    (query_common): Sequential(
      (0): Linear(in_features=128, out_features=128, bias=True)
      (1): Tanh()
      (2): Linear(in_features=128, out_features=1, bias=False)
    )
    (dynamic_scalar): Sequential(
      (0): Linear(in_features=256, out_features=128, bias=True)
      (1): ReLU()
      (2): Dropout(p=0.5, inplace=False)
      (3): Linear(in_features=128, out_features=1, bias=True)
      (4): Sigmoid()
    )
    (combiner_layer): Linear(in_features=384, out_features=128, bias=True)
    (output_layer): Linear(in_features=128, out_features=64, bias=True)
    (dropout): Dropout(p=0.5, inplace=False)
  )
  (cb): Combiner(
    (text_projection_layer): Linear(in_features=64, out_features=128, bias=True)
    (image_projection_layer): Linear(in_features=64, out_features=128, bias=True)
    (attention): MultiheadAttention(
      (out_proj): NonDynamicallyQuantizableLinear(in_features=128, out_features=128, bias=True)
    )
    (modal_alignment): Sequential(
      (0): Linear(in_features=128, out_features=128, bias=True)
      (1): ReLU()
      (2): Dropout(p=0.1, inplace=False)
      (3): Linear(in_features=128, out_features=128, bias=True)
    )
    (dynamic_scalar): Sequential(
      (0): Linear(in_features=256, out_features=128, bias=True)
      (1): ReLU()
      (2): Dropout(p=0.1, inplace=False)
      (3): Linear(in_features=128, out_features=1, bias=True)
      (4): Sigmoid()
    )
    (fusion_layer): Sequential(
      (0): Linear(in_features=384, out_features=128, bias=True)
      (1): ReLU()
      (2): Dropout(p=0.1, inplace=False)
      (3): Linear(in_features=128, out_features=64, bias=True)
    )
  )
  (img_projector): Linear(in_features=64, out_features=64, bias=True)
  (text_projector): Linear(in_features=64, out_features=64, bias=True)
  (modal_alignment): Sequential(
    (0): Linear(in_features=64, out_features=128, bias=True)
    (1): ReLU()
    (2): Dropout(p=0.1, inplace=False)
    (3): Linear(in_features=128, out_features=64, bias=True)
  )
  (multihead_attn): MultiHeadAttention(
    (query): Linear(in_features=64, out_features=64, bias=True)
    (key): Linear(in_features=64, out_features=64, bias=True)
    (value): Linear(in_features=64, out_features=64, bias=True)
  )
)
Trainable parameters: 107890946
Sun 02 Feb 2025 18:23:40 INFO epoch 0 training [time: 17.61s, train loss: 62.7464]
Sun 02 Feb 2025 18:23:47 INFO epoch 0 evaluating [time: 3.22s, valid_score: 0.016000]
Sun 02 Feb 2025 18:23:47 INFO valid result: 
recall@5: 0.0060    recall@10: 0.0097    recall@20: 0.0160    recall@50: 0.0301    ndcg@5: 0.0039    ndcg@10: 0.0051    ndcg@20: 0.0067    ndcg@50: 0.0095    precision@5: 0.0012    precision@10: 0.0010    precision@20: 0.0008    precision@50: 0.0006    map@5: 0.0033    map@10: 0.0037    map@20: 0.0042    map@50: 0.0046    
…
Valid: recall@5: 0.0355    recall@10: 0.0550    recall@20: 0.0810    recall@50: 0.1298    ndcg@5: 0.0234    ndcg@10: 0.0297    ndcg@20: 0.0362    ndcg@50: 0.0459    precision@5: 0.0072    precision@10: 0.0056    precision@20: 0.0041    precision@50: 0.0026    map@5: 0.0194    map@10: 0.0219    map@20: 0.0237    map@50: 0.0253    ,
Test: recall@5: 0.0348    recall@10: 0.0544    recall@20: 0.0811    recall@50: 0.1287    ndcg@5: 0.0233    ndcg@10: 0.0296    ndcg@20: 0.0364    ndcg@50: 0.0459    precision@5: 0.0072    precision@10: 0.0057    precision@20: 0.0042    precision@50: 0.0027    map@5: 0.0193    map@10: 0.0218    map@20: 0.0237    map@50: 0.0252    



Sun 02 Feb 2025 19:14:52 INFO =========6/9: Parameters:['projection_dim', 'hidden_dim', 'cl_loss', 'vt_loss', 'n_layers', 'seed']=(128, 256, 0.01, 0.01, 2, 999)=======
Sun 02 Feb 2025 19:15:06 INFO MGCN(
  (user_embedding): Embedding(39387, 64)
  (item_id_embedding): Embedding(23033, 64)
  (image_embedding): Embedding(23033, 4096)
  (text_embedding): Embedding(23033, 384)
  (image_trs): Linear(in_features=4096, out_features=64, bias=True)
  (text_trs): Linear(in_features=384, out_features=64, bias=True)
  (softmax): Softmax(dim=-1)
  (query_common): Sequential(
    (0): Linear(in_features=64, out_features=64, bias=True)
    (1): Tanh()
    (2): Linear(in_features=64, out_features=1, bias=False)
  )
  (gate_v): Sequential(
    (0): Linear(in_features=64, out_features=64, bias=True)
    (1): Sigmoid()
  )
  (gate_t): Sequential(
    (0): Linear(in_features=64, out_features=64, bias=True)
    (1): Sigmoid()
  )
  (gate_image_prefer): Sequential(
    (0): Linear(in_features=64, out_features=64, bias=True)
    (1): Sigmoid()
  )
  (gate_text_prefer): Sequential(
    (0): Linear(in_features=64, out_features=64, bias=True)
    (1): Sigmoid()
  )
  (combiner): CombinedFusion(
    (text_projection_layer): Linear(in_features=64, out_features=128, bias=True)
    (image_projection_layer): Linear(in_features=64, out_features=128, bias=True)
    (gate_image_prefer): Sequential(
      (0): Linear(in_features=128, out_features=128, bias=True)
      (1): Sigmoid()
    )
    (gate_text_prefer): Sequential(
      (0): Linear(in_features=128, out_features=128, bias=True)
      (1): Sigmoid()
    )
    (query_common): Sequential(
      (0): Linear(in_features=128, out_features=128, bias=True)
      (1): Tanh()
      (2): Linear(in_features=128, out_features=1, bias=False)
    )
    (dynamic_scalar): Sequential(
      (0): Linear(in_features=256, out_features=256, bias=True)
      (1): ReLU()
      (2): Dropout(p=0.5, inplace=False)
      (3): Linear(in_features=256, out_features=1, bias=True)
      (4): Sigmoid()
    )
    (combiner_layer): Linear(in_features=384, out_features=256, bias=True)
    (output_layer): Linear(in_features=256, out_features=64, bias=True)
    (dropout): Dropout(p=0.5, inplace=False)
  )
  (cb): Combiner(
    (text_projection_layer): Linear(in_features=64, out_features=128, bias=True)
    (image_projection_layer): Linear(in_features=64, out_features=128, bias=True)
    (attention): MultiheadAttention(
      (out_proj): NonDynamicallyQuantizableLinear(in_features=128, out_features=128, bias=True)
    )
    (modal_alignment): Sequential(
      (0): Linear(in_features=128, out_features=256, bias=True)
      (1): ReLU()
      (2): Dropout(p=0.1, inplace=False)
      (3): Linear(in_features=256, out_features=128, bias=True)
    )
    (dynamic_scalar): Sequential(
      (0): Linear(in_features=256, out_features=256, bias=True)
      (1): ReLU()
      (2): Dropout(p=0.1, inplace=False)
      (3): Linear(in_features=256, out_features=1, bias=True)
      (4): Sigmoid()
    )
    (fusion_layer): Sequential(
      (0): Linear(in_features=384, out_features=256, bias=True)
      (1): ReLU()
      (2): Dropout(p=0.1, inplace=False)
      (3): Linear(in_features=256, out_features=64, bias=True)
    )
  )
  (img_projector): Linear(in_features=64, out_features=64, bias=True)
  (text_projector): Linear(in_features=64, out_features=64, bias=True)
  (modal_alignment): Sequential(
    (0): Linear(in_features=64, out_features=128, bias=True)
    (1): ReLU()
    (2): Dropout(p=0.1, inplace=False)
    (3): Linear(in_features=128, out_features=64, bias=True)
  )
  (multihead_attn): MultiHeadAttention(
    (query): Linear(in_features=64, out_features=64, bias=True)
    (key): Linear(in_features=64, out_features=64, bias=True)
    (value): Linear(in_features=64, out_features=64, bias=True)
  )
)
Trainable parameters: 108104834
Sun 02 Feb 2025 19:15:24 INFO epoch 0 training [time: 17.91s, train loss: 56.3167]
Sun 02 Feb 2025 19:15:31 INFO epoch 0 evaluating [time: 3.24s, valid_score: 0.044200]
Sun 02 Feb 2025 19:15:31 INFO valid result: 
recall@5: 0.0171    recall@10: 0.0276    recall@20: 0.0442    recall@50: 0.0757    ndcg@5: 0.0108    ndcg@10: 0.0142    ndcg@20: 0.0184    ndcg@50: 0.0246    precision@5: 0.0035    precision@10: 0.0028    precision@20: 0.0022    precision@50: 0.0015    map@5: 0.0087    map@10: 0.0101    map@20: 0.0112    map@50: 0.0122    
…
Valid: recall@5: 0.0354    recall@10: 0.0551    recall@20: 0.0821    recall@50: 0.1292    ndcg@5: 0.0233    ndcg@10: 0.0296    ndcg@20: 0.0365    ndcg@50: 0.0458    precision@5: 0.0072    precision@10: 0.0056    precision@20: 0.0042    precision@50: 0.0026    map@5: 0.0193    map@10: 0.0218    map@20: 0.0237    map@50: 0.0252    ,
Test: recall@5: 0.0360    recall@10: 0.0547    recall@20: 0.0821    recall@50: 0.1295    ndcg@5: 0.0240    ndcg@10: 0.0300    ndcg@20: 0.0370    ndcg@50: 0.0464    precision@5: 0.0075    precision@10: 0.0057    precision@20: 0.0043    precision@50: 0.0027    map@5: 0.0198    map@10: 0.0223    map@20: 0.0241    map@50: 0.0256    



Sun 02 Feb 2025 20:01:09 INFO =========7/9: Parameters:['projection_dim', 'hidden_dim', 'cl_loss', 'vt_loss', 'n_layers', 'seed']=(256, 64, 0.01, 0.01, 2, 999)=======
Sun 02 Feb 2025 20:01:23 INFO MGCN(
  (user_embedding): Embedding(39387, 64)
  (item_id_embedding): Embedding(23033, 64)
  (image_embedding): Embedding(23033, 4096)
  (text_embedding): Embedding(23033, 384)
  (image_trs): Linear(in_features=4096, out_features=64, bias=True)
  (text_trs): Linear(in_features=384, out_features=64, bias=True)
  (softmax): Softmax(dim=-1)
  (query_common): Sequential(
    (0): Linear(in_features=64, out_features=64, bias=True)
    (1): Tanh()
    (2): Linear(in_features=64, out_features=1, bias=False)
  )
  (gate_v): Sequential(
    (0): Linear(in_features=64, out_features=64, bias=True)
    (1): Sigmoid()
  )
  (gate_t): Sequential(
    (0): Linear(in_features=64, out_features=64, bias=True)
    (1): Sigmoid()
  )
  (gate_image_prefer): Sequential(
    (0): Linear(in_features=64, out_features=64, bias=True)
    (1): Sigmoid()
  )
  (gate_text_prefer): Sequential(
    (0): Linear(in_features=64, out_features=64, bias=True)
    (1): Sigmoid()
  )
  (combiner): CombinedFusion(
    (text_projection_layer): Linear(in_features=64, out_features=256, bias=True)
    (image_projection_layer): Linear(in_features=64, out_features=256, bias=True)
    (gate_image_prefer): Sequential(
      (0): Linear(in_features=256, out_features=256, bias=True)
      (1): Sigmoid()
    )
    (gate_text_prefer): Sequential(
      (0): Linear(in_features=256, out_features=256, bias=True)
      (1): Sigmoid()
    )
    (query_common): Sequential(
      (0): Linear(in_features=256, out_features=256, bias=True)
      (1): Tanh()
      (2): Linear(in_features=256, out_features=1, bias=False)
    )
    (dynamic_scalar): Sequential(
      (0): Linear(in_features=512, out_features=64, bias=True)
      (1): ReLU()
      (2): Dropout(p=0.5, inplace=False)
      (3): Linear(in_features=64, out_features=1, bias=True)
      (4): Sigmoid()
    )
    (combiner_layer): Linear(in_features=768, out_features=64, bias=True)
    (output_layer): Linear(in_features=64, out_features=64, bias=True)
    (dropout): Dropout(p=0.5, inplace=False)
  )
  (cb): Combiner(
    (text_projection_layer): Linear(in_features=64, out_features=256, bias=True)
    (image_projection_layer): Linear(in_features=64, out_features=256, bias=True)
    (attention): MultiheadAttention(
      (out_proj): NonDynamicallyQuantizableLinear(in_features=256, out_features=256, bias=True)
    )
    (modal_alignment): Sequential(
      (0): Linear(in_features=256, out_features=64, bias=True)
      (1): ReLU()
      (2): Dropout(p=0.1, inplace=False)
      (3): Linear(in_features=64, out_features=256, bias=True)
    )
    (dynamic_scalar): Sequential(
      (0): Linear(in_features=512, out_features=64, bias=True)
      (1): ReLU()
      (2): Dropout(p=0.1, inplace=False)
      (3): Linear(in_features=64, out_features=1, bias=True)
      (4): Sigmoid()
    )
    (fusion_layer): Sequential(
      (0): Linear(in_features=768, out_features=64, bias=True)
      (1): ReLU()
      (2): Dropout(p=0.1, inplace=False)
      (3): Linear(in_features=64, out_features=64, bias=True)
    )
  )
  (img_projector): Linear(in_features=64, out_features=64, bias=True)
  (text_projector): Linear(in_features=64, out_features=64, bias=True)
  (modal_alignment): Sequential(
    (0): Linear(in_features=64, out_features=128, bias=True)
    (1): ReLU()
    (2): Dropout(p=0.1, inplace=False)
    (3): Linear(in_features=128, out_features=64, bias=True)
  )
  (multihead_attn): MultiHeadAttention(
    (query): Linear(in_features=64, out_features=64, bias=True)
    (key): Linear(in_features=64, out_features=64, bias=True)
    (value): Linear(in_features=64, out_features=64, bias=True)
  )
)
Trainable parameters: 108260802
Sun 02 Feb 2025 20:01:42 INFO epoch 0 training [time: 18.22s, train loss: 63.3655]
Sun 02 Feb 2025 20:01:48 INFO epoch 0 evaluating [time: 3.28s, valid_score: 0.014700]
Sun 02 Feb 2025 20:01:48 INFO valid result: 
recall@5: 0.0051    recall@10: 0.0088    recall@20: 0.0147    recall@50: 0.0295    ndcg@5: 0.0033    ndcg@10: 0.0045    ndcg@20: 0.0059    ndcg@50: 0.0089    precision@5: 0.0010    precision@10: 0.0009    precision@20: 0.0007    precision@50: 0.0006    map@5: 0.0027    map@10: 0.0032    map@20: 0.0036    map@50: 0.0040    
…
Valid: recall@5: 0.0354    recall@10: 0.0551    recall@20: 0.0821    recall@50: 0.1292    ndcg@5: 0.0233    ndcg@10: 0.0296    ndcg@20: 0.0365    ndcg@50: 0.0458    precision@5: 0.0072    precision@10: 0.0056    precision@20: 0.0042    precision@50: 0.0026    map@5: 0.0193    map@10: 0.0218    map@20: 0.0237    map@50: 0.0252    ,
Test: recall@5: 0.0360    recall@10: 0.0547    recall@20: 0.0821    recall@50: 0.1295    ndcg@5: 0.0240    ndcg@10: 0.0300    ndcg@20: 0.0370    ndcg@50: 0.0464    precision@5: 0.0075    precision@10: 0.0057    precision@20: 0.0043    precision@50: 0.0027    map@5: 0.0198    map@10: 0.0223    map@20: 0.0241    map@50: 0.0256    



Sun 02 Feb 2025 21:25:26 INFO =========8/9: Parameters:['projection_dim', 'hidden_dim', 'cl_loss', 'vt_loss', 'n_layers', 'seed']=(256, 128, 0.01, 0.01, 2, 999)=======
Sun 02 Feb 2025 21:25:40 INFO MGCN(
  (user_embedding): Embedding(39387, 64)
  (item_id_embedding): Embedding(23033, 64)
  (image_embedding): Embedding(23033, 4096)
  (text_embedding): Embedding(23033, 384)
  (image_trs): Linear(in_features=4096, out_features=64, bias=True)
  (text_trs): Linear(in_features=384, out_features=64, bias=True)
  (softmax): Softmax(dim=-1)
  (query_common): Sequential(
    (0): Linear(in_features=64, out_features=64, bias=True)
    (1): Tanh()
    (2): Linear(in_features=64, out_features=1, bias=False)
  )
  (gate_v): Sequential(
    (0): Linear(in_features=64, out_features=64, bias=True)
    (1): Sigmoid()
  )
  (gate_t): Sequential(
    (0): Linear(in_features=64, out_features=64, bias=True)
    (1): Sigmoid()
  )
  (gate_image_prefer): Sequential(
    (0): Linear(in_features=64, out_features=64, bias=True)
    (1): Sigmoid()
  )
  (gate_text_prefer): Sequential(
    (0): Linear(in_features=64, out_features=64, bias=True)
    (1): Sigmoid()
  )
  (combiner): CombinedFusion(
    (text_projection_layer): Linear(in_features=64, out_features=256, bias=True)
    (image_projection_layer): Linear(in_features=64, out_features=256, bias=True)
    (gate_image_prefer): Sequential(
      (0): Linear(in_features=256, out_features=256, bias=True)
      (1): Sigmoid()
    )
    (gate_text_prefer): Sequential(
      (0): Linear(in_features=256, out_features=256, bias=True)
      (1): Sigmoid()
    )
    (query_common): Sequential(
      (0): Linear(in_features=256, out_features=256, bias=True)
      (1): Tanh()
      (2): Linear(in_features=256, out_features=1, bias=False)
    )
    (dynamic_scalar): Sequential(
      (0): Linear(in_features=512, out_features=128, bias=True)
      (1): ReLU()
      (2): Dropout(p=0.5, inplace=False)
      (3): Linear(in_features=128, out_features=1, bias=True)
      (4): Sigmoid()
    )
    (combiner_layer): Linear(in_features=768, out_features=128, bias=True)
    (output_layer): Linear(in_features=128, out_features=64, bias=True)
    (dropout): Dropout(p=0.5, inplace=False)
  )
  (cb): Combiner(
    (text_projection_layer): Linear(in_features=64, out_features=256, bias=True)
    (image_projection_layer): Linear(in_features=64, out_features=256, bias=True)
    (attention): MultiheadAttention(
      (out_proj): NonDynamicallyQuantizableLinear(in_features=256, out_features=256, bias=True)
    )
    (modal_alignment): Sequential(
      (0): Linear(in_features=256, out_features=128, bias=True)
      (1): ReLU()
      (2): Dropout(p=0.1, inplace=False)
      (3): Linear(in_features=128, out_features=256, bias=True)
    )
    (dynamic_scalar): Sequential(
      (0): Linear(in_features=512, out_features=128, bias=True)
      (1): ReLU()
      (2): Dropout(p=0.1, inplace=False)
      (3): Linear(in_features=128, out_features=1, bias=True)
      (4): Sigmoid()
    )
    (fusion_layer): Sequential(
      (0): Linear(in_features=768, out_features=128, bias=True)
      (1): ReLU()
      (2): Dropout(p=0.1, inplace=False)
      (3): Linear(in_features=128, out_features=64, bias=True)
    )
  )
  (img_projector): Linear(in_features=64, out_features=64, bias=True)
  (text_projector): Linear(in_features=64, out_features=64, bias=True)
  (modal_alignment): Sequential(
    (0): Linear(in_features=64, out_features=128, bias=True)
    (1): ReLU()
    (2): Dropout(p=0.1, inplace=False)
    (3): Linear(in_features=128, out_features=64, bias=True)
  )
  (multihead_attn): MultiHeadAttention(
    (query): Linear(in_features=64, out_features=64, bias=True)
    (key): Linear(in_features=64, out_features=64, bias=True)
    (value): Linear(in_features=64, out_features=64, bias=True)
  )
)
Trainable parameters: 108466050
Sun 02 Feb 2025 21:25:59 INFO epoch 0 training [time: 18.42s, train loss: 63.2741]
Sun 02 Feb 2025 21:26:05 INFO epoch 0 evaluating [time: 3.27s, valid_score: 0.014700]
Sun 02 Feb 2025 21:26:05 INFO valid result: 
recall@5: 0.0048    recall@10: 0.0084    recall@20: 0.0147    recall@50: 0.0283    ndcg@5: 0.0032    ndcg@10: 0.0044    ndcg@20: 0.0059    ndcg@50: 0.0086    precision@5: 0.0010    precision@10: 0.0009    precision@20: 0.0007    precision@50: 0.0006    map@5: 0.0027    map@10: 0.0031    map@20: 0.0036    map@50: 0.0040    
…
Valid: recall@5: 0.0354    recall@10: 0.0551    recall@20: 0.0821    recall@50: 0.1292    ndcg@5: 0.0233    ndcg@10: 0.0296    ndcg@20: 0.0365    ndcg@50: 0.0458    precision@5: 0.0072    precision@10: 0.0056    precision@20: 0.0042    precision@50: 0.0026    map@5: 0.0193    map@10: 0.0218    map@20: 0.0237    map@50: 0.0252    ,
Test: recall@5: 0.0360    recall@10: 0.0547    recall@20: 0.0821    recall@50: 0.1295    ndcg@5: 0.0240    ndcg@10: 0.0300    ndcg@20: 0.0370    ndcg@50: 0.0464    precision@5: 0.0075    precision@10: 0.0057    precision@20: 0.0043    precision@50: 0.0027    map@5: 0.0198    map@10: 0.0223    map@20: 0.0241    map@50: 0.0256    



Sun 02 Feb 2025 22:25:35 INFO =========9/9: Parameters:['projection_dim', 'hidden_dim', 'cl_loss', 'vt_loss', 'n_layers', 'seed']=(256, 256, 0.01, 0.01, 2, 999)=======
Sun 02 Feb 2025 22:25:50 INFO MGCN(
  (user_embedding): Embedding(39387, 64)
  (item_id_embedding): Embedding(23033, 64)
  (image_embedding): Embedding(23033, 4096)
  (text_embedding): Embedding(23033, 384)
  (image_trs): Linear(in_features=4096, out_features=64, bias=True)
  (text_trs): Linear(in_features=384, out_features=64, bias=True)
  (softmax): Softmax(dim=-1)
  (query_common): Sequential(
    (0): Linear(in_features=64, out_features=64, bias=True)
    (1): Tanh()
    (2): Linear(in_features=64, out_features=1, bias=False)
  )
  (gate_v): Sequential(
    (0): Linear(in_features=64, out_features=64, bias=True)
    (1): Sigmoid()
  )
  (gate_t): Sequential(
    (0): Linear(in_features=64, out_features=64, bias=True)
    (1): Sigmoid()
  )
  (gate_image_prefer): Sequential(
    (0): Linear(in_features=64, out_features=64, bias=True)
    (1): Sigmoid()
  )
  (gate_text_prefer): Sequential(
    (0): Linear(in_features=64, out_features=64, bias=True)
    (1): Sigmoid()
  )
  (combiner): CombinedFusion(
    (text_projection_layer): Linear(in_features=64, out_features=256, bias=True)
    (image_projection_layer): Linear(in_features=64, out_features=256, bias=True)
    (gate_image_prefer): Sequential(
      (0): Linear(in_features=256, out_features=256, bias=True)
      (1): Sigmoid()
    )
    (gate_text_prefer): Sequential(
      (0): Linear(in_features=256, out_features=256, bias=True)
      (1): Sigmoid()
    )
    (query_common): Sequential(
      (0): Linear(in_features=256, out_features=256, bias=True)
      (1): Tanh()
      (2): Linear(in_features=256, out_features=1, bias=False)
    )
    (dynamic_scalar): Sequential(
      (0): Linear(in_features=512, out_features=256, bias=True)
      (1): ReLU()
      (2): Dropout(p=0.5, inplace=False)
      (3): Linear(in_features=256, out_features=1, bias=True)
      (4): Sigmoid()
    )
    (combiner_layer): Linear(in_features=768, out_features=256, bias=True)
    (output_layer): Linear(in_features=256, out_features=64, bias=True)
    (dropout): Dropout(p=0.5, inplace=False)
  )
  (cb): Combiner(
    (text_projection_layer): Linear(in_features=64, out_features=256, bias=True)
    (image_projection_layer): Linear(in_features=64, out_features=256, bias=True)
    (attention): MultiheadAttention(
      (out_proj): NonDynamicallyQuantizableLinear(in_features=256, out_features=256, bias=True)
    )
    (modal_alignment): Sequential(
      (0): Linear(in_features=256, out_features=256, bias=True)
      (1): ReLU()
      (2): Dropout(p=0.1, inplace=False)
      (3): Linear(in_features=256, out_features=256, bias=True)
    )
    (dynamic_scalar): Sequential(
      (0): Linear(in_features=512, out_features=256, bias=True)
      (1): ReLU()
      (2): Dropout(p=0.1, inplace=False)
      (3): Linear(in_features=256, out_features=1, bias=True)
      (4): Sigmoid()
    )
    (fusion_layer): Sequential(
      (0): Linear(in_features=768, out_features=256, bias=True)
      (1): ReLU()
      (2): Dropout(p=0.1, inplace=False)
      (3): Linear(in_features=256, out_features=64, bias=True)
    )
  )
  (img_projector): Linear(in_features=64, out_features=64, bias=True)
  (text_projector): Linear(in_features=64, out_features=64, bias=True)
  (modal_alignment): Sequential(
    (0): Linear(in_features=64, out_features=128, bias=True)
    (1): ReLU()
    (2): Dropout(p=0.1, inplace=False)
    (3): Linear(in_features=128, out_features=64, bias=True)
  )
  (multihead_attn): MultiHeadAttention(
    (query): Linear(in_features=64, out_features=64, bias=True)
    (key): Linear(in_features=64, out_features=64, bias=True)
    (value): Linear(in_features=64, out_features=64, bias=True)
  )
)
Trainable parameters: 108876546
Sun 02 Feb 2025 22:26:09 INFO epoch 0 training [time: 18.85s, train loss: 61.4598]
Sun 02 Feb 2025 22:26:15 INFO epoch 0 evaluating [time: 3.31s, valid_score: 0.025900]
Sun 02 Feb 2025 22:26:15 INFO valid result: 
recall@5: 0.0098    recall@10: 0.0168    recall@20: 0.0259    recall@50: 0.0453    ndcg@5: 0.0059    ndcg@10: 0.0082    ndcg@20: 0.0105    ndcg@50: 0.0143    precision@5: 0.0020    precision@10: 0.0017    precision@20: 0.0013    precision@50: 0.0009    map@5: 0.0046    map@10: 0.0055    map@20: 0.0062    map@50: 0.0068    
…
