…
The sparsity of the dataset: 99.99389670773579%
Fri 24 Jan 2025 17:03:29 INFO 
====Testing====
clothing
The number of users: 39387
Average actions of users: 1.0457511361616778
The number of items: 16803
Average actions of items: 2.451288460393977
The number of inters: 41189
The sparsity of the dataset: 99.99377640221293%
Fri 24 Jan 2025 17:03:31 INFO 

=================================


Fri 24 Jan 2025 17:03:31 INFO =========1/9: Parameters:['projection_dim', 'hidden_dim', 'cl_loss', 'vt_loss', 'n_layers', 'seed']=(64, 64, 0.01, 0.01, 2, 999)=======
Fri 24 Jan 2025 17:03:45 INFO MGCN(
  (user_embedding): Embedding(39387, 64)
  (item_id_embedding): Embedding(23033, 64)
  (image_embedding): Embedding(23033, 4096)
  (text_embedding): Embedding(23033, 384)
  (image_trs): Linear(in_features=4096, out_features=64, bias=True)
  (text_trs): Linear(in_features=384, out_features=64, bias=True)
  (softmax): Softmax(dim=-1)
  (query_common): Sequential(
    (0): Linear(in_features=64, out_features=64, bias=True)
    (1): Tanh()
    (2): Linear(in_features=64, out_features=1, bias=False)
  )
  (gate_v): Sequential(
    (0): Linear(in_features=64, out_features=64, bias=True)
    (1): Sigmoid()
  )
  (gate_t): Sequential(
    (0): Linear(in_features=64, out_features=64, bias=True)
    (1): Sigmoid()
  )
  (gate_image_prefer): Sequential(
    (0): Linear(in_features=64, out_features=64, bias=True)
    (1): Sigmoid()
  )
  (gate_text_prefer): Sequential(
    (0): Linear(in_features=64, out_features=64, bias=True)
    (1): Sigmoid()
  )
  (combiner): CombinedFusion(
    (text_projection_layer): Linear(in_features=64, out_features=64, bias=True)
    (image_projection_layer): Linear(in_features=64, out_features=64, bias=True)
    (gate_image_prefer): Sequential(
      (0): Linear(in_features=64, out_features=64, bias=True)
      (1): Sigmoid()
    )
    (gate_text_prefer): Sequential(
      (0): Linear(in_features=64, out_features=64, bias=True)
      (1): Sigmoid()
    )
    (query_common): Sequential(
      (0): Linear(in_features=64, out_features=64, bias=True)
      (1): Tanh()
      (2): Linear(in_features=64, out_features=1, bias=False)
    )
    (dynamic_scalar): Sequential(
      (0): Linear(in_features=128, out_features=64, bias=True)
      (1): ReLU()
      (2): Dropout(p=0.5, inplace=False)
      (3): Linear(in_features=64, out_features=1, bias=True)
      (4): Sigmoid()
    )
    (combiner_layer): Linear(in_features=192, out_features=64, bias=True)
    (output_layer): Linear(in_features=64, out_features=64, bias=True)
    (dropout): Dropout(p=0.5, inplace=False)
  )
  (cb): Combiner(
    (text_projection_layer): Linear(in_features=64, out_features=64, bias=True)
    (image_projection_layer): Linear(in_features=64, out_features=64, bias=True)
    (attention): MultiheadAttention(
      (out_proj): NonDynamicallyQuantizableLinear(in_features=64, out_features=64, bias=True)
    )
    (modal_alignment): Sequential(
      (0): Linear(in_features=64, out_features=64, bias=True)
      (1): ReLU()
      (2): Dropout(p=0.1, inplace=False)
      (3): Linear(in_features=64, out_features=64, bias=True)
    )
    (dynamic_scalar): Sequential(
      (0): Linear(in_features=128, out_features=64, bias=True)
      (1): ReLU()
      (2): Dropout(p=0.1, inplace=False)
      (3): Linear(in_features=64, out_features=1, bias=True)
      (4): Sigmoid()
    )
    (fusion_layer): Sequential(
      (0): Linear(in_features=192, out_features=64, bias=True)
      (1): ReLU()
      (2): Dropout(p=0.1, inplace=False)
      (3): Linear(in_features=64, out_features=64, bias=True)
    )
  )
  (img_projector): Linear(in_features=64, out_features=64, bias=True)
  (text_projector): Linear(in_features=64, out_features=64, bias=True)
  (modal_alignment): Sequential(
    (0): Linear(in_features=64, out_features=128, bias=True)
    (1): ReLU()
    (2): Dropout(p=0.1, inplace=False)
    (3): Linear(in_features=128, out_features=64, bias=True)
  )
  (multihead_attn): MultiHeadAttention(
    (query): Linear(in_features=64, out_features=64, bias=True)
    (key): Linear(in_features=64, out_features=64, bias=True)
    (value): Linear(in_features=64, out_features=64, bias=True)
  )
)
Trainable parameters: 107631618
Fri 24 Jan 2025 17:04:03 INFO epoch 0 training [time: 17.76s, train loss: 80.8560]
Fri 24 Jan 2025 17:04:09 INFO epoch 0 evaluating [time: 3.25s, valid_score: 0.041600]
Fri 24 Jan 2025 17:04:09 INFO valid result: 
recall@5: 0.0180    recall@10: 0.0283    recall@20: 0.0416    recall@50: 0.0686    ndcg@5: 0.0117    ndcg@10: 0.0150    ndcg@20: 0.0183    ndcg@50: 0.0237    precision@5: 0.0037    precision@10: 0.0029    precision@20: 0.0021    precision@50: 0.0014    map@5: 0.0095    map@10: 0.0109    map@20: 0.0118    map@50: 0.0126    
…
Valid: recall@5: 0.0433    recall@10: 0.0652    recall@20: 0.0951    recall@50: 0.1466    ndcg@5: 0.0282    ndcg@10: 0.0353    ndcg@20: 0.0428    ndcg@50: 0.0530    precision@5: 0.0088    precision@10: 0.0066    precision@20: 0.0048    precision@50: 0.0030    map@5: 0.0232    map@10: 0.0260    map@20: 0.0281    map@50: 0.0297    ,
Test: recall@5: 0.0424    recall@10: 0.0653    recall@20: 0.0943    recall@50: 0.1457    ndcg@5: 0.0277    ndcg@10: 0.0350    ndcg@20: 0.0424    ndcg@50: 0.0527    precision@5: 0.0088    precision@10: 0.0068    precision@20: 0.0049    precision@50: 0.0030    map@5: 0.0226    map@10: 0.0256    map@20: 0.0276    map@50: 0.0292    



Fri 24 Jan 2025 17:59:30 INFO =========2/9: Parameters:['projection_dim', 'hidden_dim', 'cl_loss', 'vt_loss', 'n_layers', 'seed']=(64, 128, 0.01, 0.01, 2, 999)=======
Fri 24 Jan 2025 17:59:44 INFO MGCN(
  (user_embedding): Embedding(39387, 64)
  (item_id_embedding): Embedding(23033, 64)
  (image_embedding): Embedding(23033, 4096)
  (text_embedding): Embedding(23033, 384)
  (image_trs): Linear(in_features=4096, out_features=64, bias=True)
  (text_trs): Linear(in_features=384, out_features=64, bias=True)
  (softmax): Softmax(dim=-1)
  (query_common): Sequential(
    (0): Linear(in_features=64, out_features=64, bias=True)
    (1): Tanh()
    (2): Linear(in_features=64, out_features=1, bias=False)
  )
  (gate_v): Sequential(
    (0): Linear(in_features=64, out_features=64, bias=True)
    (1): Sigmoid()
  )
  (gate_t): Sequential(
    (0): Linear(in_features=64, out_features=64, bias=True)
    (1): Sigmoid()
  )
  (gate_image_prefer): Sequential(
    (0): Linear(in_features=64, out_features=64, bias=True)
    (1): Sigmoid()
  )
  (gate_text_prefer): Sequential(
    (0): Linear(in_features=64, out_features=64, bias=True)
    (1): Sigmoid()
  )
  (combiner): CombinedFusion(
    (text_projection_layer): Linear(in_features=64, out_features=64, bias=True)
    (image_projection_layer): Linear(in_features=64, out_features=64, bias=True)
    (gate_image_prefer): Sequential(
      (0): Linear(in_features=64, out_features=64, bias=True)
      (1): Sigmoid()
    )
    (gate_text_prefer): Sequential(
      (0): Linear(in_features=64, out_features=64, bias=True)
      (1): Sigmoid()
    )
    (query_common): Sequential(
      (0): Linear(in_features=64, out_features=64, bias=True)
      (1): Tanh()
      (2): Linear(in_features=64, out_features=1, bias=False)
    )
    (dynamic_scalar): Sequential(
      (0): Linear(in_features=128, out_features=128, bias=True)
      (1): ReLU()
      (2): Dropout(p=0.5, inplace=False)
      (3): Linear(in_features=128, out_features=1, bias=True)
      (4): Sigmoid()
    )
    (combiner_layer): Linear(in_features=192, out_features=128, bias=True)
    (output_layer): Linear(in_features=128, out_features=64, bias=True)
    (dropout): Dropout(p=0.5, inplace=False)
  )
  (cb): Combiner(
    (text_projection_layer): Linear(in_features=64, out_features=64, bias=True)
    (image_projection_layer): Linear(in_features=64, out_features=64, bias=True)
    (attention): MultiheadAttention(
      (out_proj): NonDynamicallyQuantizableLinear(in_features=64, out_features=64, bias=True)
    )
    (modal_alignment): Sequential(
      (0): Linear(in_features=64, out_features=128, bias=True)
      (1): ReLU()
      (2): Dropout(p=0.1, inplace=False)
      (3): Linear(in_features=128, out_features=64, bias=True)
    )
    (dynamic_scalar): Sequential(
      (0): Linear(in_features=128, out_features=128, bias=True)
      (1): ReLU()
      (2): Dropout(p=0.1, inplace=False)
      (3): Linear(in_features=128, out_features=1, bias=True)
      (4): Sigmoid()
    )
    (fusion_layer): Sequential(
      (0): Linear(in_features=192, out_features=128, bias=True)
      (1): ReLU()
      (2): Dropout(p=0.1, inplace=False)
      (3): Linear(in_features=128, out_features=64, bias=True)
    )
  )
  (img_projector): Linear(in_features=64, out_features=64, bias=True)
  (text_projector): Linear(in_features=64, out_features=64, bias=True)
  (modal_alignment): Sequential(
    (0): Linear(in_features=64, out_features=128, bias=True)
    (1): ReLU()
    (2): Dropout(p=0.1, inplace=False)
    (3): Linear(in_features=128, out_features=64, bias=True)
  )
  (multihead_attn): MultiHeadAttention(
    (query): Linear(in_features=64, out_features=64, bias=True)
    (key): Linear(in_features=64, out_features=64, bias=True)
    (value): Linear(in_features=64, out_features=64, bias=True)
  )
)
Trainable parameters: 107689410
Fri 24 Jan 2025 18:00:02 INFO epoch 0 training [time: 17.65s, train loss: 69.2096]
Fri 24 Jan 2025 18:00:08 INFO epoch 0 evaluating [time: 3.22s, valid_score: 0.063800]
Fri 24 Jan 2025 18:00:08 INFO valid result: 
recall@5: 0.0270    recall@10: 0.0412    recall@20: 0.0638    recall@50: 0.1012    ndcg@5: 0.0172    ndcg@10: 0.0218    ndcg@20: 0.0275    ndcg@50: 0.0349    precision@5: 0.0054    precision@10: 0.0042    precision@20: 0.0032    precision@50: 0.0021    map@5: 0.0139    map@10: 0.0158    map@20: 0.0173    map@50: 0.0185    
…
Valid: recall@5: 0.0426    recall@10: 0.0647    recall@20: 0.0957    recall@50: 0.1473    ndcg@5: 0.0277    ndcg@10: 0.0349    ndcg@20: 0.0427    ndcg@50: 0.0529    precision@5: 0.0086    precision@10: 0.0066    precision@20: 0.0049    precision@50: 0.0030    map@5: 0.0228    map@10: 0.0257    map@20: 0.0278    map@50: 0.0294    ,
Test: recall@5: 0.0418    recall@10: 0.0646    recall@20: 0.0956    recall@50: 0.1494    ndcg@5: 0.0276    ndcg@10: 0.0350    ndcg@20: 0.0428    ndcg@50: 0.0536    precision@5: 0.0086    precision@10: 0.0067    precision@20: 0.0050    precision@50: 0.0031    map@5: 0.0226    map@10: 0.0257    map@20: 0.0278    map@50: 0.0295    



Fri 24 Jan 2025 18:43:15 INFO =========3/9: Parameters:['projection_dim', 'hidden_dim', 'cl_loss', 'vt_loss', 'n_layers', 'seed']=(64, 256, 0.01, 0.01, 2, 999)=======
Fri 24 Jan 2025 18:43:29 INFO MGCN(
  (user_embedding): Embedding(39387, 64)
  (item_id_embedding): Embedding(23033, 64)
  (image_embedding): Embedding(23033, 4096)
  (text_embedding): Embedding(23033, 384)
  (image_trs): Linear(in_features=4096, out_features=64, bias=True)
  (text_trs): Linear(in_features=384, out_features=64, bias=True)
  (softmax): Softmax(dim=-1)
  (query_common): Sequential(
    (0): Linear(in_features=64, out_features=64, bias=True)
    (1): Tanh()
    (2): Linear(in_features=64, out_features=1, bias=False)
  )
  (gate_v): Sequential(
    (0): Linear(in_features=64, out_features=64, bias=True)
    (1): Sigmoid()
  )
  (gate_t): Sequential(
    (0): Linear(in_features=64, out_features=64, bias=True)
    (1): Sigmoid()
  )
  (gate_image_prefer): Sequential(
    (0): Linear(in_features=64, out_features=64, bias=True)
    (1): Sigmoid()
  )
  (gate_text_prefer): Sequential(
    (0): Linear(in_features=64, out_features=64, bias=True)
    (1): Sigmoid()
  )
  (combiner): CombinedFusion(
    (text_projection_layer): Linear(in_features=64, out_features=64, bias=True)
    (image_projection_layer): Linear(in_features=64, out_features=64, bias=True)
    (gate_image_prefer): Sequential(
      (0): Linear(in_features=64, out_features=64, bias=True)
      (1): Sigmoid()
    )
    (gate_text_prefer): Sequential(
      (0): Linear(in_features=64, out_features=64, bias=True)
      (1): Sigmoid()
    )
    (query_common): Sequential(
      (0): Linear(in_features=64, out_features=64, bias=True)
      (1): Tanh()
      (2): Linear(in_features=64, out_features=1, bias=False)
    )
    (dynamic_scalar): Sequential(
      (0): Linear(in_features=128, out_features=256, bias=True)
      (1): ReLU()
      (2): Dropout(p=0.5, inplace=False)
      (3): Linear(in_features=256, out_features=1, bias=True)
      (4): Sigmoid()
    )
    (combiner_layer): Linear(in_features=192, out_features=256, bias=True)
    (output_layer): Linear(in_features=256, out_features=64, bias=True)
    (dropout): Dropout(p=0.5, inplace=False)
  )
  (cb): Combiner(
    (text_projection_layer): Linear(in_features=64, out_features=64, bias=True)
    (image_projection_layer): Linear(in_features=64, out_features=64, bias=True)
    (attention): MultiheadAttention(
      (out_proj): NonDynamicallyQuantizableLinear(in_features=64, out_features=64, bias=True)
    )
    (modal_alignment): Sequential(
      (0): Linear(in_features=64, out_features=256, bias=True)
      (1): ReLU()
      (2): Dropout(p=0.1, inplace=False)
      (3): Linear(in_features=256, out_features=64, bias=True)
    )
    (dynamic_scalar): Sequential(
      (0): Linear(in_features=128, out_features=256, bias=True)
      (1): ReLU()
      (2): Dropout(p=0.1, inplace=False)
      (3): Linear(in_features=256, out_features=1, bias=True)
      (4): Sigmoid()
    )
    (fusion_layer): Sequential(
      (0): Linear(in_features=192, out_features=256, bias=True)
      (1): ReLU()
      (2): Dropout(p=0.1, inplace=False)
      (3): Linear(in_features=256, out_features=64, bias=True)
    )
  )
  (img_projector): Linear(in_features=64, out_features=64, bias=True)
  (text_projector): Linear(in_features=64, out_features=64, bias=True)
  (modal_alignment): Sequential(
    (0): Linear(in_features=64, out_features=128, bias=True)
    (1): ReLU()
    (2): Dropout(p=0.1, inplace=False)
    (3): Linear(in_features=128, out_features=64, bias=True)
  )
  (multihead_attn): MultiHeadAttention(
    (query): Linear(in_features=64, out_features=64, bias=True)
    (key): Linear(in_features=64, out_features=64, bias=True)
    (value): Linear(in_features=64, out_features=64, bias=True)
  )
)
Trainable parameters: 107804994
Fri 24 Jan 2025 18:43:47 INFO epoch 0 training [time: 17.92s, train loss: 63.6105]
Fri 24 Jan 2025 18:43:53 INFO epoch 0 evaluating [time: 3.24s, valid_score: 0.063600]
Fri 24 Jan 2025 18:43:53 INFO valid result: 
recall@5: 0.0271    recall@10: 0.0429    recall@20: 0.0636    recall@50: 0.1017    ndcg@5: 0.0172    ndcg@10: 0.0223    ndcg@20: 0.0275    ndcg@50: 0.0351    precision@5: 0.0055    precision@10: 0.0043    precision@20: 0.0032    precision@50: 0.0021    map@5: 0.0139    map@10: 0.0160    map@20: 0.0174    map@50: 0.0186    
…
Valid: recall@5: 0.0426    recall@10: 0.0647    recall@20: 0.0957    recall@50: 0.1473    ndcg@5: 0.0277    ndcg@10: 0.0349    ndcg@20: 0.0427    ndcg@50: 0.0529    precision@5: 0.0086    precision@10: 0.0066    precision@20: 0.0049    precision@50: 0.0030    map@5: 0.0228    map@10: 0.0257    map@20: 0.0278    map@50: 0.0294    ,
Test: recall@5: 0.0418    recall@10: 0.0646    recall@20: 0.0956    recall@50: 0.1494    ndcg@5: 0.0276    ndcg@10: 0.0350    ndcg@20: 0.0428    ndcg@50: 0.0536    precision@5: 0.0086    precision@10: 0.0067    precision@20: 0.0050    precision@50: 0.0031    map@5: 0.0226    map@10: 0.0257    map@20: 0.0278    map@50: 0.0295    



Fri 24 Jan 2025 19:27:32 INFO =========4/9: Parameters:['projection_dim', 'hidden_dim', 'cl_loss', 'vt_loss', 'n_layers', 'seed']=(128, 64, 0.01, 0.01, 2, 999)=======
Fri 24 Jan 2025 19:27:46 INFO MGCN(
  (user_embedding): Embedding(39387, 64)
  (item_id_embedding): Embedding(23033, 64)
  (image_embedding): Embedding(23033, 4096)
  (text_embedding): Embedding(23033, 384)
  (image_trs): Linear(in_features=4096, out_features=64, bias=True)
  (text_trs): Linear(in_features=384, out_features=64, bias=True)
  (softmax): Softmax(dim=-1)
  (query_common): Sequential(
    (0): Linear(in_features=64, out_features=64, bias=True)
    (1): Tanh()
    (2): Linear(in_features=64, out_features=1, bias=False)
  )
  (gate_v): Sequential(
    (0): Linear(in_features=64, out_features=64, bias=True)
    (1): Sigmoid()
  )
  (gate_t): Sequential(
    (0): Linear(in_features=64, out_features=64, bias=True)
    (1): Sigmoid()
  )
  (gate_image_prefer): Sequential(
    (0): Linear(in_features=64, out_features=64, bias=True)
    (1): Sigmoid()
  )
  (gate_text_prefer): Sequential(
    (0): Linear(in_features=64, out_features=64, bias=True)
    (1): Sigmoid()
  )
  (combiner): CombinedFusion(
    (text_projection_layer): Linear(in_features=64, out_features=128, bias=True)
    (image_projection_layer): Linear(in_features=64, out_features=128, bias=True)
    (gate_image_prefer): Sequential(
      (0): Linear(in_features=128, out_features=128, bias=True)
      (1): Sigmoid()
    )
    (gate_text_prefer): Sequential(
      (0): Linear(in_features=128, out_features=128, bias=True)
      (1): Sigmoid()
    )
    (query_common): Sequential(
      (0): Linear(in_features=128, out_features=128, bias=True)
      (1): Tanh()
      (2): Linear(in_features=128, out_features=1, bias=False)
    )
    (dynamic_scalar): Sequential(
      (0): Linear(in_features=256, out_features=64, bias=True)
      (1): ReLU()
      (2): Dropout(p=0.5, inplace=False)
      (3): Linear(in_features=64, out_features=1, bias=True)
      (4): Sigmoid()
    )
    (combiner_layer): Linear(in_features=384, out_features=64, bias=True)
    (output_layer): Linear(in_features=64, out_features=64, bias=True)
    (dropout): Dropout(p=0.5, inplace=False)
  )
  (cb): Combiner(
    (text_projection_layer): Linear(in_features=64, out_features=128, bias=True)
    (image_projection_layer): Linear(in_features=64, out_features=128, bias=True)
    (attention): MultiheadAttention(
      (out_proj): NonDynamicallyQuantizableLinear(in_features=128, out_features=128, bias=True)
    )
    (modal_alignment): Sequential(
      (0): Linear(in_features=128, out_features=64, bias=True)
      (1): ReLU()
      (2): Dropout(p=0.1, inplace=False)
      (3): Linear(in_features=64, out_features=128, bias=True)
    )
    (dynamic_scalar): Sequential(
      (0): Linear(in_features=256, out_features=64, bias=True)
      (1): ReLU()
      (2): Dropout(p=0.1, inplace=False)
      (3): Linear(in_features=64, out_features=1, bias=True)
      (4): Sigmoid()
    )
    (fusion_layer): Sequential(
      (0): Linear(in_features=384, out_features=64, bias=True)
      (1): ReLU()
      (2): Dropout(p=0.1, inplace=False)
      (3): Linear(in_features=64, out_features=64, bias=True)
    )
  )
  (img_projector): Linear(in_features=64, out_features=64, bias=True)
  (text_projector): Linear(in_features=64, out_features=64, bias=True)
  (modal_alignment): Sequential(
    (0): Linear(in_features=64, out_features=128, bias=True)
    (1): ReLU()
    (2): Dropout(p=0.1, inplace=False)
    (3): Linear(in_features=128, out_features=64, bias=True)
  )
  (multihead_attn): MultiHeadAttention(
    (query): Linear(in_features=64, out_features=64, bias=True)
    (key): Linear(in_features=64, out_features=64, bias=True)
    (value): Linear(in_features=64, out_features=64, bias=True)
  )
)
Trainable parameters: 107784002
Fri 24 Jan 2025 19:28:04 INFO epoch 0 training [time: 17.78s, train loss: 78.8068]
Fri 24 Jan 2025 19:28:11 INFO epoch 0 evaluating [time: 3.30s, valid_score: 0.039600]
Fri 24 Jan 2025 19:28:11 INFO valid result: 
recall@5: 0.0169    recall@10: 0.0261    recall@20: 0.0396    recall@50: 0.0664    ndcg@5: 0.0109    ndcg@10: 0.0138    ndcg@20: 0.0173    ndcg@50: 0.0226    precision@5: 0.0034    precision@10: 0.0027    precision@20: 0.0020    precision@50: 0.0013    map@5: 0.0089    map@10: 0.0101    map@20: 0.0110    map@50: 0.0119    
…
Valid: recall@5: 0.0430    recall@10: 0.0653    recall@20: 0.0942    recall@50: 0.1470    ndcg@5: 0.0283    ndcg@10: 0.0355    ndcg@20: 0.0428    ndcg@50: 0.0532    precision@5: 0.0087    precision@10: 0.0066    precision@20: 0.0048    precision@50: 0.0030    map@5: 0.0234    map@10: 0.0263    map@20: 0.0283    map@50: 0.0300    ,
Test: recall@5: 0.0421    recall@10: 0.0651    recall@20: 0.0961    recall@50: 0.1486    ndcg@5: 0.0281    ndcg@10: 0.0356    ndcg@20: 0.0435    ndcg@50: 0.0539    precision@5: 0.0087    precision@10: 0.0068    precision@20: 0.0050    precision@50: 0.0031    map@5: 0.0233    map@10: 0.0264    map@20: 0.0285    map@50: 0.0301    



Fri 24 Jan 2025 20:17:43 INFO =========5/9: Parameters:['projection_dim', 'hidden_dim', 'cl_loss', 'vt_loss', 'n_layers', 'seed']=(128, 128, 0.01, 0.01, 2, 999)=======
Fri 24 Jan 2025 20:17:58 INFO MGCN(
  (user_embedding): Embedding(39387, 64)
  (item_id_embedding): Embedding(23033, 64)
  (image_embedding): Embedding(23033, 4096)
  (text_embedding): Embedding(23033, 384)
  (image_trs): Linear(in_features=4096, out_features=64, bias=True)
  (text_trs): Linear(in_features=384, out_features=64, bias=True)
  (softmax): Softmax(dim=-1)
  (query_common): Sequential(
    (0): Linear(in_features=64, out_features=64, bias=True)
    (1): Tanh()
    (2): Linear(in_features=64, out_features=1, bias=False)
  )
  (gate_v): Sequential(
    (0): Linear(in_features=64, out_features=64, bias=True)
    (1): Sigmoid()
  )
  (gate_t): Sequential(
    (0): Linear(in_features=64, out_features=64, bias=True)
    (1): Sigmoid()
  )
  (gate_image_prefer): Sequential(
    (0): Linear(in_features=64, out_features=64, bias=True)
    (1): Sigmoid()
  )
  (gate_text_prefer): Sequential(
    (0): Linear(in_features=64, out_features=64, bias=True)
    (1): Sigmoid()
  )
  (combiner): CombinedFusion(
    (text_projection_layer): Linear(in_features=64, out_features=128, bias=True)
    (image_projection_layer): Linear(in_features=64, out_features=128, bias=True)
    (gate_image_prefer): Sequential(
      (0): Linear(in_features=128, out_features=128, bias=True)
      (1): Sigmoid()
    )
    (gate_text_prefer): Sequential(
      (0): Linear(in_features=128, out_features=128, bias=True)
      (1): Sigmoid()
    )
    (query_common): Sequential(
      (0): Linear(in_features=128, out_features=128, bias=True)
      (1): Tanh()
      (2): Linear(in_features=128, out_features=1, bias=False)
    )
    (dynamic_scalar): Sequential(
      (0): Linear(in_features=256, out_features=128, bias=True)
      (1): ReLU()
      (2): Dropout(p=0.5, inplace=False)
      (3): Linear(in_features=128, out_features=1, bias=True)
      (4): Sigmoid()
    )
    (combiner_layer): Linear(in_features=384, out_features=128, bias=True)
    (output_layer): Linear(in_features=128, out_features=64, bias=True)
    (dropout): Dropout(p=0.5, inplace=False)
  )
  (cb): Combiner(
    (text_projection_layer): Linear(in_features=64, out_features=128, bias=True)
    (image_projection_layer): Linear(in_features=64, out_features=128, bias=True)
    (attention): MultiheadAttention(
      (out_proj): NonDynamicallyQuantizableLinear(in_features=128, out_features=128, bias=True)
    )
    (modal_alignment): Sequential(
      (0): Linear(in_features=128, out_features=128, bias=True)
      (1): ReLU()
      (2): Dropout(p=0.1, inplace=False)
      (3): Linear(in_features=128, out_features=128, bias=True)
    )
    (dynamic_scalar): Sequential(
      (0): Linear(in_features=256, out_features=128, bias=True)
      (1): ReLU()
      (2): Dropout(p=0.1, inplace=False)
      (3): Linear(in_features=128, out_features=1, bias=True)
      (4): Sigmoid()
    )
    (fusion_layer): Sequential(
      (0): Linear(in_features=384, out_features=128, bias=True)
      (1): ReLU()
      (2): Dropout(p=0.1, inplace=False)
      (3): Linear(in_features=128, out_features=64, bias=True)
    )
  )
  (img_projector): Linear(in_features=64, out_features=64, bias=True)
  (text_projector): Linear(in_features=64, out_features=64, bias=True)
  (modal_alignment): Sequential(
    (0): Linear(in_features=64, out_features=128, bias=True)
    (1): ReLU()
    (2): Dropout(p=0.1, inplace=False)
    (3): Linear(in_features=128, out_features=64, bias=True)
  )
  (multihead_attn): MultiHeadAttention(
    (query): Linear(in_features=64, out_features=64, bias=True)
    (key): Linear(in_features=64, out_features=64, bias=True)
    (value): Linear(in_features=64, out_features=64, bias=True)
  )
)
Trainable parameters: 107890946
Fri 24 Jan 2025 20:18:16 INFO epoch 0 training [time: 17.90s, train loss: 70.9939]
Fri 24 Jan 2025 20:18:22 INFO epoch 0 evaluating [time: 3.25s, valid_score: 0.056800]
Fri 24 Jan 2025 20:18:22 INFO valid result: 
recall@5: 0.0236    recall@10: 0.0376    recall@20: 0.0568    recall@50: 0.0918    ndcg@5: 0.0155    ndcg@10: 0.0201    ndcg@20: 0.0249    ndcg@50: 0.0319    precision@5: 0.0048    precision@10: 0.0038    precision@20: 0.0029    precision@50: 0.0019    map@5: 0.0129    map@10: 0.0147    map@20: 0.0160    map@50: 0.0171    
…
Valid: recall@5: 0.0430    recall@10: 0.0653    recall@20: 0.0942    recall@50: 0.1470    ndcg@5: 0.0283    ndcg@10: 0.0355    ndcg@20: 0.0428    ndcg@50: 0.0532    precision@5: 0.0087    precision@10: 0.0066    precision@20: 0.0048    precision@50: 0.0030    map@5: 0.0234    map@10: 0.0263    map@20: 0.0283    map@50: 0.0300    ,
Test: recall@5: 0.0421    recall@10: 0.0651    recall@20: 0.0961    recall@50: 0.1486    ndcg@5: 0.0281    ndcg@10: 0.0356    ndcg@20: 0.0435    ndcg@50: 0.0539    precision@5: 0.0087    precision@10: 0.0068    precision@20: 0.0050    precision@50: 0.0031    map@5: 0.0233    map@10: 0.0264    map@20: 0.0285    map@50: 0.0301    



Fri 24 Jan 2025 21:01:36 INFO =========6/9: Parameters:['projection_dim', 'hidden_dim', 'cl_loss', 'vt_loss', 'n_layers', 'seed']=(128, 256, 0.01, 0.01, 2, 999)=======
Fri 24 Jan 2025 21:01:51 INFO MGCN(
  (user_embedding): Embedding(39387, 64)
  (item_id_embedding): Embedding(23033, 64)
  (image_embedding): Embedding(23033, 4096)
  (text_embedding): Embedding(23033, 384)
  (image_trs): Linear(in_features=4096, out_features=64, bias=True)
  (text_trs): Linear(in_features=384, out_features=64, bias=True)
  (softmax): Softmax(dim=-1)
  (query_common): Sequential(
    (0): Linear(in_features=64, out_features=64, bias=True)
    (1): Tanh()
    (2): Linear(in_features=64, out_features=1, bias=False)
  )
  (gate_v): Sequential(
    (0): Linear(in_features=64, out_features=64, bias=True)
    (1): Sigmoid()
  )
  (gate_t): Sequential(
    (0): Linear(in_features=64, out_features=64, bias=True)
    (1): Sigmoid()
  )
  (gate_image_prefer): Sequential(
    (0): Linear(in_features=64, out_features=64, bias=True)
    (1): Sigmoid()
  )
  (gate_text_prefer): Sequential(
    (0): Linear(in_features=64, out_features=64, bias=True)
    (1): Sigmoid()
  )
  (combiner): CombinedFusion(
    (text_projection_layer): Linear(in_features=64, out_features=128, bias=True)
    (image_projection_layer): Linear(in_features=64, out_features=128, bias=True)
    (gate_image_prefer): Sequential(
      (0): Linear(in_features=128, out_features=128, bias=True)
      (1): Sigmoid()
    )
    (gate_text_prefer): Sequential(
      (0): Linear(in_features=128, out_features=128, bias=True)
      (1): Sigmoid()
    )
    (query_common): Sequential(
      (0): Linear(in_features=128, out_features=128, bias=True)
      (1): Tanh()
      (2): Linear(in_features=128, out_features=1, bias=False)
    )
    (dynamic_scalar): Sequential(
      (0): Linear(in_features=256, out_features=256, bias=True)
      (1): ReLU()
      (2): Dropout(p=0.5, inplace=False)
      (3): Linear(in_features=256, out_features=1, bias=True)
      (4): Sigmoid()
    )
    (combiner_layer): Linear(in_features=384, out_features=256, bias=True)
    (output_layer): Linear(in_features=256, out_features=64, bias=True)
    (dropout): Dropout(p=0.5, inplace=False)
  )
  (cb): Combiner(
    (text_projection_layer): Linear(in_features=64, out_features=128, bias=True)
    (image_projection_layer): Linear(in_features=64, out_features=128, bias=True)
    (attention): MultiheadAttention(
      (out_proj): NonDynamicallyQuantizableLinear(in_features=128, out_features=128, bias=True)
    )
    (modal_alignment): Sequential(
      (0): Linear(in_features=128, out_features=256, bias=True)
      (1): ReLU()
      (2): Dropout(p=0.1, inplace=False)
      (3): Linear(in_features=256, out_features=128, bias=True)
    )
    (dynamic_scalar): Sequential(
      (0): Linear(in_features=256, out_features=256, bias=True)
      (1): ReLU()
      (2): Dropout(p=0.1, inplace=False)
      (3): Linear(in_features=256, out_features=1, bias=True)
      (4): Sigmoid()
    )
    (fusion_layer): Sequential(
      (0): Linear(in_features=384, out_features=256, bias=True)
      (1): ReLU()
      (2): Dropout(p=0.1, inplace=False)
      (3): Linear(in_features=256, out_features=64, bias=True)
    )
  )
  (img_projector): Linear(in_features=64, out_features=64, bias=True)
  (text_projector): Linear(in_features=64, out_features=64, bias=True)
  (modal_alignment): Sequential(
    (0): Linear(in_features=64, out_features=128, bias=True)
    (1): ReLU()
    (2): Dropout(p=0.1, inplace=False)
    (3): Linear(in_features=128, out_features=64, bias=True)
  )
  (multihead_attn): MultiHeadAttention(
    (query): Linear(in_features=64, out_features=64, bias=True)
    (key): Linear(in_features=64, out_features=64, bias=True)
    (value): Linear(in_features=64, out_features=64, bias=True)
  )
)
Trainable parameters: 108104834
Fri 24 Jan 2025 21:02:09 INFO epoch 0 training [time: 18.20s, train loss: 62.3344]
Fri 24 Jan 2025 21:02:16 INFO epoch 0 evaluating [time: 3.25s, valid_score: 0.067500]
Fri 24 Jan 2025 21:02:16 INFO valid result: 
recall@5: 0.0284    recall@10: 0.0441    recall@20: 0.0675    recall@50: 0.1067    ndcg@5: 0.0185    ndcg@10: 0.0235    ndcg@20: 0.0294    ndcg@50: 0.0372    precision@5: 0.0057    precision@10: 0.0045    precision@20: 0.0034    precision@50: 0.0022    map@5: 0.0152    map@10: 0.0172    map@20: 0.0188    map@50: 0.0201    
…
Valid: recall@5: 0.0430    recall@10: 0.0653    recall@20: 0.0942    recall@50: 0.1470    ndcg@5: 0.0283    ndcg@10: 0.0355    ndcg@20: 0.0428    ndcg@50: 0.0532    precision@5: 0.0087    precision@10: 0.0066    precision@20: 0.0048    precision@50: 0.0030    map@5: 0.0234    map@10: 0.0263    map@20: 0.0283    map@50: 0.0300    ,
Test: recall@5: 0.0421    recall@10: 0.0651    recall@20: 0.0961    recall@50: 0.1486    ndcg@5: 0.0281    ndcg@10: 0.0356    ndcg@20: 0.0435    ndcg@50: 0.0539    precision@5: 0.0087    precision@10: 0.0068    precision@20: 0.0050    precision@50: 0.0031    map@5: 0.0233    map@10: 0.0264    map@20: 0.0285    map@50: 0.0301    



Fri 24 Jan 2025 21:59:16 INFO =========7/9: Parameters:['projection_dim', 'hidden_dim', 'cl_loss', 'vt_loss', 'n_layers', 'seed']=(256, 64, 0.01, 0.01, 2, 999)=======
Fri 24 Jan 2025 21:59:30 INFO MGCN(
  (user_embedding): Embedding(39387, 64)
  (item_id_embedding): Embedding(23033, 64)
  (image_embedding): Embedding(23033, 4096)
  (text_embedding): Embedding(23033, 384)
  (image_trs): Linear(in_features=4096, out_features=64, bias=True)
  (text_trs): Linear(in_features=384, out_features=64, bias=True)
  (softmax): Softmax(dim=-1)
  (query_common): Sequential(
    (0): Linear(in_features=64, out_features=64, bias=True)
    (1): Tanh()
    (2): Linear(in_features=64, out_features=1, bias=False)
  )
  (gate_v): Sequential(
    (0): Linear(in_features=64, out_features=64, bias=True)
    (1): Sigmoid()
  )
  (gate_t): Sequential(
    (0): Linear(in_features=64, out_features=64, bias=True)
    (1): Sigmoid()
  )
  (gate_image_prefer): Sequential(
    (0): Linear(in_features=64, out_features=64, bias=True)
    (1): Sigmoid()
  )
  (gate_text_prefer): Sequential(
    (0): Linear(in_features=64, out_features=64, bias=True)
    (1): Sigmoid()
  )
  (combiner): CombinedFusion(
    (text_projection_layer): Linear(in_features=64, out_features=256, bias=True)
    (image_projection_layer): Linear(in_features=64, out_features=256, bias=True)
    (gate_image_prefer): Sequential(
      (0): Linear(in_features=256, out_features=256, bias=True)
      (1): Sigmoid()
    )
    (gate_text_prefer): Sequential(
      (0): Linear(in_features=256, out_features=256, bias=True)
      (1): Sigmoid()
    )
    (query_common): Sequential(
      (0): Linear(in_features=256, out_features=256, bias=True)
      (1): Tanh()
      (2): Linear(in_features=256, out_features=1, bias=False)
    )
    (dynamic_scalar): Sequential(
      (0): Linear(in_features=512, out_features=64, bias=True)
      (1): ReLU()
      (2): Dropout(p=0.5, inplace=False)
      (3): Linear(in_features=64, out_features=1, bias=True)
      (4): Sigmoid()
    )
    (combiner_layer): Linear(in_features=768, out_features=64, bias=True)
    (output_layer): Linear(in_features=64, out_features=64, bias=True)
    (dropout): Dropout(p=0.5, inplace=False)
  )
  (cb): Combiner(
    (text_projection_layer): Linear(in_features=64, out_features=256, bias=True)
    (image_projection_layer): Linear(in_features=64, out_features=256, bias=True)
    (attention): MultiheadAttention(
      (out_proj): NonDynamicallyQuantizableLinear(in_features=256, out_features=256, bias=True)
    )
    (modal_alignment): Sequential(
      (0): Linear(in_features=256, out_features=64, bias=True)
      (1): ReLU()
      (2): Dropout(p=0.1, inplace=False)
      (3): Linear(in_features=64, out_features=256, bias=True)
    )
    (dynamic_scalar): Sequential(
      (0): Linear(in_features=512, out_features=64, bias=True)
      (1): ReLU()
      (2): Dropout(p=0.1, inplace=False)
      (3): Linear(in_features=64, out_features=1, bias=True)
      (4): Sigmoid()
    )
    (fusion_layer): Sequential(
      (0): Linear(in_features=768, out_features=64, bias=True)
      (1): ReLU()
      (2): Dropout(p=0.1, inplace=False)
      (3): Linear(in_features=64, out_features=64, bias=True)
    )
  )
  (img_projector): Linear(in_features=64, out_features=64, bias=True)
  (text_projector): Linear(in_features=64, out_features=64, bias=True)
  (modal_alignment): Sequential(
    (0): Linear(in_features=64, out_features=128, bias=True)
    (1): ReLU()
    (2): Dropout(p=0.1, inplace=False)
    (3): Linear(in_features=128, out_features=64, bias=True)
  )
  (multihead_attn): MultiHeadAttention(
    (query): Linear(in_features=64, out_features=64, bias=True)
    (key): Linear(in_features=64, out_features=64, bias=True)
    (value): Linear(in_features=64, out_features=64, bias=True)
  )
)
Trainable parameters: 108260802
Fri 24 Jan 2025 21:59:49 INFO epoch 0 training [time: 18.45s, train loss: 82.1054]
Fri 24 Jan 2025 21:59:56 INFO epoch 0 evaluating [time: 3.26s, valid_score: 0.029300]
Fri 24 Jan 2025 21:59:56 INFO valid result: 
recall@5: 0.0111    recall@10: 0.0180    recall@20: 0.0293    recall@50: 0.0516    ndcg@5: 0.0073    ndcg@10: 0.0095    ndcg@20: 0.0124    ndcg@50: 0.0168    precision@5: 0.0023    precision@10: 0.0018    precision@20: 0.0015    precision@50: 0.0011    map@5: 0.0061    map@10: 0.0070    map@20: 0.0077    map@50: 0.0084    
…
Valid: recall@5: 0.0430    recall@10: 0.0653    recall@20: 0.0942    recall@50: 0.1470    ndcg@5: 0.0283    ndcg@10: 0.0355    ndcg@20: 0.0428    ndcg@50: 0.0532    precision@5: 0.0087    precision@10: 0.0066    precision@20: 0.0048    precision@50: 0.0030    map@5: 0.0234    map@10: 0.0263    map@20: 0.0283    map@50: 0.0300    ,
Test: recall@5: 0.0421    recall@10: 0.0651    recall@20: 0.0961    recall@50: 0.1486    ndcg@5: 0.0281    ndcg@10: 0.0356    ndcg@20: 0.0435    ndcg@50: 0.0539    precision@5: 0.0087    precision@10: 0.0068    precision@20: 0.0050    precision@50: 0.0031    map@5: 0.0233    map@10: 0.0264    map@20: 0.0285    map@50: 0.0301    



Fri 24 Jan 2025 22:50:26 INFO =========8/9: Parameters:['projection_dim', 'hidden_dim', 'cl_loss', 'vt_loss', 'n_layers', 'seed']=(256, 128, 0.01, 0.01, 2, 999)=======
Fri 24 Jan 2025 22:50:40 INFO MGCN(
  (user_embedding): Embedding(39387, 64)
  (item_id_embedding): Embedding(23033, 64)
  (image_embedding): Embedding(23033, 4096)
  (text_embedding): Embedding(23033, 384)
  (image_trs): Linear(in_features=4096, out_features=64, bias=True)
  (text_trs): Linear(in_features=384, out_features=64, bias=True)
  (softmax): Softmax(dim=-1)
  (query_common): Sequential(
    (0): Linear(in_features=64, out_features=64, bias=True)
    (1): Tanh()
    (2): Linear(in_features=64, out_features=1, bias=False)
  )
  (gate_v): Sequential(
    (0): Linear(in_features=64, out_features=64, bias=True)
    (1): Sigmoid()
  )
  (gate_t): Sequential(
    (0): Linear(in_features=64, out_features=64, bias=True)
    (1): Sigmoid()
  )
  (gate_image_prefer): Sequential(
    (0): Linear(in_features=64, out_features=64, bias=True)
    (1): Sigmoid()
  )
  (gate_text_prefer): Sequential(
    (0): Linear(in_features=64, out_features=64, bias=True)
    (1): Sigmoid()
  )
  (combiner): CombinedFusion(
    (text_projection_layer): Linear(in_features=64, out_features=256, bias=True)
    (image_projection_layer): Linear(in_features=64, out_features=256, bias=True)
    (gate_image_prefer): Sequential(
      (0): Linear(in_features=256, out_features=256, bias=True)
      (1): Sigmoid()
    )
    (gate_text_prefer): Sequential(
      (0): Linear(in_features=256, out_features=256, bias=True)
      (1): Sigmoid()
    )
    (query_common): Sequential(
      (0): Linear(in_features=256, out_features=256, bias=True)
      (1): Tanh()
      (2): Linear(in_features=256, out_features=1, bias=False)
    )
    (dynamic_scalar): Sequential(
      (0): Linear(in_features=512, out_features=128, bias=True)
      (1): ReLU()
      (2): Dropout(p=0.5, inplace=False)
      (3): Linear(in_features=128, out_features=1, bias=True)
      (4): Sigmoid()
    )
    (combiner_layer): Linear(in_features=768, out_features=128, bias=True)
    (output_layer): Linear(in_features=128, out_features=64, bias=True)
    (dropout): Dropout(p=0.5, inplace=False)
  )
  (cb): Combiner(
    (text_projection_layer): Linear(in_features=64, out_features=256, bias=True)
    (image_projection_layer): Linear(in_features=64, out_features=256, bias=True)
    (attention): MultiheadAttention(
      (out_proj): NonDynamicallyQuantizableLinear(in_features=256, out_features=256, bias=True)
    )
    (modal_alignment): Sequential(
      (0): Linear(in_features=256, out_features=128, bias=True)
      (1): ReLU()
      (2): Dropout(p=0.1, inplace=False)
      (3): Linear(in_features=128, out_features=256, bias=True)
    )
    (dynamic_scalar): Sequential(
      (0): Linear(in_features=512, out_features=128, bias=True)
      (1): ReLU()
      (2): Dropout(p=0.1, inplace=False)
      (3): Linear(in_features=128, out_features=1, bias=True)
      (4): Sigmoid()
    )
    (fusion_layer): Sequential(
      (0): Linear(in_features=768, out_features=128, bias=True)
      (1): ReLU()
      (2): Dropout(p=0.1, inplace=False)
      (3): Linear(in_features=128, out_features=64, bias=True)
    )
  )
  (img_projector): Linear(in_features=64, out_features=64, bias=True)
  (text_projector): Linear(in_features=64, out_features=64, bias=True)
  (modal_alignment): Sequential(
    (0): Linear(in_features=64, out_features=128, bias=True)
    (1): ReLU()
    (2): Dropout(p=0.1, inplace=False)
    (3): Linear(in_features=128, out_features=64, bias=True)
  )
  (multihead_attn): MultiHeadAttention(
    (query): Linear(in_features=64, out_features=64, bias=True)
    (key): Linear(in_features=64, out_features=64, bias=True)
    (value): Linear(in_features=64, out_features=64, bias=True)
  )
)
Trainable parameters: 108466050
Fri 24 Jan 2025 22:50:59 INFO epoch 0 training [time: 18.61s, train loss: 71.0694]
Fri 24 Jan 2025 22:51:05 INFO epoch 0 evaluating [time: 3.29s, valid_score: 0.060300]
Fri 24 Jan 2025 22:51:05 INFO valid result: 
recall@5: 0.0250    recall@10: 0.0400    recall@20: 0.0603    recall@50: 0.0976    ndcg@5: 0.0161    ndcg@10: 0.0210    ndcg@20: 0.0261    ndcg@50: 0.0335    precision@5: 0.0050    precision@10: 0.0041    precision@20: 0.0031    precision@50: 0.0020    map@5: 0.0132    map@10: 0.0152    map@20: 0.0166    map@50: 0.0178    
…
Valid: recall@5: 0.0437    recall@10: 0.0668    recall@20: 0.0964    recall@50: 0.1474    ndcg@5: 0.0286    ndcg@10: 0.0361    ndcg@20: 0.0435    ndcg@50: 0.0536    precision@5: 0.0089    precision@10: 0.0068    precision@20: 0.0049    precision@50: 0.0030    map@5: 0.0235    map@10: 0.0266    map@20: 0.0286    map@50: 0.0302    ,
Test: recall@5: 0.0422    recall@10: 0.0656    recall@20: 0.0963    recall@50: 0.1460    ndcg@5: 0.0279    ndcg@10: 0.0354    ndcg@20: 0.0432    ndcg@50: 0.0532    precision@5: 0.0087    precision@10: 0.0068    precision@20: 0.0050    precision@50: 0.0030    map@5: 0.0229    map@10: 0.0260    map@20: 0.0281    map@50: 0.0297    



Fri 24 Jan 2025 23:49:07 INFO =========9/9: Parameters:['projection_dim', 'hidden_dim', 'cl_loss', 'vt_loss', 'n_layers', 'seed']=(256, 256, 0.01, 0.01, 2, 999)=======
Fri 24 Jan 2025 23:49:22 INFO MGCN(
  (user_embedding): Embedding(39387, 64)
  (item_id_embedding): Embedding(23033, 64)
  (image_embedding): Embedding(23033, 4096)
  (text_embedding): Embedding(23033, 384)
  (image_trs): Linear(in_features=4096, out_features=64, bias=True)
  (text_trs): Linear(in_features=384, out_features=64, bias=True)
  (softmax): Softmax(dim=-1)
  (query_common): Sequential(
    (0): Linear(in_features=64, out_features=64, bias=True)
    (1): Tanh()
    (2): Linear(in_features=64, out_features=1, bias=False)
  )
  (gate_v): Sequential(
    (0): Linear(in_features=64, out_features=64, bias=True)
    (1): Sigmoid()
  )
  (gate_t): Sequential(
    (0): Linear(in_features=64, out_features=64, bias=True)
    (1): Sigmoid()
  )
  (gate_image_prefer): Sequential(
    (0): Linear(in_features=64, out_features=64, bias=True)
    (1): Sigmoid()
  )
  (gate_text_prefer): Sequential(
    (0): Linear(in_features=64, out_features=64, bias=True)
    (1): Sigmoid()
  )
  (combiner): CombinedFusion(
    (text_projection_layer): Linear(in_features=64, out_features=256, bias=True)
    (image_projection_layer): Linear(in_features=64, out_features=256, bias=True)
    (gate_image_prefer): Sequential(
      (0): Linear(in_features=256, out_features=256, bias=True)
      (1): Sigmoid()
    )
    (gate_text_prefer): Sequential(
      (0): Linear(in_features=256, out_features=256, bias=True)
      (1): Sigmoid()
    )
    (query_common): Sequential(
      (0): Linear(in_features=256, out_features=256, bias=True)
      (1): Tanh()
      (2): Linear(in_features=256, out_features=1, bias=False)
    )
    (dynamic_scalar): Sequential(
      (0): Linear(in_features=512, out_features=256, bias=True)
      (1): ReLU()
      (2): Dropout(p=0.5, inplace=False)
      (3): Linear(in_features=256, out_features=1, bias=True)
      (4): Sigmoid()
    )
    (combiner_layer): Linear(in_features=768, out_features=256, bias=True)
    (output_layer): Linear(in_features=256, out_features=64, bias=True)
    (dropout): Dropout(p=0.5, inplace=False)
  )
  (cb): Combiner(
    (text_projection_layer): Linear(in_features=64, out_features=256, bias=True)
    (image_projection_layer): Linear(in_features=64, out_features=256, bias=True)
    (attention): MultiheadAttention(
      (out_proj): NonDynamicallyQuantizableLinear(in_features=256, out_features=256, bias=True)
    )
    (modal_alignment): Sequential(
      (0): Linear(in_features=256, out_features=256, bias=True)
      (1): ReLU()
      (2): Dropout(p=0.1, inplace=False)
      (3): Linear(in_features=256, out_features=256, bias=True)
    )
    (dynamic_scalar): Sequential(
      (0): Linear(in_features=512, out_features=256, bias=True)
      (1): ReLU()
      (2): Dropout(p=0.1, inplace=False)
      (3): Linear(in_features=256, out_features=1, bias=True)
      (4): Sigmoid()
    )
    (fusion_layer): Sequential(
      (0): Linear(in_features=768, out_features=256, bias=True)
      (1): ReLU()
      (2): Dropout(p=0.1, inplace=False)
      (3): Linear(in_features=256, out_features=64, bias=True)
    )
  )
  (img_projector): Linear(in_features=64, out_features=64, bias=True)
  (text_projector): Linear(in_features=64, out_features=64, bias=True)
  (modal_alignment): Sequential(
    (0): Linear(in_features=64, out_features=128, bias=True)
    (1): ReLU()
    (2): Dropout(p=0.1, inplace=False)
    (3): Linear(in_features=128, out_features=64, bias=True)
  )
  (multihead_attn): MultiHeadAttention(
    (query): Linear(in_features=64, out_features=64, bias=True)
    (key): Linear(in_features=64, out_features=64, bias=True)
    (value): Linear(in_features=64, out_features=64, bias=True)
  )
)
Trainable parameters: 108876546
Fri 24 Jan 2025 23:49:41 INFO epoch 0 training [time: 19.10s, train loss: 64.3841]
Fri 24 Jan 2025 23:49:48 INFO epoch 0 evaluating [time: 3.33s, valid_score: 0.067000]
Fri 24 Jan 2025 23:49:48 INFO valid result: 
recall@5: 0.0280    recall@10: 0.0443    recall@20: 0.0670    recall@50: 0.1051    ndcg@5: 0.0181    ndcg@10: 0.0233    ndcg@20: 0.0290    ndcg@50: 0.0366    precision@5: 0.0057    precision@10: 0.0045    precision@20: 0.0034    precision@50: 0.0021    map@5: 0.0148    map@10: 0.0169    map@20: 0.0185    map@50: 0.0197    
…
